result/occur/887/1000/Train_887_under_1000_128_256_32_0.0004_128_2_0.pth (torch, 173231 bytes, 7 tensors)

fc1.weight f4 [128, 9]
000000 29 50 38 3e 90 f8 2d be 54 fa 57 bd 77 47 35 3e
       0.17999329 -0.1698935 -0.052728966 0.17703043
000010 d8 ec 99 be c1 4a 60 3e bf 60 9b bd d5 bb 3a 3e
       -0.3006351 0.21903516 -0.07586812 0.18235715
000020 a3 7e 8f 3d 6d ab 76 bd f8 f2 89 3d c9 ef 1c 3d
       0.07006576 -0.060222078 0.06735796 0.038314614
000030 fe 6e e2 3d 4f b9 16 be b4 b5 e4 bc 76 7f 5e bd
       0.11056326 -0.14719127 -0.027918674 -0.054320775
000040 60 f4 02 3d b7 9e 38 bb 94 00 a0 3e 79 e9 04 3e
       0.031971335 -0.0028170773 0.3125044 0.12979688
000050 cd dc 10 be bf d9 34 be cb 64 0b bd 1e 09 03 be
       -0.14146729 -0.17661189 -0.03403167 -0.12796447
000060 91 09 a9 bd 2c 79 10 3d 2d 5a 63 3e 85 10 3d 3e
       -0.08253778 0.03527181 0.22202368 0.18463333
000070 36 15 ab be 70 3f 5f 3e c7 da dc 3d bf 4f a6 3e
       -0.3341462 0.21801543 0.10783916 0.32482716
000080 5d b3 6f 3e f0 ed 9f be d1 8c 9e be 5f 77 17 be
       0.23408265 -0.3123622 -0.3096681 -0.1479163
000090 ad 9a 9b 3e f0 f2 13 bd dc f6 fe 3d 08 6c 1c be
       0.30391446 -0.036120355 0.124494284 -0.15275586
0000a0 52 0a ac 3e 4c ff 16 be f6 b3 88 3e 3d 5a 38 3c
       0.33601624 -0.14745826 0.266998 0.011251983
0000b0 1d 62 3c be 77 c1 2e 3e 5f 30 49 be 82 47 ee 3d
       -0.18396802 0.17065988 -0.19647358 0.11634733
0000c0 4c 7e ad bd b9 1b 05 bd 49 ea 9f be 68 6a 33 be
       -0.08471355 -0.03249714 -0.31233433 -0.1752106
0000d0 d5 ad 3e 3e 12 23 83 bd 02 e9 b6 3e 06 ab 95 3e
       0.18620999 -0.064031735 0.35724646 0.29232043
0000e0 69 b4 c3 bc 5f 49 4c be f8 36 69 3e 06 f6 e7 3d
       -0.023889737 -0.19949864 0.22774875 0.11326222
0000f0 16 c5 41 be c9 9a 76 3e 1b 46 62 3e b3 28 9e 3e
       -0.18922839 0.24082483 0.22097056 0.30890426
000100 3c 36 2f be 2a 37 99 bd bf bb 71 bb 57 88 73 3d
       -0.17110533 -0.07481225 -0.0036885587 0.059456196
000110 e9 71 79 be 4e c7 5f be 87 01 45 3e de 13 ae bd
       -0.2435986 -0.21853372 0.19238864 -0.08499883
000120 eb 86 39 3e f4 02 13 3d de 75 bf 3d 1d bb 9e 3d
       0.18117873 0.03589149 0.09348653 0.07750533
000130 d9 c5 0b 3e eb 53 22 3e a5 63 93 be 54 37 3c 3e
       0.13649692 0.15852325 -0.2878696 0.18380481
000140 fa 88 77 be dd 39 6b be 9a a0 35 3d ef 26 96 bd
       -0.24173346 -0.22971292 0.044342615 -0.07331645
000150 c4 0d 58 3e b4 2b 31 be 2f e6 95 be fe 6c 89 3e
       0.21099001 -0.17301828 -0.2927718 0.26840967
000160 fb 5f fc bc e9 a8 46 3e 63 45 d6 3d 64 49 8a be
       -0.030807486 0.19400372 0.10462453 -0.27009118
000170 e8 ca 8f 3d ac f9 b4 3d 35 b5 62 be 4c d8 0e be
       0.07021123 0.08836684 -0.22139437 -0.13949698
000180 ac 59 ca 3d 58 78 82 3d 42 17 04 be 5c ef ac bd
       0.09880385 0.0637061 -0.12899497 -0.08444092
000190 bd a2 a4 3e 03 90 92 bd a7 ab 4f 3e be 42 24 3e
       0.3215541 -0.07156374 0.20280324 0.16041085
0001a0 ea 71 4e be 5a 5f 88 be 20 23 ac 3e aa 12 f9 3c
       -0.20160642 -0.26635247 0.33620548 0.030404408
0001b0 ca 85 7e 3e 95 c6 c2 3d 93 64 ad 3d 5b 94 85 3e
       0.24855724 0.09510533 0.08466449 0.2608975
0001c0 04 0c ab 3e c4 22 5d be 37 ce 88 3d d5 09 88 3e
       0.33407605 -0.21595293 0.06679957 0.2657
0001d0 77 f0 79 3e d2 d0 58 3e 15 2d 5f be 8b c8 84 be
       0.24408136 0.21173409 -0.21794541 -0.25934252
0001e0 39 c7 55 be ef 4a 31 3d 10 83 a5 3e b6 c4 49 be
       -0.20876779 0.043284353 0.32326555 -0.19703946
0001f0 ea 8e 35 3e 46 3c 4e be f2 9d 9b be ca 19 96 bd
       0.17730299 -0.2014018 -0.3039394 -0.073291376
000200 ca 80 4e 3e 50 ef a4 3e 9b 6f 48 be 5c d2 aa 3d
       0.20166317 0.3221383 -0.19573824 0.08340904
000210 99 5f 93 3e c9 8b 6e 3e 6f df 5e 3e 77 7f 84 3e
       0.28783873 0.23295511 0.2176492 0.25878498
000220 70 66 70 3e ea 23 c6 3d 53 c0 54 be db 5c 84 be
       0.23476577 0.09674819 -0.20776491 -0.25852093
000230 16 5e 15 be 03 61 6f bc 04 22 3c be 1e ff 0e 3e
       -0.14586672 -0.014610532 -0.18372351 0.13964507
000240 95 cd f5 3d d2 82 51 bd 73 03 dd 3d 54 a9 e9 3d
       0.12002102 -0.05115015 0.107916735 0.1140925
000250 96 00 5f 3e db 83 66 3e 58 d3 b8 bd 4a cf ad 3e
       0.21777567 0.22511236 -0.090246856 0.33947212
000260 7b 34 2e bd f4 d5 01 bd 76 40 aa be 38 4e 4b be
       -0.042530518 -0.031698182 -0.33252305 -0.19854057
000270 ce 02 52 be 2f 47 24 be 5b b3 70 3e e9 e2 08 be
       -0.20508882 -0.1604278 0.23505919 -0.1336781
000280 5a 1b 88 be e3 2d 03 3e 06 26 db 3d 03 1c 61 3e
       -0.26583368 0.12810473 0.10700612 0.21983342
000290 06 5d 34 be cc 46 92 3d 33 ac f8 bd d5 e8 9f bd
       -0.1761361 0.0714241 -0.121422194 -0.07808081
0002a0 60 ae 86 be 88 34 1d be 55 9e d8 bd a9 a7 23 3e
       -0.26304913 -0.1535207 -0.105770744 0.15981926
0002b0 8a fa a6 3d 41 88 6e 3d 97 82 af 3e ee 46 ae 3e
       0.08153255 0.05823541 0.3427932 0.3403849
0002c0 0c 36 6b 3e fa d7 01 3d dd ee 5c be a6 c0 85 3e
       0.22969836 0.031700112 -0.21575494 0.26123542
0002d0 ea fe 76 bd 04 e6 38 bb 6d 3c a0 be 60 94 37 bd
       -0.0603017 -0.0028213272 -0.312961 -0.044819236
0002e0 ba f3 44 be f9 5f a6 3e ef 42 86 be 7e c0 73 be
       -0.192336 0.32495096 -0.2622294 -0.23803899
0002f0 03 b2 c7 3b 74 68 21 be c6 a7 14 3e 7c a6 1b be
       0.0060942187 -0.15762502 0.14517125 -0.15200227
000300 3a 6d 0c be 40 2d 29 3d 03 ce 83 3e a6 1f 55 be
       -0.13713542 0.04130292 0.25743112 -0.20812854
000310 88 4f 35 3e c3 81 68 3e 01 82 ae 3e 85 bb 55 be
       0.1770612 0.2270575 0.3408356 -0.20872314
000320 6f bc 72 3d d3 64 83 be ad 8d 95 3e 00 ca 11 be
       0.059261736 -0.2566286 0.29209653 -0.14237213
000330 da 49 64 3e af 37 92 3c 3f 8b 34 bd 41 9c 27 3c
       0.22293797 0.017848818 -0.044078108 0.010230125
000340 40 d9 a6 3d 1c a0 0c 3e cd 38 84 3d 88 bc f5 3d
       0.08146906 0.13732952 0.064561464 0.1199885
000350 f4 98 9b be 8b a1 89 3e 31 a4 9d 3e 46 70 8d 3e
       -0.3039013 0.2688106 0.3078933 0.2762472
000360 92 28 85 3e fa e6 7e be 4f 77 06 be 0a 3f 9e 3e
       0.26007515 -0.24892798 -0.1313145 0.3090747
000370 1d 6e 75 be ba 49 a4 3e 5f 1c 82 be 27 f1 60 be
       -0.23967786 0.320875 -0.2541227 -0.21966992
000380 4e a1 38 3e 06 f0 60 be 0c dd 55 bd 9b 83 61 3e
       0.18030283 -0.21966562 -0.05221276 0.2202286
000390 70 a9 8d 3e 19 af aa 3e 17 26 7f bd 95 84 70 be
       0.27668333 0.33336714 -0.062292185 -0.23488076
0003a0 66 c2 b0 3e aa 72 8c bd 75 ab 05 be 9f 92 be 3d
       0.34523314 -0.06857808 -0.13053687 0.093053095
0003b0 19 f1 77 be 9c cd 5e 3e bb 9b 5a 3e f5 11 86 be
       -0.24213065 0.21758121 0.21348469 -0.26185575
0003c0 91 cd 86 be 59 8f d1 bc 1e 51 04 3e 7b a9 f5 bc
       -0.2632871 -0.025581049 0.12921569 -0.029988041
0003d0 56 9b 47 be e3 b1 bf 3c cf be a6 be 2c fa 81 be
       -0.1949285 0.023400253 -0.3256745 -0.25386178
0003e0 a2 56 67 be d6 6e 7f 3e 1d 9e 8d 3e fa 4c ef bd
       -0.22591642 0.24944624 0.27659693 -0.11684604
0003f0 df b0 13 3d 05 c1 32 3e 66 e9 13 3d 64 1d 19 be
       0.03605735 0.17456444 0.036111258 -0.14952618

fc1.bias f4 [128]
000000 e9 11 4b be a4 20 47 be 70 3e ab 3c ba a1 25 be
       -0.19831051 -0.19446045 0.020903796 -0.16174975
000010 e2 21 a0 3e aa 52 e2 bd 0c 9d 25 be 0a 40 aa bd
       0.3127585 -0.11050923 -0.1617319 -0.08312996
000020 e9 e1 86 be a1 91 40 3e 78 47 96 3e 8f 49 35 be
       -0.2634423 0.18805553 0.293514 -0.17703842
000030 a7 69 e1 bd 8d 01 9d 3e f4 03 6a be be e0 e2 3d
       -0.1100648 0.30665246 -0.2285307 0.110780224
000040 82 90 86 be b9 57 9e be 29 1f 06 b9 29 b6 36 be
       -0.26282126 -0.30926302 -0.00012790844 -0.17842926
000050 57 0c 4f 3e 34 d2 a8 bd 6d 95 1f bb 44 d2 24 be
       0.20219551 -0.08243218 -0.002435054 -0.16095835
000060 56 e5 1b 3e df 89 a5 3e 80 e9 4c bd 70 3d 61 be
       0.15224203 0.3233175 -0.05002737 -0.21996093
000070 f5 1d 9d be 33 97 ab 3e 10 ba 11 3e 4a a0 18 3e
       -0.30686918 0.33513793 0.14231133 0.14904895
000080 f7 e4 5d 3d 7a f8 33 3e 26 9a fd 3d d7 b0 32 3e
       0.054173436 0.17575255 0.12382917 0.17450272
000090 15 b0 63 3e 1d 5d 36 3d f9 49 95 3e f1 73 60 3e
       0.22235139 0.044522393 0.29158 0.21919228
0000a0 1d 4b fa 3a 7e da 06 be 2b 68 21 3d 86 ca 8a 3e
       0.0019095872 -0.13169286 0.039405983 0.27107638
0000b0 d4 a5 62 3e bc 73 1a be 9d 4f 6e bd 4a 59 f2 3d
       0.22133571 -0.15083212 -0.058181394 0.11833437
0000c0 02 c1 0b 3e d4 93 aa 3e 59 89 34 3e 9e 99 ff 3d
       0.13647845 0.3331591 0.17630519 0.12480472
0000d0 c9 fe a8 3d 00 b2 93 be c7 75 cf bd b9 04 9f 3c
       0.082517214 -0.2884674 -0.10129886 0.019411432
0000e0 84 d9 77 be 52 96 9d be 1e 70 68 3e 98 0f f5 3d
       -0.2420407 -0.30778748 0.2269902 0.11965865
0000f0 7f 69 92 be 17 0b 23 3d 2b 89 36 3e a4 b2 56 3e
       -0.28596112 0.039805498 0.17825763 0.20966583
000100 10 87 9f 3e 23 c0 ed bd aa 3a 20 3e be c6 7f be
       0.31157732 -0.11608913 0.15647379 -0.24978158
000110 e8 ae d8 bc 5e 1a 4c be 2f 5c 9b bd 56 03 49 3e
       -0.02645059 -0.19931933 -0.07585942 0.19630179
000120 95 d4 1b 3e fb fd 20 be 3d dc 82 bd b3 75 48 bd
       0.15217812 -0.15721886 -0.06389663 -0.04894037
000130 55 dc 09 be 56 01 45 be 3a a5 87 3e 66 49 7f 3e
       -0.13462956 -0.19238791 0.26493245 0.24930343
000140 45 c6 90 3e d4 32 2f be 33 e1 80 3e c7 c3 d0 bd
       0.28276268 -0.17109233 0.25171813 -0.101935916
000150 bb 94 99 bd 5e ec 8e bd bf ea 52 bc 7b 79 1c be
       -0.07499071 -0.06978677 -0.012873351 -0.15280716
000160 c1 23 2c 3d fa b6 6d be 1e 47 1e 3e 67 d0 96 be
       0.042026285 -0.23214331 0.15456817 -0.29455873
000170 57 be f6 bd 18 58 70 be 9d a7 70 3e 9f e0 69 3e
       -0.12048023 -0.23471105 0.2350144 0.22839592
000180 b1 5e 86 be 92 7f 3b be 2b 89 a0 3e 10 6b e2 3d
       -0.2624412 -0.18310383 0.3135465 0.11055577
000190 c7 3d 5e 3e 31 45 77 be 13 86 28 3e 2a 4c 5e 3e
       0.21703254 -0.24147488 0.16457395 0.21708742
0001a0 1a 47 8d bd f2 b6 2e bc ce 32 79 3e 45 11 d1 3d
       -0.06898327 -0.010663735 0.24335787 0.10208372
0001b0 eb 89 a2 3d 10 ee a4 bb c2 2e 17 be 34 e9 5d be
       0.07936462 -0.005033262 -0.1476393 -0.21670991
0001c0 d9 65 b2 3e 17 b0 cf bc 61 ac 9b 3e 75 4b 90 3e
       0.3484333 -0.02535252 0.30404952 0.2818257
0001d0 9f d4 26 be 01 1f e9 3c 9c b3 d3 bd 88 fc 6a bb
       -0.16292046 0.028457167 -0.10336992 -0.0035856087
0001e0 e5 18 70 3e 4b 3b 52 3e 6e bd 32 be e3 fe 12 be
       0.23446997 0.20530431 -0.17455074 -0.14355044
0001f0 85 f0 66 be a1 57 91 be 8e 22 5e 3e 35 e3 4d be
       -0.22552688 -0.28387168 0.21692869 -0.20106204

fc2.weight f4 [256, 128]
000000 fe 08 76 ba 4e 86 a1 3b 2c 70 5c 3c f0 6a 1d bc
       -0.0009385495 0.0049293404 0.013454478 -0.009608015
000010 9d 21 27 3d 7d ce 78 3c 2a e1 72 3d 44 a3 7a 3c
       0.04080354 0.015185949 0.059296764 0.015297715
000020 3e f0 5f bb d7 ca ec 3b 66 cb 54 3d 5c d5 14 3c
       -0.0034170295 0.007226329 0.05195179 0.009084072
000030 7f 3e 69 3d 7a 1c 51 bc 92 15 d1 bb 28 a8 a5 3d
       0.056944367 -0.012763137 -0.006380745 0.08088714
000040 07 f7 b5 bd cf f6 62 3c f3 74 ad 3d 31 62 4c bd
       -0.08885007 0.013852789 0.08469572 -0.04989833
000050 08 50 06 bc 84 ae 51 39 73 0b c9 3c 31 5e e4 3c
       -0.008197792 0.00019996805 0.024541592 0.027876945
000060 8f 94 56 3c f4 a9 ed 3c 39 30 2d bd d2 f1 2d 3d
       0.013096943 0.029011704 -0.042282317 0.042466946
000070 c6 06 a7 bc 1f 45 4a 3d 0a 5e ff bc 7c 7b a7 bd
       -0.020388972 0.049382325 -0.031172771 -0.0817785
000080 e7 a3 5b 3c 5f 9e 38 3d 20 42 0c bc 8d 75 d8 bb
       0.013405777 0.04507291 -0.008560687 -0.00660581
000090 b2 8a a3 bb d2 0c 57 3d e2 9a 67 3b 71 66 ac bd
       -0.004990899 0.05250246 0.003534012 -0.08417977
0000a0 69 c8 82 bd 8a 4c 8f 3b bb ef 36 bc 61 78 a2 3d
       -0.063858815 0.004373138 -0.011165555 0.07933117
0000b0 0d 59 db bc df d2 94 3d 78 24 a1 bd 2c 49 b0 bd
       -0.026775861 0.07266783 -0.07868284 -0.086077064
0000c0 41 4c 41 bc 56 5f 7d bd 05 ed 00 bd d6 f9 da 3b
       -0.0117979655 -0.061858498 -0.03147604 0.006682615
0000d0 5a 86 a5 bd c7 39 8b 3d 52 28 6a bd ef 05 99 3d
       -0.08082266 0.067981295 -0.05716736 0.07471835
0000e0 be f4 0c 3d d0 fb 29 bc d1 c7 a4 bd 99 1c 19 3c
       0.03441309 -0.010374978 -0.080459245 0.009345197
0000f0 e1 6f 37 bd d8 cc 94 3d 1a e4 8d bd 27 ee e8 bc
       -0.04478443 0.07265633 -0.069282725 -0.028433872
000100 e4 6b 5e bd cc 63 82 bd b0 b7 50 bd e2 71 40 bc
       -0.05430211 -0.06366691 -0.050956428 -0.011745902
000110 cb 28 53 3a 15 e5 25 3c a8 57 4f 3d 93 b3 2a bd
       0.000805509 0.010125418 0.050620705 -0.04167516
000120 fa 8f 4b bd fe ac aa bc 81 5d a8 3d 42 21 49 bc
       -0.049697854 -0.020834442 0.082209595 -0.012275996
000130 9f 58 8e bd bd 12 9a 3d 68 62 8e 3c e1 6b 5a 3c
       -0.06950497 0.07523105 0.017380908 0.013331384
000140 19 b0 2e 3c 9a b6 8a 3d d2 b7 38 bd bd 2a 73 3d
       0.010662102 0.0677311 -0.04509718 0.05936693
000150 aa 71 bc 3d 35 46 bc bc ab 6c 78 3d 5c 6f 5d 3d
       0.09201367 -0.022982696 0.06065051 0.05406128
000160 28 c4 9d 3d 70 5c 79 bc 1f 47 70 bd 26 c6 e0 bc
       0.077034295 -0.015219793 -0.058661576 -0.027438235
000170 bc bb 92 bd 78 b4 fb 3b 81 39 b8 3d 9c 6a a8 3d
       -0.07164714 0.0076814257 0.08995343 0.08223459
000180 05 ed 94 3d a1 5a 6d 3c 10 2b 5f bb f9 b8 5e 3d
       0.072717704 0.01448694 -0.0034052767 0.054375622
000190 47 b9 72 3d 45 12 69 bc 5a 36 c6 bc a5 b6 ed 3c
       0.059258725 -0.014225547 -0.024195839 0.029017756
0001a0 e2 7d 16 bc e5 c6 8e bd 24 29 4b bd bb 04 88 3d
       -0.009185286 -0.0697153 -0.04959978 0.06641527
0001b0 c9 c4 9c 3d e5 ea ee bc 54 27 5d bc 9b 5f 1a bd
       0.07654721 -0.02916474 -0.013498146 -0.037688833
0001c0 f1 37 0f bd 8f ff b0 3d 14 48 aa bd 0f fa 0f 3d
       -0.03496546 0.08642494 -0.08314529 0.035150584
0001d0 a4 dc ac bd 00 32 40 bd b7 bb 4e bc ec 90 39 3c
       -0.08440521 -0.046922684 -0.012617997 0.011326056
0001e0 54 af a2 bc f4 dd 03 bd 21 b5 25 bd af c9 6b bd
       -0.019858994 -0.032194093 -0.04045594 -0.057565387
0001f0 ae a6 87 bd a3 d3 4f bd ee 3e 9f 3d 71 33 14 bd
       -0.066235885 -0.050738942 0.07775675 -0.03618187
000200 bd 4b c4 bd ac 9b 40 3d bc 89 6a 3d f1 78 2a 3d
       -0.095847584 0.04702346 0.05726026 0.041619245
000210 49 26 90 bd 9a c0 d7 bd 36 ef 1f bd b9 6c 0e bd
       -0.07038552 -0.10534783 -0.03904649 -0.034771655
000220 89 98 86 3c 71 80 5e 3d 05 45 23 3d 61 94 55 bd
       0.016430156 0.05432171 0.039860744 -0.05214346
000230 9e 1f 53 3d 37 8c 06 bd 68 38 18 3b ba 32 1b 3d
       0.051543824 -0.032848563 0.002322698 0.037890173
000240 7e e0 9d 3c 6f b5 41 3c 8f f3 80 3c 9f 64 91 3d
       0.019272085 0.011823042 0.015741138 0.0709927
000250 1c 48 12 3d f2 5d c9 3d f1 7c dc 3c 5d db 08 bd
       0.0357133 0.09832372 0.026915045 -0.033412326
000260 f9 da 4f 3d f3 1b 4d 3c 00 9f de 3d 67 38 d5 bc
       0.050745938 0.012518871 0.108701706 -0.026027871
000270 b1 5a cf 3d 6a f2 5b bd b7 30 7b 3d 5d a5 83 bd
       0.1012472 -0.05369798 0.061325755 -0.06428025
000280 1c 9d 86 3d 2a 2b df 3c 51 f3 8a 3d 97 d4 b3 bd
       0.06572935 0.027242262 0.0678469 -0.08780783
000290 66 2e 93 bd 7b 89 f8 3c 2b 55 5f bc 9b 62 50 3d
       -0.07186584 0.030338993 -0.0136311455 0.050875288
0002a0 b2 5f 98 bd 73 fd 4a bd c4 7f c5 3c 91 20 90 3d
       -0.074401274 -0.049558114 0.024108775 0.070374615
0002b0 62 e4 5e 3d 6f c5 6f bc 10 60 90 ba d4 29 6b bc
       0.05441702 -0.014634474 -0.0011014957 -0.014353234
0002c0 96 06 90 3d 65 0f 9b bd c0 35 8d bc bb 68 7c bd
       0.07032506 -0.07571296 -0.017237544 -0.061623316
0002d0 ff 1f 08 3d f9 e8 1d 3c 0d 55 95 3d 72 77 a2 3d
       0.03323364 0.009638065 0.07291613 0.07932939
0002e0 f2 5b b7 bd 19 cf 2a bd d5 bc 05 3c 17 4a 25 3c
       -0.08953084 -0.04170141 0.008162697 0.010088465
0002f0 8b 79 16 bd ab 51 fe bc 24 07 49 bd be 03 74 3c
       -0.036737006 -0.031044802 -0.049079075 0.01489347
000300 48 0c a7 3d 7a 52 ff bc 04 b7 9f 3d 41 dc 41 bd
       0.08156639 -0.031167258 0.07798579 -0.04732919
000310 c0 02 ac 3c 6d 2b 46 bd 1c 08 c9 bd ed b1 b3 3c
       0.020997405 -0.048381258 -0.09816 0.021935428
000320 3a 83 67 bd df df b3 3d e8 32 ae 3d fd f4 89 bd
       -0.05652163 0.087829344 0.08505803 -0.06736181
000330 77 af d8 bc 46 06 b9 bc 19 b7 e7 bc 9f 57 1c bd
       -0.026450856 -0.022586 -0.02828555 -0.0381695
000340 51 4a 7e bc ee fe 3c 3d 57 ef 1f 3d f6 2a 94 3d
       -0.015520648 0.046141557 0.03904661 0.07234757
000350 c0 9a a0 3b 08 a6 c1 3c 19 0f 42 bb a0 cd 14 bd
       0.00490126 0.02363874 -0.002961105 -0.03632891
000360 fc 07 b3 3b 32 3f b8 bd 33 80 cb ba 4c 9d 24 bd
       0.0054635983 -0.089964285 -0.0015525877 -0.040189072
000370 08 53 40 bd fd 7c 69 bd 02 9f 0d bd 31 80 a2 bd
       -0.046954185 -0.057003964 -0.03457547 -0.07934607
000380 50 e1 c7 b9 0c 01 62 bc f0 99 03 bc fb ed cd 3d
       -0.0003812411 -0.013794195 -0.008032307 0.10055157
000390 fb 3a 77 3d 6f db 13 3d 94 c3 55 bd dc 63 99 3c
       0.060358983 0.03609794 -0.05218847 0.018724374
0003a0 af 8c 68 bd d3 60 39 3d 6d 52 90 3d 35 fc 0e 3b
       -0.05677479 0.045258354 0.070469715 0.0021817808
0003b0 7e ca 7f 3d f4 12 8a 3d 82 1d 94 bc 8c 60 1d bd
       0.06244897 0.06741896 -0.018080477 -0.038422152
0003c0 97 64 06 3c 1c 00 fc 3b da 83 7a bd 9b e4 d0 bc
       0.008202693 0.0076904427 -0.0611609 -0.025499633
0003d0 9d a3 60 bc 8a cf a6 3d 7f 7e 21 bc 01 45 27 3d
       -0.013710883 0.08145054 -0.009856819 0.04083729
0003e0 2d ed b9 3d 46 1c 24 bc e0 24 8d bb fe 87 74 3c
       0.09078441 -0.010016507 -0.0043073744 0.014925001
0003f0 13 f5 53 bd c8 79 94 bd 2b 9d 14 bb 8c 34 59 3c
       -0.051747393 -0.072497904 -0.0022676687 0.013257157

fc2.bias f4 [256]
000000 ea cc 4f 3d 91 bc 54 b9 c4 33 6c bc e8 b2 63 bd
       0.05073253 -0.00020288142 -0.014416639 -0.05559054
000010 31 3c 53 bc 00 69 97 3d a4 aa fc bb d2 ee a5 3d
       -0.012892769 0.07393074 -0.0077107716 0.08102192
000020 51 a1 91 3b 91 b3 b0 bd 32 03 50 bd b3 c3 bb 3a
       0.0044442792 -0.086279996 -0.050784297 0.0014325291
000030 80 f2 54 3b ad 28 96 3d 93 61 ec 3c 98 60 9e 3c
       0.0032493174 0.07331977 0.02885512 0.019333169
000040 5f 17 98 bb 83 42 82 bd 0d 3d 81 3d 80 06 bb bd
       -0.004641458 -0.06360342 0.06310473 -0.09132099
000050 84 55 22 bd 21 bc 8c bd 4e e6 14 3c 06 36 3e bd
       -0.039632335 -0.0687182 0.009088112 -0.04643824
000060 85 9d 87 3d ed 52 83 bd 6e 6f 51 bd e1 f0 a0 3d
       0.06621841 -0.06412301 -0.05113166 0.07858444
000070 b8 e1 07 3d 84 be af bd 53 d6 90 3d db 21 84 3d
       0.033174247 -0.0858126 0.07072129 0.0645177
000080 6d 58 72 b9 e0 06 cd bd 9b a8 98 bd da df 32 bc
       -0.0002311186 -0.10011077 -0.07454034 -0.010917628
000090 28 a3 3f bd af 41 95 3d 2d 94 f0 bc fb 5d 95 3d
       -0.046786457 0.07287919 -0.02936753 0.07293316
0000a0 29 e5 11 3b 85 d5 0b bc 7e 5e 3a bd 85 f3 c0 3d
       0.0022261834 -0.008534794 -0.04550027 0.09421448
0000b0 3e 04 c8 bd dd 92 95 bd ad f0 be 3d b5 64 47 3d
       -0.09766434 -0.073034026 0.09323249 0.048680026
0000c0 07 5b 4a 3d 72 51 bc bc 5f f7 bd 3a 51 45 43 3c
       0.049403217 -0.022988055 0.0014493278 0.011918382
0000d0 e0 62 91 3d be ae 1b bd 63 e9 41 3d a6 ef 3e bd
       0.07098937 -0.038008444 0.047341716 -0.046615265
0000e0 16 2a 50 3c f9 7d ba 3a 83 66 84 3d 98 1b 39 bd
       0.012705347 0.0014228217 0.06464865 -0.04519233
0000f0 73 6c b8 bc 72 65 ab 3d ad 3a 52 3d 1f 75 0c bd
       -0.02251265 0.083689585 0.05132549 -0.034291383
000100 7b 32 35 bc d8 29 c6 3d 43 48 95 3d 74 be 83 bd
       -0.011059399 0.0967595 0.072891735 -0.064328104
000110 3d 17 5b bd bf ef 8d 3c 77 ec e3 3c 3c 3e 5a bd
       -0.05348896 0.017326234 0.027822716 -0.053282008
000120 6d 41 84 3d f9 c7 85 3c c3 d9 71 bd 55 0c 69 bd
       0.064577915 0.016330706 -0.059045564 -0.056896526
000130 d4 48 73 3d 48 5c 76 3d e2 3a d3 3b 12 fb d5 bb
       0.059395626 0.0601466 0.0064462284 -0.006530174
000140 fc 3b 16 3d 7e 55 96 bc 86 98 05 3d a3 e0 2b 3c
       0.0366783 -0.018351313 0.03261616 0.010490569
000150 8a c5 68 bd ba 8c db 3c c6 c5 84 3d f1 05 5a bd
       -0.056829013 0.026800502 0.06483035 -0.053228322
000160 38 d2 85 3c 60 92 01 3d ce 46 2c 3d d4 78 73 3d
       0.016335592 0.031633735 0.042059712 0.059441403
000170 56 e8 d0 bc 9a 73 a3 3c 74 b6 1b bd cf 61 89 bc
       -0.025501411 0.019952584 -0.038015798 -0.016770272
000180 a1 12 70 3d 34 78 06 bd 88 10 09 3d 44 28 36 bd
       0.058611516 -0.03282948 0.03346303 -0.044471994
000190 6f 05 9c bd 54 3d e0 3c ac d5 92 3d 4c a3 91 bd
       -0.07618224 0.027372994 0.07169661 -0.071112245
0001a0 f8 52 b0 3d 58 b0 9f 3d 25 90 bc 3d 6f 03 d4 3b
       0.08609575 0.07797307 0.09207181 0.006470136
0001b0 18 d1 d4 3c 99 0c 8c bd 34 c9 22 3d 1d 70 93 bc
       0.02597861 -0.0683834 0.039742664 -0.017997796
0001c0 f5 f9 95 bd 6c c4 90 bd 9b e2 eb bb ea a1 e6 bc
       -0.07323066 -0.070687145 -0.0071986443 -0.028153379
0001d0 3a 01 53 bd bb 09 87 bd ff c5 77 bd c8 ba 53 bd
       -0.05151484 -0.06593653 -0.06049156 -0.0516918
0001e0 e4 ad 81 3d d2 f2 96 3d ee cc 2a bc 5d 07 65 bc
       0.06331995 0.07370533 -0.010424836 -0.013978806
0001f0 c1 a2 f3 39 7f af 19 3d 50 ff 51 bc 60 7c 78 3d
       0.00046469833 0.03752088 -0.012817219 0.06066549
000200 02 60 98 bd 26 ba d2 3d 35 5a a1 3d 99 de 60 3d
       -0.07440187 0.10289411 0.07878534 0.054899786
000210 3a d4 1e 3c 8b 32 77 bd af 09 b7 bd 48 a9 9c bd
       0.009694153 -0.060350936 -0.08937394 -0.07649475
000220 11 d6 b2 3c 0d 79 cc 3c ee 2a 88 bd e3 c5 4f 3a
       0.02183059 0.024960065 -0.06648813 0.0007925911
000230 d9 7a b7 bc 0f 3b cb 3b df 5d b5 3b be d2 78 bd
       -0.022397446 0.0062021087 0.005534872 -0.060747854
000240 fe 8c 03 3d 9c 26 31 3b 37 f3 f8 bb ec cf 12 3d
       0.032116883 0.002703107 -0.007597353 0.03584282
000250 d9 bc ea 3b d4 a5 43 bd c1 96 01 bd de 03 4e bd
       0.0071636257 -0.047765568 -0.03163791 -0.050296657
000260 0f 53 05 3d 87 ec 94 3c c4 6d 8d 3d af 83 13 bd
       0.032549914 0.018179191 0.06905702 -0.036014255
000270 0e 9d b4 3c 46 b1 7f 3d c2 03 2e bd 2c af 59 3d
       0.022047546 0.06242492 -0.042484052 0.053145573
000280 38 7b 88 3c 57 1d e6 bc 49 1d 99 bc ee 24 c7 bc
       0.016660318 -0.028090162 -0.018690722 -0.024309602
000290 ed c0 c8 bc c1 2f a7 3d 68 e8 80 bd 1a eb b1 3c
       -0.024506057 0.08163405 -0.06294328 0.02171855
0002a0 47 8f 32 bc 72 67 36 3c f2 ae 57 bd 75 16 92 bd
       -0.010898418 0.011133062 -0.052657075 -0.071331896
0002b0 9a 92 c7 3d 04 fa 33 bd 8f 8b 3e 3c 7d 61 80 3d
       0.09744759 -0.043939605 0.011629953 0.062685944
0002c0 a7 4c 17 3d 0b af 85 3b 7a 41 f8 3c 43 cc 43 3c
       0.036938336 0.0040797046 0.03030466 0.011950555
0002d0 8a 2f ac bd 43 56 84 bd 08 5f 6d 3d cf 49 76 3d
       -0.08407505 -0.064617656 0.057951957 0.060128983
0002e0 1a 8a d9 bc fe 7d 75 bd 6e d7 be 3d e3 3e 8d bc
       -0.02655511 -0.05993461 0.09318434 -0.0172419
0002f0 99 5e 03 bd ce 0c 2a b9 96 e8 58 bd d6 10 49 3c
       -0.032072637 -0.00016217233 -0.052956186 0.01227208
000300 88 20 8c bd 84 f5 75 bd 9d 78 62 bc b4 65 e0 bb
       -0.06842142 -0.060048595 -0.013822702 -0.0068480615
000310 72 09 7e 3c 2c c9 b2 3d fd 1a 31 bd 01 28 30 3d
       0.015505182 0.08729777 -0.04323863 0.0430069
000320 18 5b 17 bd ba 2c b8 ba f9 26 9a bb 23 06 83 bd
       -0.03695211 -0.0014051415 -0.004704353 -0.06397655
000330 0a a0 29 3d 1e 60 a0 bc ff 7d 94 bd f6 69 db 39
       0.04141239 -0.019577082 -0.07250594 0.00041849882
000340 f6 51 19 3d 82 f3 be 3c 63 f4 c3 bb 1b f9 8c 3d
       0.03743168 0.023309473 -0.005980061 0.068834506
000350 ce 68 d8 3c 81 1d 8b bd c8 94 94 3d 63 b0 89 bd
       0.026417162 -0.06792737 0.0725494 -0.06723096
000360 8d aa af 3d cb bc b6 bd 60 e5 5e 3d c7 b7 62 3d
       0.08577452 -0.08922728 0.054417968 0.055351045
000370 59 12 82 bd f9 c9 18 3b 81 2a 8a 3d 0c 30 31 bd
       -0.06351156 0.0023313744 0.06746388 -0.04325871
000380 79 2d b4 3d d5 0c 0b 3d af a6 85 bc 01 aa 6e 3d
       0.08797736 0.033947784 -0.016314832 0.058267597
000390 da c1 23 3d 1f dd bb 3d 75 5c 8d 3a 4d 9e ba bd
       0.039979793 0.09173035 0.0010785001 -0.09112225
0003a0 b0 06 4b bd 27 01 ca 3b 93 7e 6e 3d 48 20 83 bd
       -0.049566925 0.006164688 0.05822618 -0.064026415
0003b0 e4 72 ba 3b 73 9c 35 3d 9d 0b 6c bb cb 84 0d bd
       0.0056899656 0.044338655 -0.0036017664 -0.03455047
0003c0 2b 57 1a 3d 6d a6 07 3d f2 2e 6e 3d 32 98 9f bd
       0.037680786 0.0331177 0.05815024 -0.07792701
0003d0 9f 3e 94 bc 29 0d aa bd d7 45 07 bd 5c 8c eb 3c
       -0.018096266 -0.08303291 -0.03302559 0.028753452
0003e0 68 d4 8e bb a0 68 fb 3c 23 76 92 3d 67 b2 ce bd
       -0.004358817 0.030689538 0.07151439 -0.10092621
0003f0 82 9e 43 bd 4c fe bc bd 99 05 7a bd 94 1f 9c 3c
       -0.047758587 -0.09228191 -0.061040495 0.019058026

fc3.weight f4 [32, 256]
000000 06 88 0e bd a2 76 0e bd 5e 47 6a bc 83 64 24 bd
       -0.03479769 -0.034781106 -0.014299242 -0.040134918
000010 3f 71 05 3d ac 4a 06 3d 6e 91 52 3c 8b b8 87 3b
       0.032578703 0.032786056 0.012852056 0.0041418723
000020 44 97 25 3d 77 8d 88 3d a3 c4 a8 bc bb d0 5a bd
       0.04042746 0.06667607 -0.020601576 -0.053421717
000030 29 c2 6e 3d 92 7f 3c bd c6 c5 f3 3c 5a 21 f6 bc
       0.058290634 -0.046020098 0.029757392 -0.0300452
000040 f6 ea 95 3a d4 71 6f 3b 97 5c 4e bd f1 f0 1e 3d
       0.0011437822 0.0036536353 -0.05038127 0.038804
000050 2b 91 aa bc a6 e0 f3 3c 2b a8 4b 3d e8 b0 37 3d
       -0.020821175 0.029770207 0.049720924 0.044846445
000060 5c 94 18 bd 0a 0d b7 bc e0 ca 9b bb d3 e9 e8 bc
       -0.03725086 -0.022345085 -0.004754409 -0.028431809
000070 10 d3 4c 3d a7 1e 49 3d 2d 3e a0 bc a2 a3 7c bd
       0.050005972 0.049101498 -0.019560898 -0.06167949
000080 49 16 97 bd 99 7f e7 bc b5 a8 07 bd 75 c6 24 3d
       -0.073772974 -0.028259085 -0.033119876 0.040228326
000090 22 48 f3 bc 6b 99 5e bd d8 ba 87 3d 10 0a 8f bd
       -0.029697482 -0.05434553 0.066274345 -0.06984341
0000a0 a1 da 6f 3d a3 e6 ba bc 27 11 f1 bc 25 1c c2 3c
       0.05855811 -0.022815054 -0.029427124 0.023695061
0000b0 00 63 3f 3d 5a 97 26 bd 7f c6 24 3d 23 71 cd bb
       0.046725273 -0.040671684 0.040228363 -0.0062695905
0000c0 1e a1 88 3d 8a f7 75 3d 6f 68 a7 bc f2 e4 8e bc
       0.06671356 0.060050525 -0.02043554 -0.017443154
0000d0 83 0c 77 bd b7 e6 15 bd e8 4d 22 3c fa 1c 8a bc
       -0.060314666 -0.03659698 0.00990627 -0.01685952
0000e0 e1 bc 79 bd 82 5a c2 3b 7e 53 31 bd d8 1e 33 bd
       -0.060971145 0.0059311995 -0.043292515 -0.043730587
0000f0 e9 a2 ad 3a d6 66 ff bc fa 2d 12 3c bd 56 92 bc
       0.0013247404 -0.031176966 0.0089220945 -0.017863626
000100 6c 64 a4 bc eb 87 d2 3b 41 42 dd bc db 40 8d bb
       -0.020067416 0.006424894 -0.027009131 -0.00431071
000110 8a 1e 81 3d 1c 73 cc 3c 9a 08 6e bb 43 63 4a bd
       0.06304653 0.024957232 -0.0036321045 -0.04941107
000120 91 e3 bd 3c 37 95 71 bd 32 61 7d 3d 19 6a 04 3d
       0.023179801 -0.058980193 0.06186027 0.032327745
000130 cd fc 37 bd 01 5b 1a bc f7 4d 5f 3d e4 85 f9 bc
       -0.044918824 -0.009421111 0.054517712 -0.030459352
000140 1a 94 82 bb 79 fa 8e 3d 3c d2 88 bc 88 85 d4 3c
       -0.0039849402 0.069813676 -0.01670181 0.025942579
000150 d7 79 4e 3d 23 08 98 bc bf 6c 1b 3d 22 24 75 bc
       0.050409164 -0.018558567 0.037945505 -0.014962228
000160 0f 4c 5c 3d c2 48 15 bc d5 d6 b8 3c 81 09 45 bd
       0.053783473 -0.009111585 0.022563377 -0.048104767
000170 16 3c 1e bb 9f c4 f4 bb eb d8 8a bd 2a 35 df bc
       -0.00241447 -0.007469728 -0.06779655 -0.02724703
000180 1a 33 00 3d 69 6f 8f bd 8a 05 aa 3b 82 cf a6 3c
       0.031298734 -0.07003672 0.0051886486 0.02036262
000190 4a b7 fc bb 22 1f 97 bc 5c ad bd bb 3e 1a 1e bc
       -0.0077122794 -0.018447462 -0.0057884883 -0.009649811
0001a0 cb df 64 bd 4b b9 91 bc f6 0c 93 3c 7d 5d 9f bd
       -0.055877488 -0.01778855 0.017950516 -0.07781503
0001b0 c2 21 56 bd 13 72 2f bd 1b 05 20 bd 37 45 6a 3a
       -0.052278288 -0.0428334 -0.03906737 0.00089367054
0001c0 bc e9 15 3d 52 1a 36 3d f4 dc c4 3c d1 7c 5b 3c
       0.03659986 0.044458695 0.02403114 0.013396458
0001d0 0c ac 86 bd 3f a7 4c bd d5 25 70 3d ef 71 66 3d
       -0.06575784 -0.049964186 0.05862983 0.056261
0001e0 6b 15 c3 3c 6d 4c 92 bd 3a 36 88 bd 6a 80 29 3d
       0.023813924 -0.07143483 -0.06650968 0.04138223
0001f0 ba 5e 70 bd a2 c9 6f bc 5f 4c 70 3b 93 d7 5c 3d
       -0.05868409 -0.014635475 0.0036666614 0.053916525
000200 8d 65 ec 3a bf 59 85 bd 14 77 71 bd dd 68 c9 bc
       0.0018035636 -0.06511258 -0.058951452 -0.024586136
000210 b8 ad d3 bb e2 28 52 bc 68 79 a5 bc 7a 10 1a bd
       -0.006459918 -0.01282713 -0.020199493 -0.03761337
000220 bb ef 60 bc fc 95 9b 3b a7 40 9d 3d 79 d6 2e bd
       -0.013729031 0.004748104 0.07678347 -0.042685006
000230 8b 4f 07 3d dc cc 84 3c 81 a9 aa 3b 00 4c 7e bd
       0.033034842 0.016210966 0.0052081947 -0.062084198
000240 4b 10 ce bc c5 40 4c bd 95 fa 26 bc 6c 70 0c 3b
       -0.025154253 -0.049866457 -0.010191579 0.0021429313
000250 b7 27 3a bd b1 37 7b 3d 8a 71 89 3d 51 88 7f bd
       -0.04544803 0.06133241 0.06711109 -0.06238586
000260 53 27 e4 bc 40 5f c2 3c 10 79 2a 3d 28 f8 af bc
       -0.027850782 0.02372706 0.04161936 -0.021480635
000270 6f 2f f6 b9 83 41 5a 3d 1c dc e8 bc 54 fe 65 3c
       -0.00046956117 0.053285133 -0.028425269 0.014037687
000280 97 d5 b8 bc 37 4e 03 bd db 1d c9 3b ed 88 3e bd
       -0.022562785 -0.032057013 0.0061375923 -0.0465173
000290 1d 51 35 bc 2a 34 07 3d 1e 56 5f 3d 1e 80 43 bd
       -0.011066702 0.033008732 0.054525487 -0.047729604
0002a0 bf de 26 bd d5 64 48 bd c7 14 21 3d 85 d4 32 bd
       -0.04073977 -0.048924286 0.039326455 -0.043659706
0002b0 8b 8d 52 3c 6d 09 93 bc b7 e8 f8 bb 01 08 88 bc
       0.012851129 -0.01794883 -0.007596101 -0.016605379
0002c0 6c 46 8a bc 65 18 96 3b 43 54 df bc 0f 75 4b bc
       -0.016879283 0.004580545 -0.027261859 -0.012418046
0002d0 97 71 50 3d 76 2c 0c 3d 17 4f c9 bb 41 b0 a2 bc
       0.050889578 0.03422209 -0.0061434614 -0.019859435
0002e0 67 98 7e 3d 2e 47 83 3d 65 e4 f1 bc 55 f6 fe 3c
       0.06215706 0.06410061 -0.029527852 0.03112332
0002f0 18 07 44 3d 29 4d c1 bb 71 fa 82 3c dc c7 05 bd
       0.047858328 -0.005899091 0.01598856 -0.032661304
000300 06 57 23 bd c0 40 22 3d ef 8f 04 3d 62 f7 2f 3d
       -0.039877914 0.03961253 0.03236383 0.042960532
000310 5e 63 29 3d 03 ba 86 bd 0d 6b 4c 3b 12 de 93 3b
       0.04135453 -0.06578448 0.0031191737 0.004512557
000320 76 19 50 bd 38 e0 8a 3b 88 89 c4 3a bf 56 77 3c
       -0.05080553 0.0042381547 0.0014994601 0.0150963655
000330 57 2f 65 bd ef 8d 20 bc d0 50 06 3c 85 26 26 3d
       -0.05595335 -0.009799465 0.008197978 0.04056408
000340 8b 60 8a bd 6d ea ae 3c 53 74 48 3c 58 c1 a8 3d
       -0.06756695 0.021352017 0.012234765 0.082400024
000350 b4 e7 0a 3d 8a 09 82 3c 87 b8 3d bd 4b 03 da bc
       0.033912376 0.01587369 -0.046318557 -0.026612898
000360 8b 3c ea bc 6c 6b 6b 3b 47 13 e9 bb db 7e 3e bd
       -0.028593322 0.0035922183 -0.0071128937 -0.046507698
000370 d0 cc 86 3d b7 30 cd bb de 84 31 bd 5d 04 2b bd
       0.06582034 -0.006261911 -0.043339603 -0.041752208
000380 d4 15 5d bc 7f 0a 07 bd bf 2f a3 3c 96 8d da bc
       -0.013493974 -0.032968994 0.019920228 -0.026678842
000390 07 f6 06 3d a4 9f 86 bd b2 36 4e 3d c6 08 9d bc
       0.032949474 -0.06573418 0.05034513 -0.019169223
0003a0 97 a7 b7 3c ac c0 35 3d 54 30 a8 bb 31 93 ba 3b
       0.02241878 0.0443732 -0.0051327143 0.005693816
0003b0 fd 2f 9c 3d 4e 7d 4f 3d b3 bd d7 bc e0 08 e7 3c
       0.076263405 0.05065661 -0.026335573 0.028202474
0003c0 ca e1 38 3c f6 b5 66 bc 5c 0b 4f bc d4 fb 51 3d
       0.011284301 -0.014081469 -0.012636986 0.051265553
0003d0 3d a7 d3 ba 89 84 4d 3d 4c 2f 3e 3c 99 b9 f8 ba
       -0.0016147863 0.050175223 0.011607956 -0.0018976211
0003e0 97 17 df 3b 0d dd cf bc 56 4f f5 bb b9 f0 8f 3d
       0.006808232 -0.02537396 -0.007486264 0.07028336
0003f0 5c d8 f5 3c 65 fa 7e 3d ec b1 0d 3d 91 16 df bc
       0.030010395 0.062250514 0.034593508 -0.02723244

fc3.bias f4 [32]
000000 eb c6 6a 3b 0b 96 18 bd f7 09 3a 3d a4 1c 46 3d
       0.003582413 -0.037252467 0.04541966 0.048367158
000010 b1 25 32 bd 31 5a e4 bc 9a 78 c7 3c f1 a8 90 3a
       -0.043492977 -0.027875038 0.0243495 0.0011036677
000020 b9 40 80 bb 0f 2d 96 bd a0 14 7b 3d 51 87 0a bd
       -0.0039139655 -0.07332813 0.061298966 -0.033820454
000030 1b 1b 41 3d d3 42 70 bd 69 1b 8d ba 59 63 f6 bc
       0.04714499 -0.05865748 -0.0010765615 -0.03007667
000040 06 83 21 3d 75 35 c2 3c 59 b1 66 bd 10 1b dd 3c
       0.039431594 0.02370713 -0.056321476 0.026990443
000050 d1 7b 71 bd 34 78 77 bd 74 41 70 3c 3c 8e f9 bc
       -0.05895597 -0.06041737 0.014664043 -0.03046333
000060 3b eb c7 3c 5d 3b 3c 3d f9 7e 28 bc 30 54 5f 3c
       0.024404159 0.04595505 -0.010284179 0.013630912
000070 1a c9 e2 bb 73 c0 8f 3d f4 e6 2b 3d a6 68 86 3c
       -0.006920946 0.07019129 0.0419683 0.016407322

output.weight f4 [1, 32]
000000 22 d7 af 3d bd 75 0c be a0 f0 a4 bd cc 4a 37 3e
       0.08585955 -0.13716789 -0.08053708 0.17899626
000010 f8 f7 c8 bd e6 0d 17 3e 73 5e 8a bd 1e 04 34 bd
       -0.09812921 0.14751396 -0.06756296 -0.04394924
000020 e8 03 2c 3d 1b 0b 12 3e 67 3b 40 bd 1c e0 2d be
       0.041995913 0.14262049 -0.04693165 -0.16980022
000030 de a6 38 3e d3 5c bc 3d a6 43 f2 3d 79 83 dc bd
       0.18032405 0.09197392 0.11829309 -0.10767264
000040 cc d0 38 be 46 d8 22 3e 12 87 17 3d 7f 68 c7 bc
       -0.180484 0.15902814 0.036994047 -0.02434182
000050 c0 d8 1f 3e be 9f cf 3d 61 79 aa 3d 59 58 b1 bd
       0.15610027 0.1013789 0.083239324 -0.08659429
000060 16 2c c4 bd e9 4b 43 3d 4d f2 af bd 36 84 49 be
       -0.09578721 0.047679815 -0.08591137 -0.1967934
000070 35 ef 30 3e 16 ee 05 bd a6 b8 45 be 1a 43 01 be
       0.1727875 -0.03269776 -0.19308719 -0.12623253
