result/occur/887/1000/Train_887_under_1000_128_256_32_0.0004_128_3_0.pth (torch, 173231 bytes, 7 tensors)

fc1.weight f4 [128, 9]
000000 7d e0 2e 3e ba 41 37 be ae be 28 bd 71 4c 3b 3e
       0.17077823 -0.17896166 -0.04119747 0.18290879
000010 e9 e7 9b be d2 31 68 3e cb 14 c1 bd 7c 3a 37 3e
       -0.3045037 0.22675255 -0.09427794 0.17893404
000020 a8 f9 a6 3d 6b 6e 8d bd dd 55 75 3d ed d5 3d 3d
       0.08153087 -0.06905826 0.05989634 0.046346594
000030 60 34 e3 3d 12 7c 1d be 77 4e b7 bc 87 61 88 bd
       0.11093974 -0.1537936 -0.022376282 -0.06659227
000040 a5 30 d7 3c 63 bf a3 3b f6 c0 a7 3e 82 09 0d 3e
       0.026268313 0.0049971803 0.32764405 0.13773158
000050 df fb 14 be 0c e9 26 be dd 4a 9d bc 26 f5 f7 bd
       -0.14549206 -0.16299838 -0.019200737 -0.12107305
000060 c7 73 87 bd 8c be 4c 3d c1 a4 6e 3e 1a 2a 34 3e
       -0.0661388 0.049986407 0.23305036 0.17594185
000070 16 bc af be 49 91 6c 3e cf 25 ee 3d 0a 2b a5 3e
       -0.34323186 0.23102297 0.11628305 0.322594
000080 22 2e 7a 3e 3b 74 a9 be e1 ef 9f be ca cb 09 be
       0.24431661 -0.3309649 -0.312377 -0.13456646
000090 c9 32 a1 3e 63 27 e8 bc d9 61 ee 3d a0 59 1b be
       0.31484058 -0.028339094 0.11639757 -0.15170908
0000a0 62 81 b0 3e 91 fa 1b be ae d3 8f 3e 2a 41 99 3c
       0.3447371 -0.15232302 0.28091186 0.01870783
0000b0 33 e9 43 be e1 20 25 3e 09 45 4f be cc 16 fe 3d
       -0.19131927 0.16125824 -0.20241179 0.12406692
0000c0 90 80 a9 bd e6 ad 1c bd ae cc 9c be 76 12 45 be
       -0.082764745 -0.03825178 -0.30624908 -0.19245324
0000d0 7a 21 39 3e 93 b4 66 bd 9e 86 bd 3e e4 70 9b 3e
       0.18079177 -0.056324553 0.37016767 0.30359566
0000e0 b0 d1 0b bd 0c e9 46 be be d0 74 3e 38 2c db 3d
       -0.03413552 -0.19424838 0.23907754 0.107017934
0000f0 bd a5 31 be 64 d2 80 3e b7 00 5c 3e 55 27 a4 3e
       -0.1734838 0.25160515 0.21484648 0.32061258
000100 95 79 29 be a3 4e a7 bd 8a 34 09 bb 1e 25 8d 3d
       -0.16550286 -0.08169296 -0.0020935857 0.06891845
000110 eb 44 75 be 3f 5e 4f be 3c 33 4e 3e 15 8d ba bd
       -0.23952071 -0.20250796 0.20136732 -0.091089405
000120 b0 e1 48 3e c4 62 2b 3d f1 6d bf 3d 99 a2 ae 3d
       0.19617343 0.041842237 0.093471415 0.08527107
000130 4c ac 19 3e 15 f1 1a 3e 18 da 89 be cc 2e 49 3e
       0.15007132 0.15131028 -0.26924205 0.19646758
000140 af 98 79 be 45 34 62 be 49 90 55 3d a1 e8 a7 bd
       -0.2437465 -0.22090252 0.052139554 -0.08198667
000150 01 55 58 3e 54 6f 2a be b0 99 97 be 20 b5 8f 3e
       0.21126176 -0.16644031 -0.29609442 0.28067875
000160 ba 61 cc bc e7 45 3f 3e 43 ab ba 3d 19 b1 8f be
       -0.024948943 0.1867901 0.09114697 -0.28064802
000170 c5 ae a6 3d e5 af ba 3d 27 35 6c be f9 8c 04 be
       0.081388034 0.091155805 -0.23067151 -0.12944402
000180 c9 0b a4 3d 6c 5b 65 3d ab 18 f1 bd bd d2 8e bd
       0.0801006 0.05599539 -0.11772283 -0.06973789
000190 cd 60 a9 3e f3 bd 93 bd a4 7e 5b 3e 92 a2 32 3e
       0.33081666 -0.07213964 0.21435028 0.17444828
0001a0 0a 6e 44 be 0b b4 80 be 54 8a b3 3e 1b d5 18 3d
       -0.19182602 -0.25137362 0.35066473 0.03731261
0001b0 3e 43 84 3e 1d 9d d2 3d 1e db 9c 3d 1e d4 85 3e
       0.25832552 0.10283873 0.07658981 0.26138395
0001c0 43 f3 ae 3e 3b 4f 62 be b8 6d a3 3d 84 6e 8b 3e
       0.3416997 -0.22100537 0.079799116 0.27232754
0001d0 35 6f 72 3e 9e 2f 63 3e f9 63 56 be 62 93 89 be
       0.23675235 0.22186133 -0.20936574 -0.26870257
0001e0 ca d9 57 be 81 53 4d 3d ba 7a a1 3e 2e c6 39 be
       -0.21079174 0.050128464 0.31538945 -0.18142006
0001f0 0e 8c 3a 3e 79 b3 57 be c6 b8 9f be 97 a1 ad bd
       0.18217489 -0.21064557 -0.31195658 -0.084780864
000200 82 7e 5a 3e f1 59 a8 3e c8 5a 4b be 22 08 c2 3d
       0.21337321 0.3288112 -0.19858849 0.094742075
000210 37 c3 89 3e 62 cb 6d 3e 24 23 6c 3e 29 97 8b 3e
       0.2690675 0.23222116 0.2306028 0.27263764
000220 f2 06 7d 3e a8 70 c2 3d 0d 6b 4b be 63 de 7b be
       0.2470968 0.09494144 -0.19865055 -0.24596553
000230 a3 3c 1b be 75 29 e2 3a 6f a4 2f be a6 7e 12 3e
       -0.1515985 0.0017254787 -0.1715257 0.14306125
000240 f8 43 f5 3d b7 c3 30 bd 75 8a ca 3d 08 75 d9 3d
       0.11975855 -0.0431554 0.0988969 0.10618025
000250 bd 1c 5c 3e d1 43 5d 3e 56 17 aa bd 6e f8 ab 3e
       0.21495338 0.21607901 -0.08305232 0.33587974
000260 b7 5b 5a bd 25 70 32 bd 7b 50 af be 80 b8 40 be
       -0.053310122 -0.04356398 -0.3424109 -0.18820381
000270 1f ae 50 be 26 5a 2d be e7 8f 78 3e 35 70 19 be
       -0.20378922 -0.1692892 0.24273644 -0.1498421
000280 7c cf 8b be da c6 0d 3e 87 c5 f6 3d 61 93 6c 3e
       -0.27306736 0.13845387 0.12049394 0.23103096
000290 cd c7 3f be 76 d9 a5 3d 23 25 df bd 49 65 98 bd
       -0.18728562 0.08098118 -0.10895755 -0.074411936
0002a0 e6 cb 7d be f2 f5 11 be 82 4d d5 bd 0b d8 2c 3e
       -0.24784812 -0.14253977 -0.10415174 0.16879289
0002b0 83 4b b4 3d 77 10 53 3d e2 a4 b0 3e 92 1f b2 3e
       0.08803465 0.051529374 0.34500796 0.3478971
0002c0 b3 47 67 3e 6e d9 2e 3d a4 de 55 be c7 16 83 3e
       0.22585945 0.042687826 -0.20885712 0.25603315
0002d0 34 83 4b bd 94 27 9b 3b cc be a5 be 04 a4 1e bd
       -0.049685672 0.0047349427 -0.3237213 -0.038730636
0002e0 55 27 3b be 4a 2d a7 3e 33 e2 7d be 0c 97 6a be
       -0.18276723 0.3265174 -0.2479332 -0.22909182
0002f0 e1 ea c0 3b 9a 1c 17 be f8 01 1e 3e 98 10 27 be
       0.0058873747 -0.14757004 0.15430439 -0.16314924
000300 70 6b 09 be 2c 55 4b 3d b8 c9 82 3e 57 4b 47 be
       -0.1341989 0.049641773 0.25544524 -0.19462334
000310 bc 10 3d 3e 2a c6 63 3e d8 d5 b2 3e 8d 2e 4e be
       0.18463415 0.22243562 0.34928775 -0.20134945
000320 bc 4a 51 3d 7f 47 85 be 92 b4 97 3e 4c 74 18 be
       0.051096663 -0.2603111 0.29629952 -0.14888114
000330 e7 17 74 3e 07 da b0 3c b4 27 57 bd c4 66 9f 3c
       0.23837243 0.021588339 -0.0525281 0.019458182
000340 2d a3 b7 3d 5f ae 03 3e 59 af 7e 3d de 30 01 3e
       0.0896667 0.12859486 0.062178943 0.12616298
000350 7e 97 9f be fe 4b 90 3e 42 5a a0 3e 19 d5 88 3e
       -0.31170267 0.28182977 0.3131886 0.2672508
000360 18 d4 81 3e 52 1d 86 be 43 94 ef bd 9f 5b a2 3e
       0.25357127 -0.26194245 -0.116982006 0.31710526
000370 9f 3a 77 be 8c 5e a9 3e 57 0e 8b be 4b a3 61 be
       -0.24143456 0.33079946 -0.27159378 -0.22034948
000380 9b 99 47 3e ff b3 5d be 8f 1e 3c bd 8d 70 5a 3e
       0.1949219 -0.21650694 -0.04592758 0.21331997
000390 6d 31 8c 3e 1d 7c ab 3e bc 71 88 bd 04 d5 69 be
       0.2738146 0.33493128 -0.06662318 -0.22835165
0003a0 36 39 b1 3e a5 62 9b bd cf 91 ee bd 61 4a d5 3d
       0.3461396 -0.07587174 -0.116489045 0.10414577
0003b0 05 f2 81 be ff 3b 62 3e fa 92 66 3e ab ee 85 be
       -0.2537996 0.22093199 0.22517005 -0.26158652
0003c0 15 81 7c be f8 4a 64 bc 32 8b f9 3d e9 2f 23 bd
       -0.24658616 -0.01393389 0.121847525 -0.039840613
0003d0 d7 33 50 be 4f e9 04 3d 98 a5 a6 be b3 d1 85 be
       -0.20332275 0.032449063 -0.32548213 -0.2613655
0003e0 cf 4f 60 be fe 05 72 3e be 52 8a 3e ca d1 dd bd
       -0.21905445 0.23635098 0.27016252 -0.1083103
0003f0 ce 17 52 3d 4e cf 40 3e c0 73 f8 3c ad 5d 10 be
       0.051292233 0.1882908 0.030328631 -0.14098234

fc1.bias f4 [128]
000000 4a e5 46 be ae 8c 48 be a9 40 0e 3d a7 be 1e be
       -0.19423404 -0.19584915 0.034729633 -0.15502416
000010 1b af a1 3e d3 54 e1 bd 3d 64 1e be 3c cd a2 bd
       0.31578907 -0.11002507 -0.15467925 -0.079493016
000020 bf 11 82 be cb 1f 42 3e 72 63 96 3e 5a f3 28 be
       -0.25404164 0.1895744 0.29372746 -0.16499081
000030 35 aa dc bd c7 0a 9d 3e d0 c4 64 be 0e 4a f7 3d
       -0.10774652 0.30672285 -0.22340703 0.12074672
000040 8c 10 8a be 09 fb 9e be 01 94 26 3c dc fe 32 be
       -0.2696575 -0.310509 0.010167123 -0.17480034
000050 61 73 56 3e 02 b1 9e bd 77 a0 9e bb 60 5f 25 be
       0.20942451 -0.07748605 -0.0048409062 -0.16149664
000060 de 33 22 3e 32 ac a4 3e 18 e1 36 bd 1a 0a 63 be
       0.15840098 0.32162625 -0.04464826 -0.22171822
000070 3c 00 98 be 85 f8 aa 3e b7 7d 13 3e a3 06 1e 3e
       -0.2968768 0.3339273 0.14403425 0.15432219
000080 ee b0 7b 3d 05 5a 3b 3e d9 01 f5 3d 75 5c 32 3e
       0.06144803 0.18296058 0.11963243 0.17418082
000090 c4 9b 64 3e 36 26 08 3d 14 4a 97 3e 57 d5 62 3e
       0.22325045 0.033239566 0.29548705 0.22151695
0000a0 66 e6 23 3c cf c1 fe bd 99 5b 34 3d 02 52 8c 3e
       0.010003662 -0.1243931 0.044032667 0.27406317
0000b0 e0 05 68 3e 96 cb 1b be 26 b5 40 bd 3d f0 ed 3d
       0.22658491 -0.1521438 -0.047047757 0.116180874
0000c0 9f b1 1a 3e be 95 a9 3e cd dd 33 3e f1 7f 0b 3e
       0.1510682 0.33122057 0.17565079 0.13623025
0000d0 db f8 b1 3d 35 80 8d be ef 9a c9 bd 75 eb b4 3c
       0.086900435 -0.27636877 -0.09844004 0.02208493
0000e0 a2 0b 7c be a4 97 9e be ff 34 70 3e 1e e4 f2 3d
       -0.24613813 -0.30975068 0.23457716 0.11859916
0000f0 30 7d 93 be eb 40 40 3d 28 53 32 3e a1 d1 5b 3e
       -0.28806448 0.04693691 0.17414534 0.21466686
000100 52 fe 9f 3e 7d 3e ec bd 8b 42 1b 3e 98 3a 75 be
       0.31248719 -0.11535356 0.15162103 -0.23948133
000110 39 01 cb bc 05 e4 49 be 07 e2 a0 bd 33 77 48 3e
       -0.024780856 -0.19715889 -0.07855611 0.19576721
000120 89 5e 1b 3e 76 74 14 be 4a 0d 59 bd 21 59 28 bd
       0.15172781 -0.14497551 -0.05299119 -0.041100625
000130 cd 4c 0c be 00 6f 49 be 16 6f 8a 3e a2 c7 85 3e
       -0.13701172 -0.1967125 0.27037877 0.2612887
000140 e0 bf 94 3e fa 1e 22 be 24 03 80 3e 7d a4 cc bd
       0.2905264 -0.15832129 0.25002396 -0.09992311
000150 44 83 95 bd 4a 36 80 bd 31 0e 90 bc 1a bc 20 be
       -0.073004276 -0.06260355 -0.017584892 -0.15696755
000160 b1 aa 36 3d 68 73 73 be c5 04 22 3e c9 af 96 be
       0.044596378 -0.23774493 0.15822132 -0.29430988
000170 34 1d e9 bd b1 da 73 be 3b 27 7c 3e 73 ff 75 3e
       -0.11382523 -0.23813893 0.2462434 0.24023227
000180 dc 04 87 be 4e 32 3d be bf 9f a1 3e 9d 27 ff 3d
       -0.26370895 -0.18476221 0.3156719 0.124587275
000190 d7 59 5a 3e 7e 66 77 be 7c b4 30 3e 3d 70 64 3e
       0.21323334 -0.24160191 0.1725635 0.2230844
0001a0 54 c5 81 bd 41 59 91 bb 0c 64 7c 3e b6 76 cb 3d
       -0.063364655 -0.0044356887 0.2464754 0.09934752
0001b0 8f 55 9e 3d 98 9a c0 bb 3b 7e 1a be 72 a1 5e be
       0.07731163 -0.005877804 -0.15087216 -0.21741274
0001c0 40 33 b2 3e e8 73 de bc e3 e2 9a 3e 01 32 93 3e
       0.34804726 -0.027154878 0.30251226 0.28749087
0001d0 09 30 28 be 89 22 16 3d ad d3 dc bd 88 a5 7b bb
       -0.16424574 0.03665403 -0.107825615 -0.0038398225
0001e0 61 b3 71 3e 52 92 5c 3e c8 f3 2a be 07 fb 06 be
       0.23603584 0.21540192 -0.16694558 -0.13181697
0001f0 ae d2 65 be 11 e4 8c be 86 2f 5a 3e 4a 39 4f be
       -0.22443649 -0.2751775 0.21307191 -0.20236698

fc2.weight f4 [256, 128]
000000 ee 70 71 bc 34 39 c6 3b 48 db d3 3c a5 6a b9 bc
       -0.014736397 0.0060492996 0.025861397 -0.02263386
000010 d5 c5 2a 3d 92 85 e4 3b 06 01 85 3d d1 5f 9b 3c
       0.041692574 0.0069739306 0.06494336 0.018966587
000020 8b f3 9d 3b 3d f4 87 3b a1 cc 2c 3d 66 71 6f 3c
       0.0048202923 0.0041489885 0.042187337 0.014614439
000030 41 6a 64 3d 30 ec 33 bc 16 59 b5 bc 4f 19 b8 3d
       0.055765394 -0.010981604 -0.022137206 0.08989202
000040 79 21 bd bd 26 aa 54 3c 92 4a c5 3d a0 e3 59 bd
       -0.092349 0.01298002 0.09633364 -0.053195596
000050 8d 38 94 34 08 bd 1c 3c dc 3f d9 3c 3a 11 d9 3c
       2.7608294e-07 0.009566553 0.026519708 0.026497472
000060 35 9a 2b 3b da a4 c8 3c 26 9b 1c bd eb 74 36 3d
       0.0026184444 0.02449267 -0.0382339 0.044545095
000070 08 1a 4a bc 2e 2a 2e 3d 7c db ff bc b2 07 b7 bd
       -0.012335308 0.042520694 -0.031232588 -0.08937015
000080 78 df ba 3c 43 38 62 3d 41 30 22 bc f8 21 96 bc
       0.022811636 0.055229437 -0.0098992 -0.018326744
000090 05 32 ee bb c0 b6 62 3d 3b 73 0b 3c c2 92 af bd
       -0.0072691464 0.055350065 0.00851136 -0.08572914
0000a0 90 90 a2 bd 2c d3 36 bc 82 5a b4 bb c7 9c a0 3d
       -0.07937729 -0.011158746 -0.0055039534 0.07842403
0000b0 14 27 05 bd 60 f7 9d 3d ae de 96 bd e9 e7 b9 bd
       -0.03250797 0.07713199 -0.073666915 -0.090774365
0000c0 fd ef 06 bb ba 9f 89 bd 22 b5 11 bd 24 06 5f 3c
       -0.0020589822 -0.067199185 -0.035573132 0.013612304
0000d0 9d df 9c bd 1e a3 ac 3d 61 7e 54 bd b3 7f ac 3d
       -0.07659838 0.0842955 -0.051878337 0.08422794
0000e0 ca 3b 19 3d 7d 65 80 bb 12 69 95 bd ed 82 9d 3b
       0.037410535 -0.0039183483 -0.07295431 0.0048068673
0000f0 6e 76 34 bd d7 86 a3 3d b9 fd 89 bd d6 7b fb bc
       -0.044058256 0.07984703 -0.06737847 -0.030698698
000100 05 c3 6b bd 71 25 95 bd 1c b8 4e bd 9f de 2c bb
       -0.057559032 -0.07282532 -0.05046855 -0.002637781
000110 5e d7 cc 37 3e 07 3c 3c 47 4a 5b 3d ed 75 39 bd
       2.4418983e-05 0.011476336 0.053537633 -0.04527848
000120 a8 19 4a bd 06 d8 22 bc 63 1d be 3d 55 5b fe ba
       -0.049340874 -0.009939199 0.09282949 -0.0019405881
000130 43 51 8f bd 96 3f a2 3d b6 19 ac 3c 2e 6f c4 3c
       -0.06997921 0.07922284 0.021008354 0.023978796
000140 dd 0a 6a 3c 1b 02 9c 3d a5 73 3b bd 6f 07 73 3d
       0.014284817 0.07617589 -0.045764584 0.05933326
000150 fd 16 d1 3d 4c 5f 1a bd 41 c9 71 3d 27 e4 60 3d
       0.10209463 -0.03768854 0.05902982 0.054905083
000160 4d 32 98 3d 44 c9 1d bc bb c5 85 bd 71 e1 bf bc
       0.07431469 -0.009630505 -0.06531855 -0.023422929
000170 f8 e8 b2 bd 02 aa ba 3b 82 54 a7 3d a3 08 8f 3d
       -0.087358415 0.005696536 0.081704155 0.06984069
000180 8a 6b 9d 3d 34 f2 97 3c 67 a8 a9 bb 67 e1 7b 3d
       0.07686527 0.018548109 -0.005177546 0.061494257
000190 76 d5 8c 3d b6 ab 87 bc 75 a9 26 bd e2 ec c6 3c
       0.06876652 -0.01656137 -0.04068895 0.024282876
0001a0 31 23 81 bc a6 24 aa bd 55 0f 7d bd 13 5d 84 3d
       -0.01576385 -0.083077714 -0.0617822 0.06463065
0001b0 b5 f6 aa 3d c5 ff d6 bc 6d f3 31 bc 0a 8a 01 bd
       0.08347837 -0.026245007 -0.01086126 -0.031625785
0001c0 3f bc 27 bd 97 a7 b9 3d 8e 5d a6 bd be 38 a3 3c
       -0.04095101 0.09065168 -0.08123313 0.019924518
0001d0 4b 08 ac bd ca 0c 33 bd 48 80 30 bc 01 87 47 3c
       -0.08400019 -0.04371337 -0.010772772 0.0121781835
0001e0 1d 4f b8 bc f4 48 b2 bc e9 b3 6d bd c1 ba 49 bd
       -0.022498662 -0.021763302 -0.058032904 -0.049250368
0001f0 4b 9c 96 bd 4a 44 6a bd fc 2a 8b 3d e6 61 0c bd
       -0.07354029 -0.05719403 0.06795308 -0.03427305
000200 f5 81 d6 bd 26 c5 2e 3d 95 e8 8a 3d a1 6f 0e 3d
       -0.10474006 0.042668484 0.06782643 0.034774426
000210 26 25 80 bd e3 ad de bd 1f 70 f3 bc a5 57 d2 bc
       -0.062570855 -0.1087301 -0.02971655 -0.025676558
000220 62 7d eb 3c f7 a5 65 3d 27 77 10 3d 59 12 30 bd
       0.02874631 0.05606648 0.035269883 -0.042986248
000230 c9 31 66 3d 4b fb d4 bc 7d dd d5 bb f1 76 3c 3d
       0.056199823 -0.025998732 -0.0065266476 0.04601187
000240 29 f7 9b 3c 40 4f 99 3b 25 5f b9 3c 7a df 92 3d
       0.019038754 0.004678637 0.022628376 0.07171531
000250 c7 c4 27 3d 60 61 d3 3d 26 7d 0a 3d dd 79 ee bc
       0.040959146 0.10321307 0.033810757 -0.029110843
000260 f9 b3 34 3d 2c 8a 3d 3c 07 16 ee 3d 1c c9 e9 bc
       0.044116948 0.011568587 0.11625295 -0.02853828
000270 d0 00 dc 3d 0e 25 6a bd 43 f6 88 3d a9 87 8c bd
       0.107423425 -0.057164244 0.06687596 -0.068618126
000280 ab 27 92 3d 6a 10 16 3d b9 10 8e 3d ed 01 c1 bd
       0.07136472 0.036636747 0.06936783 -0.094241954
000290 f0 95 8d bd ae dd e9 3c dc 38 f2 bb 46 25 5f 3d
       -0.06913364 0.028548088 -0.007392032 0.054478906
0002a0 0b a3 aa bd 0f a9 70 bd 78 ad 0d 3d fe 0e 9a 3d
       -0.08331879 -0.058754977 0.03458926 0.07522391
0002b0 bd 7b 53 3d 33 90 5e bc ad 1a f2 3b 61 be ad bc
       0.051631678 -0.013584184 0.007388434 -0.021208944
0002c0 84 89 ac 3d 0e cf 9c bd e9 6a 93 bc 1d 44 59 bd
       0.084246665 -0.0765668 -0.017995315 -0.053043474
0002d0 3d 37 32 3d 85 26 9a 3c a2 fa a3 3d 49 f1 ad 3d
       0.04350971 0.018817196 0.08006789 0.08493287
0002e0 e6 97 b9 bd 9d 7a 1c bd 76 cb 92 3c 75 3b e1 3b
       -0.090621755 -0.03820287 0.017919283 0.006873543
0002f0 0d 39 2a bd 96 b0 a6 bc ec 6d 54 bd 25 ff 92 3c
       -0.041558314 -0.020347875 -0.051862642 0.017943928
000300 30 9f a8 3d 90 0a 12 bd c5 b3 a8 3d a4 25 14 bd
       0.082334876 -0.035654604 0.08237413 -0.03616871
000310 e5 79 d3 3c cb 09 2b bd 2e be cb bd 92 1c b3 3c
       0.02581496 -0.041757386 -0.09948383 0.02186421
000320 87 7d 7e bd c8 c9 d0 3d 25 7e c2 3d df 2b 6e bd
       -0.06213143 0.10194737 0.094967164 -0.058147307
000330 18 2d 03 bd 66 39 b8 bc a2 fe aa bc 55 ad ee bc
       -0.032025427 -0.022488307 -0.020873372 -0.029135386
000340 44 a9 e6 bb 6f 73 52 3d b1 c0 31 3d e3 df 9e 3d
       -0.007039221 0.051379617 0.043396655 0.07757547
000350 6e 9a 3a 3c 3d 80 81 3c e4 54 fb bb d2 6f 29 bd
       0.011389358 0.01580822 -0.007670032 -0.041366406
000360 0c 88 d8 3b dd 6e b6 bd 6f e7 98 bb d4 9a 27 bd
       0.006608015 -0.08907864 -0.004666261 -0.04091914
000370 3f 6d 63 bd 35 0d 83 bd 30 ea 42 bd 67 bb b5 bd
       -0.055524107 -0.063990034 -0.04758662 -0.08873635
000380 3d b4 1d b9 30 6d 54 bc de f5 a0 bb 6b 70 e3 3d
       -0.00015039831 -0.012965485 -0.004912122 0.111054264
000390 72 15 89 3d d1 a4 1d 3d e3 f7 80 bd 72 3f 8e 3c
       0.066935435 0.03848726 -0.06297281 0.017364237
0003a0 c8 22 78 bd c9 28 18 3d bc 15 82 3d 61 8e 7d 3b
       -0.060580045 0.03714827 0.06351802 0.00386896
0003b0 b4 36 85 3d f8 ed 87 3d 32 8c a6 bc fa 62 10 bd
       0.065045744 0.06637186 -0.020330522 -0.03525064
0003c0 c9 8c ae 3b 6b 87 0b 3c dd 59 5e bd 07 b4 07 bd
       0.0053268415 0.008516173 -0.05428492 -0.03313067
0003d0 e7 35 1e bc 73 60 b7 3d 50 53 53 bc 2a 95 18 3d
       -0.009656406 0.08953943 -0.012898281 0.03725163
0003e0 f7 0f be 3d 73 b4 2a bb 8a 3e 7b bc d5 3b c5 3c
       0.09280389 -0.0026047498 -0.015334735 0.024076382
0003f0 d7 b7 63 bd 8f 96 a8 bd b8 8d 16 bc 57 4e 29 3c
       -0.055595245 -0.08231842 -0.009189062 0.010333619

fc2.bias f4 [256]
000000 b2 3b 45 3d e7 26 e5 3a 14 e1 84 bc 42 65 5d bd
       0.048152633 0.0017482907 -0.016220607 -0.054051645
000010 3c 61 a3 bb 74 ff 92 3d 35 b8 1a bc 01 71 a3 3d
       -0.0049859565 0.0717763 -0.009443332 0.07980538
000020 ef b7 cc 3b 77 9e b4 bd b7 22 42 bd a6 a6 1b 3c
       0.0062475125 -0.08819287 -0.047396388 0.009500181
000030 06 7d 3a 3c 3d 72 a9 3d 6c 15 e6 3c 51 78 9a 3c
       0.011382347 0.08273742 0.028086387 0.0188562
000040 1c 75 79 b9 5f 3a 48 bd 3c ff 72 3d e2 0c ab bd
       -0.00023790117 -0.048883792 0.05932544 -0.083520666
000050 74 39 04 bd 63 5f 83 bd 18 b2 03 3c 68 81 32 bd
       -0.032281354 -0.06414678 0.008038066 -0.043580443
000060 a1 6e 8b 3d f1 32 4a bd 95 53 51 bd 78 57 a5 3d
       0.0680821 -0.049364988 -0.0511051 0.08073324
000070 fe 77 0c 3d 01 13 ad bd 7e 29 98 3d f8 c0 7d 3d
       0.03429412 -0.0845089 0.07429789 0.061951607
000080 b0 01 55 bb 40 43 ca bd 17 d6 8d bd 3b 29 df bb
       -0.0032502227 -0.09876108 -0.069256 -0.006810335
000090 9e 6b 21 bd ac 59 9a 3d 0a 67 e6 bc fc dd 9d 3d
       -0.039409272 0.07536635 -0.028125305 0.07708356
0000a0 2f ad d0 3b 63 ee 1d bc 3a e9 2e bd b0 9c cd 3d
       0.0063683013 -0.009639355 -0.04270289 0.100396514
0000b0 04 f2 c7 bd d3 71 99 bd 3e ab bf 3d f2 f2 5c 3d
       -0.09762958 -0.07492413 0.09358834 0.05394263
0000c0 94 b4 83 3d df 0d ca bc 4e 92 90 3a d8 4a 8c 3c
       0.06430927 -0.024664817 0.001102993 0.017125532
0000d0 4a 46 92 3d 4e 62 1f bd da f6 5a 3d a1 c3 39 bd
       0.07142313 -0.03891211 0.053458072 -0.045352582
0000e0 23 96 2c 3c 2a f0 a4 3a 3a 89 82 3d 55 98 37 bd
       0.010533842 0.0012583781 0.0637383 -0.04482301
0000f0 c1 ee bd bc dc ca b5 3d 7e df 5d 3d ab d8 08 bd
       -0.023185136 0.08876583 0.054168217 -0.033409756
000100 af 67 90 bc 18 47 d8 3d fa 8b 95 3d 8a 40 84 bd
       -0.017627565 0.10560435 0.07302089 -0.06457622
000110 f6 8d 28 bd 66 b9 b2 3c bb a0 13 3d be 78 4a bd
       -0.04115101 0.02181692 0.036041956 -0.049431555
000120 bd cb 70 3d 8a 6e 7c 3c 71 bb 68 bd 05 a9 54 bd
       0.05878805 0.015407214 -0.056819383 -0.051919002
000130 7b 24 90 3d e4 e7 78 3d 65 f1 d6 3b 98 77 14 b9
       0.07038208 0.060768023 0.006559538 -0.00014158932
000140 d3 a4 13 3d 24 a5 3c bc e9 8c fc 3c 4b 05 79 3c
       0.03604586 -0.011513982 0.03082891 0.015199016
000150 00 a7 69 bd f5 ad f3 3c 7d 05 8b 3d 7c 1d 57 bd
       -0.05704403 0.029746035 0.06788156 -0.052518353
000160 9c 6d d0 3c 76 4b 00 3d 53 cf 47 3d 3a bd 7e 3d
       0.02544289 0.031321965 0.048781704 0.06219218
000170 ac 38 85 bc 17 03 a5 3c d8 51 1d bd 2e 50 91 bc
       -0.016262375 0.020143075 -0.03840813 -0.017738428
000180 6c 6c 61 3d 1a 19 ed bc d6 7e 08 3d 7e 1e 42 bd
       0.05503504 -0.028942633 0.033324085 -0.04739236
000190 d2 a7 8e bd c1 f2 ca 3c 3f d9 92 3d f5 a6 90 bd
       -0.06965603 0.024773957 0.07170343 -0.070630945
0001a0 21 b6 bd 3d 24 ca 8e 3d 22 b4 c3 3d fd fe 61 3c
       0.09263254 0.06972149 0.09555842 0.013793704
0001b0 92 83 09 3d d1 5b 92 bd 64 de 3a 3d 9a b4 94 bc
       0.03357274 -0.07146419 0.045622244 -0.018152524
0001c0 98 13 90 bd 41 25 7e bd 46 a3 cc bb 92 38 e6 bc
       -0.07034987 -0.062047247 -0.0062450496 -0.028103147
0001d0 c3 4b 45 bd cb db 86 bd 63 2f 5b bd e4 fd 55 bd
       -0.048167955 -0.06584891 -0.05351199 -0.052244082
0001e0 1f 1d 84 3d e2 47 9a 3d 44 5b 49 bb 03 22 70 bc
       0.06450867 0.07533242 -0.0030724565 -0.0146565465
0001f0 78 2a 75 3b 85 5e 1f 3d 6b 06 2c bc 08 89 88 3d
       0.0037409347 0.0389085 -0.010499577 0.06666762
000200 bb b6 9a bd 0b cb d7 3d 5c c6 aa 3d 3d 53 75 3d
       -0.07554384 0.10536774 0.08338615 0.059893835
000210 4e cc 1b 3b 22 72 5e bd 36 43 9b bd 45 a1 93 bd
       0.0023772898 -0.054308064 -0.07581179 -0.07208494
000220 07 0a d3 3c 4b 2d c0 3c 7e 8a 76 bd b9 f9 a1 bb
       0.025761617 0.023459097 -0.06019067 -0.0049430993
000230 52 82 90 bc 45 35 68 3c cc 0a 3c 3c c9 91 79 bd
       -0.017640267 0.014172857 0.011477184 -0.060930047
000240 c2 95 15 3d c2 1f 81 3c 7f 1e cd bb 40 5e 34 3d
       0.036519773 0.015762214 -0.006259739 0.044035196
000250 c1 94 6b 3c 76 94 49 bd ee 66 e0 bc d9 70 31 bd
       0.014378727 -0.04921385 -0.02739283 -0.04332051
000260 f4 f3 0a 3d 81 0d ce 3c bf bc 9a 3d b4 8e 1d bd
       0.033924058 0.025152924 0.07555532 -0.03846617
000270 6d 53 ac 3c 5c 32 8b 3d 81 2b 37 bd f1 1b 40 3d
       0.021035874 0.06796715 -0.044719223 0.046901647
000280 8c 54 cc 3c d0 5a ac bc 8e 44 8d bc 2e 51 b1 bc
       0.024942659 -0.021039397 -0.017244603 -0.021645155
000290 3b 65 e1 bc 91 a0 bc 3d a9 04 73 bd 1b ca c0 3c
       -0.02751409 0.09210313 -0.059330616 0.023533871
0002a0 f4 4e ad bb 41 6a 22 3c bf 8d 4e bd 06 56 7a bd
       -0.005288953 0.009913028 -0.05042815 -0.061117195
0002b0 4f 31 bf 3d f5 43 0f bd a9 ad 1f 3c bf ff 8a 3d
       0.09335577 -0.03497692 0.009745994 0.06787061
0002c0 7c 0d 1a 3d 01 e4 a2 3b 4e 70 00 3d dd 0b a3 3c
       0.037610516 0.004971028 0.031357102 0.019903118
0002d0 a6 d4 95 bd e7 6e 84 bd c3 8e 72 3d 35 1b 70 3d
       -0.0731595 -0.064664654 0.05921818 0.058619697
0002e0 54 97 f4 bb d4 0e 7a bd 53 77 c6 3d b0 da 11 bc
       -0.007464329 -0.061049297 0.09690728 -0.008902237
0002f0 97 73 eb bc 3b c4 d6 ba b5 77 56 bd 63 b0 b0 3c
       -0.028741641 -0.0016385386 -0.052360255 0.021568483
000300 28 d2 8f bd 15 64 81 bd 37 5b 6b bc e5 7b 48 3b
       -0.07022506 -0.06317917 -0.014365009 0.0030591425
000310 2d 49 4b 3c c4 4f be 3d 4c fe 37 bd 5b 4b 33 3d
       0.012407583 0.09292558 -0.04492025 0.043773036
000320 1d 35 12 bd df 95 8a 3a 9c 3f a8 bb 9d 18 65 bd
       -0.035695184 0.001057323 -0.005134536 -0.055931676
000330 2e ed 3d 3d 40 6d 87 bc 61 aa 95 bd 50 17 0e 3c
       0.04636877 -0.016531587 -0.07307888 0.00867255
000340 e5 11 03 3d c6 9d f1 3c cd 9c 2a bc 0b fd 9a 3d
       0.031999487 0.029494178 -0.010413361 0.07567795
000350 7d d3 b4 3c 7a ec 7c bd c7 73 a2 3d 5c b1 8b bd
       0.022073502 -0.06174896 0.07932239 -0.06820938
000360 a5 87 b9 3d 7d e0 aa bd f7 99 58 3d 9c 7c 71 3d
       0.09059075 -0.08343599 0.052881207 0.058956727
000370 36 96 6d bd fc 4e 3c 3b 74 50 89 3d 07 b9 3e bd
       -0.05800458 0.0028733602 0.06704798 -0.046563175
000380 5d ad bd 3d 4d 12 2d 3d 07 dd 83 bc 96 e7 5f 3d
       0.09261582 0.04225378 -0.016096605 0.054664217
000390 b6 9f 1e 3d 07 ae ce 3d f7 73 f7 3b ae 5c a7 bd
       0.03872653 0.10091787 0.007551666 -0.08171974
0003a0 a1 74 26 bd 70 4a 5f 3c 0a 73 85 3d 64 23 85 bd
       -0.04063857 0.013628587 0.065160826 -0.06500891
0003b0 56 8f 38 3c e0 b7 56 3d 1d da 24 3a e0 51 0f bd
       0.011264643 0.05242145 0.0006288605 -0.03499019
0003c0 24 2b 23 3d dc 1a f8 3c a0 6a 78 3d 17 30 92 bd
       0.039836064 0.030286245 0.06064856 -0.07138079
0003d0 4d 87 78 bc 56 c8 8b bd de fb 0d bd f2 ab f3 3c
       -0.015168977 -0.068253204 -0.034664027 0.029745076
0003e0 e0 70 95 bb fd 8f 0b 3d 64 1b 99 3d bd f8 d1 bd
       -0.004560575 0.034072865 0.074759275 -0.10252521
0003f0 90 c2 45 bd 3d cd b9 bd 65 10 7f bd 5e 26 d3 3c
       -0.048281252 -0.09072349 -0.062271494 0.02577513

fc3.weight f4 [32, 256]
000000 2e 9c 4c bd 3c aa 1b bd f1 e8 22 bb ce 60 26 bd
       -0.049953632 -0.038004145 -0.0024858082 -0.040619664
000010 89 3f b4 3c e2 34 bb 3c 62 b3 30 3c 00 76 b1 3b
       0.022002952 0.022852365 0.010784956 0.005415678
000020 cb 17 65 3d f2 92 87 3d 8e c9 bc bc dd 55 89 bd
       0.055930894 0.066198245 -0.023045328 -0.0670583
000030 f3 38 9b 3d 0a 9b 69 bd be 9a 1f 3d 07 29 06 bd
       0.075792216 -0.057032622 0.038965933 -0.03275397
000040 ce 44 9a 3c 96 b7 93 bb fb 62 24 bd 66 2b 1c 3d
       0.018831637 -0.004507969 -0.040133458 0.038127325
000050 45 c1 fa bc f8 26 05 3d 4a 44 50 3d c9 ae 0d 3d
       -0.030609736 0.032507867 0.050846376 0.034590516
000060 f4 36 2e bd ef 6f b2 bb ea d0 da ba 57 3b 94 bc
       -0.042532876 -0.0054454724 -0.0016694341 -0.018094702
000070 e8 d6 12 3d ad ff 3d 3d c7 ed c7 bc a8 eb 82 bd
       0.03584948 0.04638641 -0.024405373 -0.06392604
000080 75 fc 8e bd a3 6f 14 bd 91 93 80 bc c2 68 1a 3d
       -0.06981746 -0.036239278 -0.015695365 0.03769756
000090 e5 b4 1e bd bf 9b 59 bd 3d 3e 7b 3d c6 f8 9a bd
       -0.038746733 -0.053127047 0.061338652 -0.07566981
0000a0 f9 68 59 3d 5e 0c a5 bc 3d 16 19 bd 6c 61 bd 3c
       0.053078625 -0.020147499 -0.037374724 0.023117743
0000b0 94 42 22 3d 8d a8 30 bd 86 08 25 3d da 38 8e bc
       0.039614275 -0.043129493 0.04029133 -0.017361093
0000c0 11 1f ae 3d 00 45 6a 3d 1d 64 ca bc 14 eb f7 bc
       0.08502019 0.05719471 -0.02470594 -0.030263461
0000d0 68 bb 8e bd 26 f7 20 bd eb 9a 2b 3c 6f 59 51 bc
       -0.06969339 -0.0392982 0.010473947 -0.01277767
0000e0 85 2c 7c bd 4a 81 11 b9 55 87 07 bd b6 4c 5d bd
       -0.061565895 -0.00013876442 -0.033088047 -0.054028235
0000f0 b6 2c 2e bb f5 4f 28 bd 57 c7 b7 3b f0 32 b3 bc
       -0.0026576943 -0.041091878 0.00560848 -0.021874875
000100 b3 1b a0 bc f4 7f dd bb 2b e6 0e bd 1a 0a 32 bc
       -0.019544458 -0.006759638 -0.034887474 -0.010866666
000110 61 14 9e 3d 0e 25 6a 3c 1d 68 57 bc 08 15 6e bd
       0.07718731 0.014291061 -0.013147381 -0.058125526
000120 c7 38 fc 3c ed 8b 54 bd 3f e7 65 3d e8 45 ca 3c
       0.030788792 -0.051891256 0.056128737 0.024691537
000130 bb 96 6c bd 18 05 9f bb 0f 91 2b 3d a1 96 52 bc
       -0.057760935 -0.004852902 0.041886386 -0.012853296
000140 ee 95 28 bc 65 3f 95 3d d4 52 ec bb d5 1a aa 3c
       -0.010289652 0.07287482 -0.0072120223 0.020764748
000150 c4 04 2b 3d 26 0b dd bb 0a fb eb 3c f7 6c f6 ba
       0.04175259 -0.0067457138 0.028806228 -0.0018800785
000160 0a d6 4d 3d b8 49 ba 3b 55 45 10 3d 21 a4 10 bd
       0.05025295 0.0056850575 0.03522237 -0.035312776
000170 9b c6 49 bc 14 33 1b bc 34 fa 83 bd 17 18 f3 bc
       -0.012315418 -0.009472627 -0.06444207 -0.029674573
000180 30 96 e3 3c da 99 a0 bd 63 91 f5 3a d3 58 59 3c
       0.027781576 -0.07841845 0.0018735345 0.013265806
000190 fd dc 64 bc b5 e3 40 bc dd 01 d2 bb b7 f0 1f bc
       -0.013968703 -0.01177304 -0.0064089135 -0.009761981
0001a0 e4 f2 8d bd 88 96 31 bc 19 91 68 3c ec e2 b7 bd
       -0.06931093 -0.010839112 0.01419475 -0.08978829
0001b0 fb 58 6c bd 35 c0 2e bd 34 39 12 bd 62 78 d2 bb
       -0.057702046 -0.04266377 -0.035699084 -0.006423042
0001c0 5d ad 08 3d ab c1 56 3d 12 2a 5f 3c 3f 00 ae 3c
       0.033368457 0.05243079 0.01362087 0.021240352
0001d0 d0 be 59 bd da ca 55 bd 76 9c 99 3d 7f 07 97 3d
       -0.05316049 -0.052195407 0.07500546 0.07374477
0001e0 13 37 95 3c ca 37 a6 bd 19 3c 9c bd ce df 27 3d
       0.018214738 -0.0811611 -0.0762865 0.04098492
0001f0 ac 42 89 bd 0f cb f1 bb fa 01 00 bc 53 68 78 3d
       -0.0670217 -0.007378943 -0.007812971 0.060646366
000200 95 19 7e 3b 3b eb 9c bd 43 39 8e bd d0 b3 e8 bb
       0.0038772572 -0.07662054 -0.069445156 -0.0071015134
000210 c2 39 e8 bb 29 c4 bc bc 8b 51 80 bb e0 2b 44 bd
       -0.0070869634 -0.023042755 -0.0039159707 -0.047893405
000220 d8 f2 b7 bc f5 c3 70 bb 92 f0 ae 3d 99 16 4f bd
       -0.022454664 -0.0036737893 0.08541979 -0.05055866
000230 10 da b7 3c ae a3 3f 3c 49 37 8e bb c7 94 67 bd
       0.022442847 0.011696739 -0.0043400866 -0.05653837
000240 5c 12 6d bc 36 fc 0b bd 5d 95 49 bb fd 21 d0 bb
       -0.014469709 -0.034176074 -0.0030759193 -0.006351708
000250 3b fd 28 bd d0 dc 4c 3d 16 30 7e 3d 36 09 91 bd
       -0.041257124 0.05001527 0.062057577 -0.07081835
000260 e5 7f 18 bd 02 6d 57 3c 82 6a 16 3d 9b 3c 87 bb
       -0.037231345 0.013148548 0.036722668 -0.004127098
000270 26 d3 15 bc d0 46 8a 3d 37 e9 f6 bc 18 9b eb 3c
       -0.00914458 0.06751788 -0.030140502 0.028760478
000280 7d 59 07 bd 3c c1 6b bc 78 c5 89 3a 4f ed 64 bd
       -0.033044327 -0.014389332 0.0010511121 -0.055890378
000290 7a 2d 2b bc 7f ed 4e 3d c3 63 8c 3d 5f 5b 0d bd
       -0.010447854 0.050519463 0.068549655 -0.034510966
0002a0 0a 0d 56 bd e3 a0 6c bd 3c ec 01 3d 14 f9 4d bd
       -0.05225853 -0.05777062 0.03171943 -0.050286368
0002b0 c0 98 cc 3c 71 a1 22 bb 81 c7 34 bc 7f 3a b4 bc
       0.02497518 -0.0024815465 -0.011033894 -0.02200055
0002c0 c8 47 9f bc f4 f3 ac 3c 8f f7 07 bd e3 56 74 bc
       -0.019443408 0.02111242 -0.033195075 -0.0149132935
0002d0 00 33 48 3d b7 0d 03 3d ae a7 3a bc d1 c0 ba bc
       0.048876762 0.0319955 -0.011392517 -0.02279702
0002e0 66 02 79 3d 59 35 6e 3d ee 06 0f bd 23 73 c6 3c
       0.060793303 0.058156345 -0.034918718 0.024224823
0002f0 0c 6a 2c 3d 64 d9 06 bb cc 48 79 3c 0f fa 72 bc
       0.04209332 -0.0020576352 0.01521511 -0.014830126
000300 96 72 29 bd dc 46 d7 3c 78 d7 ce 3c 80 26 73 3d
       -0.041369043 0.026278906 0.025249228 0.05936289
000310 18 0f 14 3d 5d a2 a0 bd 85 e2 ff 3a ca 68 68 3c
       0.036147207 -0.07843468 0.0019522464 0.01418514
000320 1c 95 33 bd 70 f8 b0 3c 17 17 65 bb 10 5c 9c 3b
       -0.043843374 0.02160284 -0.003495639 0.004771717
000330 55 66 89 bd ec 34 95 bc 9e dc 21 3a 6a 65 ff 3c
       -0.067089714 -0.018213712 0.0006174537 0.031176288
000340 aa 88 87 bd 92 d0 4f 3c e1 41 a5 3c 04 b4 cc 3d
       -0.066178635 0.012684004 0.020173015 0.09995273
000350 0c 1d e4 3c 78 05 43 3c 3c 70 63 bd 87 eb 01 bd
       0.027845882 0.011903159 -0.055526957 -0.031718757
000360 c8 84 30 bc d7 4c a5 3c 3b f9 ac bc 79 35 61 bd
       -0.010773845 0.020178242 -0.021114936 -0.054982636
000370 1a 44 ab 3d b0 9e b5 bb b9 2d 36 bd 62 04 3e bd
       0.08362599 -0.0055425987 -0.0444772 -0.0463909
000380 a7 5b 22 bc 59 34 0c bd d0 38 2a 3c aa 16 b4 bc
       -0.009909547 -0.03422961 0.010389522 -0.021983463
000390 2e 53 18 3d ab 09 93 bd d3 34 8c 3d 16 0e bb bb
       0.0371887 -0.071795784 0.06846013 -0.0057084663
0003a0 9d b6 52 3c d6 93 70 3d e8 ec 8c bc fb 97 02 3c
       0.012860921 0.058734737 -0.01720281 0.007970805
0003b0 b9 58 c0 3d 3b 5a 8c 3d a3 13 06 bd e8 6f 7d 3c
       0.093919225 0.068531476 -0.03273357 0.015468575
0003c0 c9 7c 33 3c 50 c5 3d bc 3e 3d 98 3b 8e 41 77 3d
       0.010955044 -0.0115826875 0.0046459725 0.060365252
0003d0 c4 d7 05 bb 5f 0a 86 3d bd 54 37 3c a3 5d ea 3b
       -0.0020422796 0.06544947 0.011189637 0.0071522756
0003e0 28 3c 7f 3c c3 7e d9 bc 4b fe 8c bc 69 0e 7c 3d
       0.015578307 -0.026549703 -0.0172111 0.06153718
0003f0 02 60 0a 3d 17 7d 88 3d 6a 4e 1c 3d c9 c5 0a bd
       0.033782966 0.06664484 0.03816072 -0.03388003

fc3.bias f4 [32]
000000 fb be 42 3c bc fe 0c bd 04 da 3e 3d 8f 3c 5a 3d
       0.011886354 -0.03442262 0.046594635 0.05328041
000010 07 f1 25 bd ef 36 9f bc f8 84 c7 3c 51 67 91 3b
       -0.040513065 -0.019435374 0.024355397 0.004437365
000020 b3 70 4f 3b 5b 3d 81 bd 1f 4f 83 3d 13 ba fb bc
       0.0031652867 -0.06310531 0.064115755 -0.030728376
000030 5c f1 56 3d c2 95 52 bd 8a 73 e9 3b 00 98 ea bc
       0.052476272 -0.05141235 0.007124369 -0.028636932
000040 c1 12 25 3d 85 13 01 3d 7e bd 3c bd 65 76 e6 3c
       0.04030109 0.031512756 -0.04607915 0.028132627
000050 25 7f 66 bd bd 9a 5d bd 22 ce 82 3c 3b f5 f9 bc
       -0.0562736 -0.054102648 0.015967432 -0.030512443
000060 06 ed d7 3c 2e e4 49 3d 79 8c 14 bc c2 7f 5a 3c
       0.026358139 0.049289875 -0.009066694 0.013336124
000070 a2 8d b6 ba 39 a8 97 3d aa 5a 32 3d c8 f5 8f 3c
       -0.0013927708 0.07405133 0.043543495 0.017573252

output.weight f4 [1, 32]
000000 db 28 d1 3d 82 99 19 be d1 a6 ba bd ed b8 46 3e
       0.10212871 -0.14999965 -0.09113849 0.19406481
000010 42 74 e3 bd ac b8 25 3e 6e a6 9e bd 19 9c 6a bd
       -0.11106159 0.16183728 -0.07746588 -0.057277773
000020 1f b1 6f 3d 75 29 21 3e 9c 65 6d bd 56 6d 3a be
       0.058518525 0.15738471 -0.05795823 -0.18205771
000030 e6 e5 47 3e 61 e1 df 3d 05 f0 06 3e c1 0b f6 bd
       0.19521293 0.109316595 0.13177498 -0.12013961
000040 85 4c 43 be df e0 32 3e 82 1b 58 3d ba 96 14 bd
       -0.19072159 0.17468594 0.05276061 -0.036276557
000050 0a a0 27 3e 44 b3 e6 3d 84 6b b6 3d de ec c7 bd
       0.16369644 0.11264661 0.08907226 -0.09761976
000060 4a fc da bd 8b 8d 70 3d d0 3b c7 bd 82 89 53 be
       -0.106926516 0.058728736 -0.09728205 -0.20657924
000070 4b 92 41 3e 20 3e 39 bd 1f ed 50 be 47 93 0b be
       0.18903463 -0.045225263 -0.20402955 -0.136304
