result/occur/887/1000/Train_887_under_1000_256_256_32_0.0004_128_2_0.pth (torch, 309423 bytes, 7 tensors)

fc1.weight f4 [256, 9]
0.18465973 -0.13487484 -0.07389843 0.1719323 -0.29983127 0.21333116 -0.057100035 0.18252666
0.05746348 -0.020414466 0.11488375 -0.006333858 0.12946592 -0.112835765 -0.025707629 -0.00373087
0.0642701 -0.0069662295 0.31021497 0.119890615 -0.13893405 -0.19287992 -0.0395894 -0.1316995
-0.084057294 0.032220405 0.19634065 0.17165656 -0.3332815 0.21168622 0.09364405 0.31107715
0.226914 -0.31718993 -0.32240608 -0.15690206 0.31302178 -0.036568467 0.13613503 -0.13982531
0.34622478 -0.12883867 0.27454922 0.022581825 -0.16865943 0.1548584 -0.19714881 0.11555748
-0.10075557 -0.04986151 -0.32134652 -0.18516739 0.16857755 -0.07585549 0.35775962 0.2910933
-0.011291756 -0.19790374 0.22864313 0.11202 -0.18818302 0.2414821 0.22363539 0.2980358
-0.1825584 -0.06436408 -0.011384304 0.049064547 -0.26203987 -0.22928837 0.18094826 -0.08889447
0.18498835 0.03988399 0.100556 0.08804668 0.14181392 0.1617516 -0.28231397 0.1880288
-0.22956455 -0.27113962 -0.0031029612 -0.03578292 0.18551542 -0.20999815 -0.29365838 0.21762025
-0.06459175 0.18672608 0.09397255 -0.27131528 0.090522744 0.087600484 -0.2293197 -0.14753908
0.08743074 0.05190639 -0.122902885 -0.08728876 0.32377467 -0.082101576 0.18571717 0.15321809
-0.22273698 -0.26188684 0.32771665 0.0037115463 0.24889128 0.09207306 0.08630559 0.26166984
0.33447132 -0.21570659 0.06658362 0.2662045 0.24539801 0.22806317 -0.22805302 -0.26287875
-0.19173564 0.06023181 0.3313168 -0.18424301 0.1953562 -0.18578011 -0.31708834 -0.089689866
0.21487904 0.3191057 -0.20561396 0.084144235 0.2665104 0.22211613 0.22383921 0.258803
0.23585296 0.07674068 -0.21188918 -0.25982842 -0.14163022 -0.012710437 -0.18459612 0.13253374
0.118874885 -0.05727388 0.11184846 0.12195648 0.21893102 0.23429777 -0.093930945 0.3399745
-0.028549105 -0.02687045 -0.3308491 -0.19175458 -0.19670223 -0.15387943 0.24693501 -0.13290468
-0.25930685 0.13597395 0.1308869 0.24056344 -0.19647862 0.093060054 -0.098135926 -0.057948187
-0.23905703 -0.13027488 -0.086904414 0.16251181 0.08372265 0.06514379 0.344786 0.3427917
0.23173511 0.03473369 -0.21348257 0.26338947 -0.09912364 -0.038724516 -0.2673364 -0.07784853
-0.22973278 0.29315382 -0.3040197 -0.27456716 -0.018551702 -0.15884866 0.14158498 -0.15185136
-0.14047147 0.038958233 0.25725505 -0.20990248 0.1759555 0.22423626 0.33275816 -0.22830749
0.0773403 -0.24198493 0.29079992 -0.12588145 0.20809843 0.016159834 -0.024185361 0.010223722
0.07938301 0.14139567 0.06577337 0.120342545 -0.30413115 0.2678649 0.30749723 0.27812034
0.2611804 -0.22302334 -0.14118403 0.30543357 -0.23980199 0.30838853 -0.24528074 -0.22156496
0.16756709 -0.22085369 -0.053931076 0.22058366 0.27649352 0.33235285 -0.061145473 -0.2365967
0.34428462 -0.06731921 -0.113513075 0.09985205 -0.25702748 0.2402315 0.23190345 -0.24701847
-0.24823996 -0.0066166767 0.1566978 -0.031465847 -0.18712205 0.029145874 -0.3227245 -0.25430337
-0.223152 0.24814437 0.27634346 -0.11058429 0.02764021 0.16117282 0.031190421 -0.16112763
00000000: 7117 3d3e a11c 0abe 0f58 97bd 050f 303e
00000010: 7c83 99be 7c73 5a3e bae1 69bd 45e8 3a3e
00000020: d35e 6b3d 3d3c a7bc 2c48 eb3d 408c cfbb
00000030: b792 043e 7016 e7bd ce98 d2bc 9d81 74bb
00000040: 0ba0 833d f844 e4bb 7fd4 9e3e 3689 f53d
00000050: ba44 0ebe 5082 45be 7f28 22bd 3cdc 06be
00000060: 3b26 acbd 8bf9 033d 860d 493e bdc6 2f3e
00000070: dfa3 aabe 46c4 583e 74c8 bf3d 8145 9f3e
00000080: 255c 683e b866 a2be 6912 a5be efaa 20be
00000090: 6444 a03e d1c8 15bd fb66 0b3e 5e2e 0fbe
000000a0: 6044 b13e 49ee 03be b791 8c3e 85fd b83c
000000b0: 0fb5 2cbe 3393 1e3e 61e1 49be 66a9 ec3d
000000c0: f058 cebd 953b 4cbd 8887 a4be 859c 3dbe
000000d0: 989f 2c3e 205a 9bbd 452c b73e 2e0a 953e
000000e0: 0f01 39bc 47a7 4abe 6d21 6a3e be6a e53d
000000f0: 0db3 40be 1547 773e ad00 653e 2698 983e
00000100: 97f0 3abe 51d1 83bd 3b85 3abc e8f7 483d
00000110: 172a 86be 92ca 6abe 804a 393e 4e0e b6bd
00000120: 966d 3d3e 655d 233d 4ef0 cd3d d151 b43d
00000130: ab37 113e 36a2 253e 758b 90be 9f8a 403e
00000140: f812 6bbe d0d2 8abe 0d5b 4bbb 1c91 12bd
00000150: c1f7 3d3e c109 57be 645a 96be d8d7 5e3e
00000160: ae48 84bd 1f35 3f3e ae74 c03d d6e9 8abe
00000170: fd63 b93d e267 b33d c9d2 6abe 7c14 17be
00000180: e30e b33d cb9b 543d 82b4 fbbd 73c4 b2bd
00000190: cbc5 a53e df24 a8bd a42c 3e3e 34e5 1c3e
000001a0: 2a15 64be 0816 86be 7aca a73e 6a3d 733b
000001b0: 5bdd 7e3e cd90 bc3d fcc0 b03d 97f9 853e
000001c0: d33f ab3e 30e2 5cbe fe5c 883d f54b 883e
000001d0: 9e49 7b3e 6489 693e bb86 69be 0b98 86be
000001e0: 5956 44be a1b5 763d 5ba2 a93e 33aa 3cbe
000001f0: 750b 483e 243d 3ebe 6759 a2be 52af b7bd
00000200: 4009 5c3e d361 a33e 778c 52be d053 ac3d
00000210: 0d74 883e 6972 633e 1b36 653e d481 843e
00000220: 7083 713e 382a 9d3d 7af9 58be 3b08 85be
00000230: 8307 11be 703f 50bc c406 3dbe edb6 073e
00000240: ad74 f33d 0498 6abd ce10 e53d 52c4 f93d
00000250: 742f 603e c1eb 6f3e de5e c0bd 2311 ae3e
00000260: d0df e9bc 6b1f dcbc 0e65 a9be 505b 44be
00000270: 4f6c 49be 9292 1dbe 88dc 7c3e 2a18 08be
00000280: dec3 84be c13c 0b3e 3707 063e 4356 763e
00000290: b131 49be 4596 be3d 7dfb c8bd 145b 6dbd
000002a0: 5ecb 74be c766 05be f1fa b1bd 7f69 263e
000002b0: c876 ab3d 1b6a 853d ca87 b03e 6582 af3e
000002c0: f84b 6d3e ea44 0e3d 2d9b 5abe fcda 863e
000002d0: 5601 cbbd 999d 1ebd 51e0 88be 0d6f 9fbd
000002e0: 123f 6bbe 4218 963e 78a8 9bbe 1194 8cbe
000002f0: bdf9 97bc 39a9 22be a7fb 103e ec7e 1bbe
00000300: c1d7 0fbe ab92 1f3d efb6 833e adf0 56be
00000310: ae2d 343e 319e 653e 475f aa3e 70c9 69be
00000320: 9764 9e3d e6ca 77be bae3 943e 11e7 00be
00000330: c117 553e a161 843c 6120 c6bc 6681 273c
00000340: 8f93 a23d 07ca 103e 30b4 863d 2776 f63d
00000350: 14b7 9bbe 9725 893e 4770 9d3e ca65 8e3e
00000360: 70b9 853e 3b60 64be 8c92 10be ca61 9c3e
00000370: a78e 75be 1ae5 9d3e e02a 7bbe ede1 62be
00000380: b596 2b3e 7827 62be d5e6 5cbd afe0 613e
00000390: 8f90 8d3e 272a aa3e ad73 7abd 6846 72be
000003a0: 1346 b03e a7de 89bd 8b79 e8bd 3b7f cc3d
000003b0: 1b99 83be 3fff 753e 1978 6d3e 69f2 7cbe
000003c0: 9e32 7ebe b5d0 d8bb 6375 203e 55e2 00bd
000003d0: ec9c 3fbe 54c3 ee3c 253c a5be 0d34 82be
000003e0: f581 64be 8f19 7e3e e47c 8d3e 047a e2bd
000003f0: b96d e23c 7d0a 253e 0e83 ff3c a4fe 24be

fc1.bias f4 [256]
-0.017402228 0.1611199 0.2406787 0.0035959587 -0.16364744 -0.26507917 -0.2276346 0.2648298
-0.2734889 -0.14418435 0.17905283 0.18288247 -0.27713293 0.078896426 0.048396748 0.3228598
0.0027755469 0.13631319 -0.007301986 0.31139794 -0.04704725 -0.17803246 0.066966206 -0.16241242
0.096102886 0.24579756 -0.23769198 -0.25476798 0.011808535 -0.0035884955 -0.089144826 0.29482833
0.16984594 -0.12668256 0.052303955 -0.039456066 -0.20538718 0.124170765 -0.23260914 0.054101396
0.2264275 -0.28782824 0.028773244 0.315145 0.15249705 -0.11140541 0.060511556 -0.31715187
0.070842594 0.3019878 0.30262247 0.015795901 0.11903926 -0.04499722 -0.094531715 -0.0070120376
-0.20340914 0.118395485 0.17483772 -0.07679211 -0.061488293 -0.20730081 0.030204369 0.14547811
0.32931 -0.2991045 -0.26362243 0.012472936 0.31939784 0.031446654 0.08162437 0.050811328
-0.050734147 0.24059425 0.23561357 -0.19384883 -0.2116583 -0.26824495 -0.057995256 0.011240045
0.29127213 -0.33400965 0.24408427 -0.17268158 0.017968068 -0.007081492 0.20165825 -0.28064755
-0.22358029 0.021706332 0.18063407 -0.14403357 0.12019178 -0.091292284 -0.3231722 0.031289887
-0.08653933 0.19259387 0.22956091 0.2327568 0.19346024 -0.25441733 -0.3320198 0.042643487
0.09580165 -0.24204054 0.2844949 -0.024277741 -0.20660712 0.2150806 0.3034914 0.07372563
-0.09294598 0.023680456 -0.22511694 0.21684204 0.21990336 -0.049183965 -0.24807823 0.25026572
-0.26465303 -0.18315665 0.20634781 -0.15159497 0.07034816 0.27406415 -0.025447126 -0.084191896
0.30938616 0.08020383 0.113991424 -0.101614356 -0.27624297 0.055923432 -0.21298724 -0.15010634
-0.268398 0.30859664 -0.21321785 0.10456113 0.08803334 0.24281712 0.1957493 -0.22060506
0.1599967 -0.15526412 0.014986179 -0.13152671 -0.26623574 0.106117584 -0.22746718 0.3396564
0.13917515 -0.13000663 -0.20798278 -0.31813794 -0.17358273 -0.20517638 0.042980812 0.0918357
0.30419528 0.049188398 -0.049624406 -0.13494176 -0.028791668 0.18427628 -0.3349754 -0.30440018
0.14715163 -0.09652719 -0.07637816 -0.22074388 -0.1980732 -0.2672531 -0.1995253 -0.2938133
-0.14413118 0.27764297 -0.17303191 0.26131603 -0.2726583 0.05023852 -0.012223556 -0.23212954
0.022508988 0.29082772 -0.14369844 0.31131503 -0.04958493 -0.084588654 0.15507096 0.27428952
0.3009973 0.20392987 -0.27433687 -0.049685642 0.05021082 -0.14307737 0.16625535 -0.06062226
-0.26458225 -0.12794435 -0.22392921 0.15151452 -0.25687152 -0.08136721 0.058447916 0.13178746
-0.23734803 0.23318717 -0.23035087 -0.24404119 0.14928775 -0.2117113 0.22974253 0.16346435
-0.17671357 -0.0740002 -0.14158857 -0.026741663 -0.0034189797 0.0031206338 -0.2077906 -0.27140808
-0.21737504 0.04121458 0.047694214 -0.18202795 -0.050309666 -0.0051632714 0.2486754 -0.28264222
-0.15705906 -0.030385995 -0.047710937 -0.15846862 0.17224512 -0.11739597 0.044896077 -0.17801622
0.34441072 -0.20636345 -0.07947799 0.2541471 0.18439938 -0.28935742 0.21008685 -0.15472442
-0.03291299 0.14942247 0.028767092 0.26447394 -0.13772297 -0.24447218 0.014024069 0.12656766
00000000: 1e8f 8ebc 9dfc 243e 7a74 763e 2daa 6b3b
00000010: 3293 27be 75b8 87be 0b19 69be c697 873e
00000020: bd06 8cbe 10a5 13be a059 373e 8b45 3b3e
00000030: 5ee4 8dbe 7394 a13d ab3b 463d e14d a53e
00000040: f3e5 353b af95 0b3e 8045 efbb 8d6f 9f3e
00000050: 9eb4 40bd 244e 36be 9425 893d 714f 26be
00000060: 97d1 c43d 5bb2 7b3e 8765 73be f370 82be
00000070: 9678 413c f72c 6bbb 9091 b6bd bdf3 963e
00000080: 18ec 2d3e 13b9 01be ac3c 563d af9c 21bd
00000090: 0451 52be 3e4d fe3d 1731 6ebe 6d99 5d3d
000000a0: 9cdc 673e 395e 93be deb5 eb3c af5a a13e
000000b0: 3028 1c3e 8528 e4bd f7da 773d bb61 a2be
000000c0: ec15 913d 259e 9a3e 55f1 9a3e 6866 813c
000000d0: dbca f33d 014f 38bd d899 c1bd 3cc5 e5bb
000000e0: 7c4a 50be 5579 f23d a908 333e 2f45 9dbd
000000f0: 26db 7bbd aa46 54be 276f f73c 37f8 143e
00000100: 529b a83e 3a24 99be 85f9 86be 495b 4c3c
00000110: 1d88 a33e 35ce 003d ad2a a73d 8a1f 503d
00000120: 9cce 4fbd 575e 763e af44 713e 4f80 46be
00000130: f4bc 58be 6757 89be 6f8c 6dbd 2a28 383c
00000140: 9f21 953e 5003 abbe 3af1 793e 71d3 30be
00000150: c531 933c dc0b e8bb 807f 4e3e 09b1 8fbe
00000160: 3bf2 64be 7ad1 b13c 23f8 383e 897d 13be
00000170: 1c27 f63d 73f7 babd d476 a5be d329 003d
00000180: 883b b1bd 5437 453e 0412 6b3e cc57 6e3e
00000190: 711a 463e fd42 82be 80fe a9be f0aa 2e3d
000001a0: a833 c43d 7ad9 77be 51a9 913e 1de2 c6bc
000001b0: d190 53be 173e 5c3e 3a63 9b3e 77fd 963d
000001c0: 765a bebd 84fd c13c 0e85 66be d70b 5e3e
000001d0: 592e 613e 2075 49bd 3808 7ebe d422 803e
000001e0: 9a80 87be 6b8d 3bbe d74c 533e b63b 1bbe
000001f0: b212 903d 2352 8c3e 7e76 d0bc cd6c acbd
00000200: dd67 9e3e e841 a43d 5674 e93d 301b d0bd
00000210: b86f 8dbe f80f 653d 5419 5abe 7ab5 19be
00000220: 766b 89be 6100 9e3e c855 5abe 2524 d63d
00000230: d34a b43d 0da5 783e 8172 483e 4be6 61be
00000240: 2dd6 233e 8ffd 1ebe 9788 753c f0ae 06be
00000250: 0d50 88be 2d54 d93d 28ed 68be 72e7 ad3e
00000260: ee83 0e3e 7520 05be 70f9 54be fae2 a2be
00000270: acbf 31be c219 52be a60c 303d 5b14 bc3d
00000280: 7cbf 9b3e c679 493d f642 4bbd 2c2e 0abe
00000290: 81dc ebbc ecb2 3c3e e581 abbe 57da 9bbe
000002a0: ebae 163e 0cb0 c5bd 276c 9cbd af0a 62be
000002b0: b3d3 4abe 66d5 88be 5c50 4cbe b26e 96be
000002c0: 2097 13be 3827 8e3e 472f 31be 37cb 853e
000002d0: de99 8bbe e8c6 4d3d 4f45 48bc 5eb3 6dbe
000002e0: c564 b83c 5fe7 943e af25 13be af64 9f3e
000002f0: 9119 4bbd d13c adbd ecca 1e3e ad6f 8c3e
00000300: 511c 9a3e fed2 503e e275 8cbe 2c83 4bbd
00000310: dca9 4d3d e082 12be d83e 2a3e 0c4f 78bd
00000320: 5377 87be d803 03be b34d 65be 9f26 1b3e
00000330: aa84 83be daa3 a6bd 1567 6f3d 4bf3 063e
00000340: 5d0b 73be 9ec8 6e3e 19e1 6bbe efe5 79be
00000350: e3de 183e d9ca 58be a041 6b3e 3363 273e
00000360: 67f4 34be 6b8d 97bd 98fc 10be 5511 dbbc
00000370: f610 60bb 8c83 4c3b 0fc7 54be 00f6 8abe
00000380: 9097 5ebe 9fd0 283d 025b 433d 8965 3abe
00000390: 8211 4ebd a930 a9bb c4a4 7e3e 7bb6 90be
000003a0: 17d4 20be 0dec f8bc 8b6c 43bd 9945 22be
000003b0: 0661 303e 4c6d f0bd f3e4 373d e249 36be
000003c0: 9a56 b03e f150 53be 5bc5 a2bd 921f 823e
000003d0: 31d3 3c3e a826 94be 0221 573e 1470 1ebe
000003e0: c5cf 06bd 3402 193e f7a8 eb3c 2169 873e
000003f0: 4007 0dbe ea56 7abe 35c5 653c f49a 013e

fc2.weight f4 [256, 256]
0.048352204 -0.04596789 -0.025283352 -0.019447282 -0.066667646 -0.0340916 -0.06385815 -0.049307
0.011811148 0.0063470895 0.05552475 0.031376045 -0.061928373 -0.0048998967 0.03862235 -0.06697955
-0.027485223 0.06269484 -0.06619073 0.044681475 0.014163078 -0.0007444529 0.045852326 -0.06909057
0.05332073 -0.06306678 0.009905403 0.009552804 0.036926266 0.014946975 -0.07668082 0.0019799492
0.021834394 0.00011159148 -0.07131959 0.0137932245 -0.00898715 0.026436364 0.02976982 -0.0216395
0.018268319 0.009819394 0.0036259394 0.0006364552 0.020704592 -0.012154369 -0.023291744 0.059398323
-0.016006358 -0.059184678 0.0036904402 0.039473873 -0.02925706 0.018395288 -0.059496365 -0.013565746
0.05208159 -0.03661715 -0.036109727 0.005957504 -0.017142162 -0.0380235 0.055311628 -0.022887938
-0.026987454 0.06513386 -0.0008158229 -0.047595214 0.024785029 -0.044608023 0.07340558 0.04222551
0.01895796 0.0021849358 -0.042882062 -0.05835002 -0.029798592 0.027726015 0.012758893 -0.020917455
-0.03752931 -0.008982267 -0.04869862 -0.052345484 0.025678085 -0.032839015 0.05558507 0.047317445
-0.027476715 -0.023386974 -0.024218105 -0.058730375 0.0050488203 -0.030660672 0.015670622 -0.0068116393
-0.048904132 -0.052104782 0.04361369 0.03097655 0.06005401 0.013313321 0.045479264 0.025628565
0.038918957 0.031455286 0.015461898 0.034232028 0.038400132 -0.044269655 0.030194191 0.043579787
-0.021272432 -0.052036952 -0.020988824 -0.020003617 0.051539417 -0.030397309 -0.022273367 0.02657232
0.016919816 0.028633934 0.056522477 -0.07639878 0.028854055 -0.017767806 0.031144485 -0.0099493675
0.061960537 -0.03293703 0.015608015 -0.030559115 0.034415092 -0.07328648 0.04051202 0.02654114
0.057989955 0.019207964 0.00019826846 -0.004947507 -0.0054659294 -0.0737807 0.025155578 -0.055284988
0.041241914 0.08065602 -0.027106648 0.025433118 0.038491756 0.06395658 0.033582274 -0.052889626
-0.004092994 -0.05084617 0.020722566 -0.04639921 0.024214897 0.04457817 -0.06889729 -0.024455255
-0.031061975 0.047228184 0.015279525 0.03069627 -0.052740797 -0.005527549 0.057571013 0.014448564
-0.030487904 -0.032206092 0.023969037 0.034124162 -0.014334132 0.03729866 -0.015326132 -0.066657364
-0.031615566 0.037130635 -0.06821697 -0.049205996 0.03311459 0.005358738 0.013616369 0.0010638708
-0.07117094 -0.031181978 0.06107473 0.03034646 0.046620943 0.029069448 0.030255597 -0.04031958
-0.0368562 -0.029056074 -0.019234756 0.017637638 -0.023271054 -0.003874253 0.046863418 -0.04561965
0.011795037 -0.03804942 -0.01056429 -0.07519201 0.064275995 -0.06080772 -0.05551527 0.056529008
0.015900198 0.06559375 0.030825032 -0.068596914 -0.061718773 0.055714503 -0.075213596 0.0398285
-0.00022857396 0.004709473 0.019051818 -0.0036895175 0.0019023985 0.009327261 -0.021083403 0.029216249
0.06836858 0.015882237 -0.06858908 -0.04381206 0.059906397 0.04073823 -0.004409254 -0.01752525
-0.035988785 0.04066889 -0.038757894 -0.04629269 0.04401381 0.0721657 -0.035584424 -0.06997035
-0.0030130504 0.014710216 -0.025745397 -0.042617764 0.034517817 0.0051015364 0.018793834 0.016695868
0.038092304 -0.03394182 -0.0052931164 -0.0398571 -0.03336423 -0.041447293 0.025969414 -0.032351498
00000000: f60c 463d d448 3cbd 081f cfbc e84f 9fbc
00000010: 0c89 88bd a2a3 0bbd 10c8 82bd 23f6 49bd
00000020: 8c83 413c 3ffb cf3b ec6d 633d 2b84 003d
00000030: 9ba8 7dbd 508f a0bb 7832 1e3d 932c 89bd
00000040: b128 e1bc 2766 803d 018f 87bd ec03 373d
00000050: 410c 683c 6327 43ba a6cf 3b3d 5b7f 8dbd
00000060: d666 5a3d 2829 81bd 454a 223c 5d83 1c3c
00000070: ff3f 173d 28e4 743c d50a 9dbd 09c2 013b
00000080: 0bde b23c 3806 ea38 0110 92bd fafc 613c
00000090: d73e 13bc 1391 d83c d6df f33c 5245 b1bc
000000a0: 71a7 953c 86e1 203c 2ba1 6d3b c9d7 263a
000000b0: ad9c a93c 1e23 47bc 54ce bebc a84b 733d
000000c0: c41f 83bc a26b 72bd 50db 713b 5baf 213d
000000d0: 80ac efbc b7b1 963c 76b2 73bd dd42 5ebc
000000e0: 8153 553d ddfb 15bd cbe7 13bd 2a37 c33b
000000f0: b86d 8cbc 88be 1bbd 728e 623d 7c7f bbbc
00000100: cb14 ddbc e764 853d f3dc 55ba 33f3 42bd
00000110: f909 cb3c e7b6 36bd aa55 963d a8f4 2c3d
00000120: b94d 9b3c 2431 0f3b 1aa5 2fbd 6e00 6fbd
00000130: 2d1c f4bc ab21 e33c ad0a 513c 155b abbc
00000140: 55b8 19bd 5c2a 13bc 3478 47bd 3868 56bd
00000150: d95a d23c 3482 06bd 2cad 633d f0cf 413d
00000160: d916 e1bc 0a96 bfbc 0c65 c6bc 438f 70bd
00000170: 9370 a53b 172c fbbc ad5f 803c 2c34 dfbb
00000180: b34f 48bd d36b 55bd 45a4 323d 89c2 fd3c
00000190: 32fb 753d 1e20 5a3c 7748 3a3d fff2 d13c
000001a0: 7c69 1f3d 42d7 003d e753 7d3c e236 0c3d
000001b0: 7549 1d3d 1954 35bd cf59 f73c b880 323d
000001c0: 8643 aebc b324 55bd c1f0 abbc a0de a3bc
000001d0: ff1a 533d c703 f9bc a376 b6bc 32ae d93c
000001e0: 6d9b 8a3c b691 ea3c 1d84 673d f776 9cbd
000001f0: 575f ec3c ca8d 91bc b822 ff3c ac02 23bc
00000200: 55ca 7d3d fbe8 06bd c2b8 7f3c 1c57 fabc
00000210: d7f6 0c3d 3917 96bd efef 253d ce6c d93c
00000220: e086 6d3d 055a 9d3c 49e6 4f39 b21e a2bb
00000230: 8a1b b3bb 561a 97bd 1213 ce3c 8372 62bd
00000240: 48ed 283d fc2e a53d c30e debc 1d59 d03c
00000250: 88a9 1d3d abfb 823d 918d 093d cba2 58bd
00000260: 861e 86bb 1344 50bd 5fc2 a93c 190d 3ebd
00000270: 525e c63c 9997 363d 061a 8dbd 6356 c8bc
00000280: af75 febc 5772 413d f956 7a3c be76 fb3c
00000290: bc06 58bd 7120 b5bb 95cf 6b3d abb9 6c3c
000002a0: c5c1 f9bc 89ea 03bd b75a c43c c7c5 0b3d
000002b0: b5d9 6abc 7bc6 183d 751a 7bbc a883 88bd
000002c0: 537f 01bd 4b16 183d 57b5 8bbd 3a8c 49bd
000002d0: 2aa3 073d 5a98 af3b 3117 5f3c 9571 8b3a
000002e0: 12c2 91bd 5971 ffbc 7f29 7a3d 2499 f83c
000002f0: 9af5 3e3d 0d23 ee3c 96da f73c 2526 25bd
00000300: 87f6 16bd 0107 eebc 3592 9dbc cf7c 903c
00000310: f0a2 bebc 2ee7 7dbb dbf3 3f3d acdb 3abd
00000320: f93f 413c b5d9 1bbd d815 2dbc 45fe 99bd
00000330: 22a3 833d 8411 79bd fb63 63bd f68a 673d
00000340: 2241 823c 0456 863d c784 fc3c 8a7c 8cbd
00000350: d3cc 7cbd e434 643d 9609 9abd 3623 233d
00000360: 5bad 6fb9 ec51 9a3b 8f12 9c3c d5cb 71bb
00000370: e759 f93a 5ed1 183c 1ab7 acbc ea56 ef3c
00000380: d304 8c3d 771b 823c 6e78 8cbd 4674 33bd
00000390: 6960 753d 21dd 263d 817b 90bb 1d91 8fbc
000003a0: fa68 13bd 6c94 263d 99c0 1ebd 679d 3dbd
000003b0: d347 343d 9ccb 933d f9c0 11bd 9d4c 8fbd
000003c0: 9976 45bb 1e03 713c 03e8 d2bc f78f 2ebd
000003d0: 8e62 0d3d ca2a a73b 87f5 993c c6c5 883c
000003e0: ad06 1c3d 9406 0bbd e171 adbb 3341 23bd
000003f0: eea8 08bd a3c4 29bd cfbd d43c 0183 04bd

fc2.bias f4 [256]
0.02525339 0.0029735283 -0.016294954 -0.023369355 0.049416076 0.008461083 -0.031030657 0.063644245
0.045629762 0.026796283 0.023623541 -0.032989737 0.008422571 -0.02693123 -0.012586078 -0.041109946
0.010723783 0.040927958 -0.035396654 -0.035372622 -0.0153867025 0.06395846 0.04225625 0.06695834
-0.05395257 -0.026745893 0.042775348 -0.03246773 -0.025588105 -0.042701997 -0.030008078 -0.029345937
0.06387438 -0.04455063 0.06297681 -0.03547675 -0.030089516 -5.9881084e-05 -0.030971633 0.0017764394
0.06447171 0.030264845 -0.044900812 0.056843564 -0.06419239 0.022926753 -0.038544256 0.056584377
-0.030065151 -0.041771412 -0.023131689 -0.0072575295 -0.07187367 0.019408021 -0.048467204 -0.059163276
-0.016311318 -0.0002285868 0.038693253 -0.0350806 0.008422055 -0.04956186 0.06394814 -0.03911721
-0.048300624 -0.05790124 -0.013816759 0.05184097 -0.05324006 0.0061277337 0.064641796 0.0654274
-0.0059454925 -0.053999 -0.026414216 0.025346212 -0.02649916 0.020657659 0.050223663 0.0721765
0.0045255288 0.037692003 -0.049349524 0.019932099 0.065043725 -0.049837578 -0.059216883 -0.031735428
-0.022048546 -0.025196303 -0.041211948 0.011217064 0.0130247865 0.036763452 0.032312606 -0.025044795
-0.04836094 0.047412198 0.026897281 0.034712587 1.6840455e-06 -0.051936913 -0.026128164 0.015899327
-0.013074816 -0.002621145 0.008765926 -0.030070297 -0.040877774 -0.0028879193 -0.0024560727 0.008783977
-0.033418544 0.032186355 0.0416152 0.008633371 0.070043296 -0.004946455 0.0476126 0.05394679
0.03591145 -0.052231364 0.020088935 0.009922268 -0.0063907453 -0.027744204 -0.00019580196 -0.012297506
-0.0013641025 -0.03179485 -0.0055521 -0.004177141 0.053815186 -0.028256336 0.05467119 0.043548286
0.052212138 -0.056419443 0.06405694 0.06713093 -0.06888349 -0.007374575 0.00443933 -0.04637804
0.031138705 0.0023799883 0.03456809 0.027140008 0.015619542 0.020139314 -0.040526874 0.009389229
0.018124335 -0.05070207 0.0010898818 -0.0009916382 0.012869938 0.0004283225 0.06235589 -0.0140535375
0.023904152 -0.0003081196 0.012429212 0.037684575 0.010989071 -0.037198693 -0.045174222 -0.011554548
0.0738459 0.0014657431 -0.061445117 -0.03762735 0.024908569 -0.025412599 -0.034230847 0.036705248
-0.046657506 -0.004538911 0.014556822 0.0455399 -0.032489143 0.019402461 0.04926937 0.04429707
0.05710737 -0.016487539 -0.028869487 -0.033236064 0.033105567 0.054635577 0.026572902 0.063732915
0.010227113 -0.009674946 -0.078558266 0.03946012 -0.037886843 0.023565799 -0.06776662 -0.0055940915
-0.025608921 -0.03853334 0.02156623 0.053947903 0.020971332 0.061433237 0.03132705 -0.050568487
0.0044172127 -0.014937894 -0.055429213 -0.044229336 0.040165707 0.012836882 0.02448697 -0.053234454
0.037776005 0.039555226 0.025930222 -0.022815447 0.061013963 0.035355464 0.07078164 0.049367163
-0.008029657 0.031014467 -0.032399435 0.036268 -0.02834918 -0.009810097 0.02053565 -0.06840453
0.06688773 0.00510065 -0.0005777537 0.043345135 0.051601633 -0.027832313 0.012568557 -0.0026218686
-0.067456655 0.011139041 0.026540712 -0.06549004 0.009486579 -0.04139255 0.0029010077 -0.04151285
0.005933469 -0.049697477 0.019551104 0.0585785 -0.007990453 0.02834325 -0.049769867 -0.04147541
00000000: 33e0 ce3c 87df 423b ff7c 85bc 1771 bfbc
00000010: 8368 4a3d 5ba0 0a3c 0134 febc ea57 823d
00000020: 46e6 3a3d e183 db3c 2886 c13c 3f20 07bd
00000030: d3fe 093c e29e dcbc d635 4ebc e762 28bd
00000040: ceb2 2f3c 13a4 273d 15fc 10bd e2e2 10bd
00000050: 8218 7cbc a7fc 823d e414 2d3d 7421 893d
00000060: 5ffd 5cbd 341a dbbc 3435 2f3d e2fc 04bd
00000070: 259e d1bc 4ae8 2ebd 80d3 f5bc e466 f0bc
00000080: 92d0 823d b97a 36bd fcf9 803d 1250 11bd
00000090: 4a7e f6bc d328 7bb8 39b8 fdbc 6ad7 e83a
000000a0: be09 843d fbed f73c eae9 37bd ccd4 683d
000000b0: 4d77 83bd e3d0 bb3c 95e0 1dbd 05c5 673d
000000c0: 314b f6bc 8018 2bbd ab7e bdbc 92d0 edbb
000000d0: 8132 93bd 92fd 9e3c 8c85 46bd 3155 72bd
000000e0: 509f 85bc cdb0 6fb9 d17c 1e3d adb0 0fbd
000000f0: a9fc 093c 6001 4bbd 3ef7 823d 5e39 20bd
00000100: e0d6 45bd da29 6dbd b05f 62bc 3257 543d
00000110: 4012 5abd 28cb c83b eb62 843d cdfe 853d
00000120: 68d2 c2bb 0e2e 5dbd a062 d8bc dca2 cf3c
00000130: c414 d9bc 403a a93c 54b7 4d3d 46d1 933d
00000140: e34a 943b ee62 1a3d ba22 4abd a448 a33c
00000150: a535 853d 7d22 4cbd 678d 72bd 02fd 01bd
00000160: 279f b4bc 7a68 cebc dccd 28bd c7c7 373c
00000170: ea65 553c 4695 163d 395a 043d be2a cdbc
00000180: 1f16 46bd 4b33 423d b057 dc3c c92e 0e3d
00000190: 5d07 e235 cdbb 54bd bb0a d6bc 4e3f 823c
000001a0: c137 56bc 84c7 2bbb f59e 0f3c fc55 f6bc
000001b0: 746f 27bd 3f43 3dbb 10f6 20bb abea 0f3c
000001c0: e2e1 08bd d7d5 033d b374 2a3d fc72 0d3c
000001d0: dc72 8f3d df15 a2bb 6e05 433d 4ff7 5c3d
000001e0: e217 133d 8ef0 55bd 8d91 a43c 0291 223c
000001f0: 7569 d1bb d047 e3bc 3050 4db9 7b7b 49bc
00000200: afcb b2ba 513b 02bd 64ee b5bb 66e0 88bb
00000210: 506d 5c3d d579 e7bc e6ee 5f3d b05f 323d
00000220: 65dc 553d 1318 67bd 4930 833d f17b 893d
00000230: ca12 8dbd 6ba6 f1bb cd77 913b e6f6 3dbd
00000240: 9916 ff3c 94f9 1b3b 4597 0d3d b954 de3c
00000250: 1ce9 7f3c 34fb a43c 82ff 25bd 48d5 193c
00000260: 7c79 943c f9ac 4fbd 5dda 8e3a dbf9 81ba
00000270: 6fdc 523c 7990 e039 e468 7f3d cf40 66bc
00000280: a4d2 c33c 1d8b a1b9 e5a3 4b3c 245b 1a3d
00000290: 810b 343c a85d 18bd 9b08 39bd 494f 3dbc
000002a0: 853c 973d 2d1e c03a e0ad 7bbd 231f 1abd
000002b0: 0e0d cc3c 152e d0bc a535 0cbd 3e58 163d
000002c0: f11b 3fbd 25bb 94bb bd7f 6e3c 0c88 3a3d
000002d0: 5613 05bd e9f1 9e3c aece 493d d870 353d
000002e0: 6be9 693d e010 87bc b47f ecbc 8a22 08bd
000002f0: b499 073d 8ec9 5f3d 6aaf d93c 6786 823d
00000300: 9f8f 273c aa83 1ebc 28e3 a0bd efa0 213d
00000310: 3c2f 1bbd 100d c13c 3ac9 8abd a44e b7bb
00000320: cdc9 d1bc 23d5 1dbd aaab b03c 7af8 5c3d
00000330: 12cc ab3c 6ba1 7b3d cb50 003d e720 4fbd
00000340: 44be 903b 12be 74bc be09 63bd d229 35bd
00000350: cc84 243d c951 523c e698 c83c 5f0c 5abd
00000360: 03bb 1a3d a904 223d 9e6b d43c 76e7 babc
00000370: c7e9 793d e4d0 103d f7f5 903d 3935 4a3d
00000380: d38e 03bc 0d12 fe3c 45b5 04bd c18d 143d
00000390: 8a3c e8bc 87ba 20bc 613a a83c ad17 8cbd
000003a0: 6ffc 883d 5a23 a73b 6574 17ba ab8a 313d
000003b0: 3c5c 533d 9700 e4bc 59ec 4d3c a8d3 2bbb
000003c0: b726 8abd 8680 363c e86b d93c a41f 86bd
000003d0: 996d 1b3c 3c8b 29bd d51e 3e3b 6109 2abd
000003e0: 8c6d c23b 958f 4bbd a329 a03c 02f0 6f3d
000003f0: 64ea 02bc 1a30 e83c 7ddb 4bbd 1fe2 29bd

fc3.weight f4 [32, 256]
0.06284935 -0.0363036 0.058837194 0.0013254085 -0.043871555 -0.0387133 -0.008796606 0.015737165
-0.049094908 0.03526452 0.060753122 -0.041050635 0.036137026 0.02276254 0.04050869 0.0070706015
-0.037332375 -0.071040235 0.030024784 0.07177943 0.049531184 -0.07632931 -0.049278077 0.042702176
-0.052471604 0.08076277 -0.032112926 -0.0632995 -0.018927777 -0.08024513 0.011006046 -0.033785254
0.059143573 -0.04012715 -0.056661345 0.08032093 -0.0011281135 -0.01868355 0.0011317472 -0.028610917
0.0005145204 -0.026907062 -0.0005025348 -0.03879762 -0.0032440275 0.0033301497 -0.04228459 -0.035349812
-0.063271664 -0.07189018 -0.062488917 -0.058573134 0.00441977 -0.013007206 -0.037026398 -0.04058285
0.025948593 -0.013524582 0.019851765 -0.043108337 -0.05225004 0.047666762 -0.019907948 -0.017958663
0.07485929 0.0073631755 0.0047941254 -0.0672919 0.07193156 -0.0634041 -0.05211751 0.0005328213
-0.009005629 0.0005252799 0.061228964 -0.03266853 -0.022946008 0.032190263 -0.03218836 -0.023964353
0.020241097 -0.07195852 -0.06911367 -0.06944496 -0.057039298 0.009730366 0.0034572377 -0.04144218
-0.0037561336 -0.019854087 0.022544941 -0.06580172 0.04097283 0.03857156 0.06528745 0.03291612
-0.020584948 0.041957185 0.06336169 -0.034187324 0.035115074 0.008582399 0.00073174166 0.04993786
-0.011485795 -0.021218773 0.02818783 0.011510171 -0.06384577 0.04324359 0.047173157 0.01908051
0.06752595 0.051804833 0.05092337 0.013787007 0.004338567 -0.019967245 -0.052212104 0.028048193
-0.002068129 0.0011901818 0.008874153 -0.043445285 0.06292234 0.01273191 -0.07069902 0.016577197
0.00016116818 -0.053503502 -0.07425962 0.0071152993 0.031424373 0.0126448935 -0.040008537 0.07392667
-0.07594011 -0.02963714 0.044374507 -0.04477847 0.061200313 0.0053689536 -0.026157808 0.0027653135
0.040198766 0.04899628 0.051535666 0.05077992 -0.07493155 0.0015159838 -0.010884976 -0.014871368
-0.0031477239 -0.006352413 -0.033199813 -0.026808163 0.030293947 -0.013343689 0.012180611 -0.030708455
0.04165525 0.053796142 -0.06308095 -0.07685774 0.0017186125 0.06327465 0.003818418 -0.035426944
-0.023376292 0.036082234 -0.00874181 0.047400627 -0.05788805 -0.017517228 -0.04970777 0.043628205
-0.037328307 0.04479791 -0.07893254 -0.061658226 0.017606715 -0.018717624 0.040770117 0.049340565
-0.04807351 -0.009084461 0.039373416 0.04658989 0.033626612 0.03087188 -0.05755735 -0.06815209
-0.054968428 -0.048426323 -0.030621594 -0.06515232 0.073526494 -0.05450287 -0.019336285 0.042728584
0.004693766 0.0068319044 0.02502221 0.013665263 0.023193756 0.070061184 0.0340177 -0.025167853
0.040732846 -0.03716013 -0.01747212 7.523116e-05 -0.022784749 -0.036787875 0.019788386 0.01247311
-0.03842762 -0.066064686 0.08011275 -0.04705765 -0.0021799044 -0.017865743 -0.014157845 0.039436456
-0.03318432 -0.08128082 -0.052095536 0.0016920571 0.0051475787 -0.009506516 0.021851754 0.062317293
0.0753988 -0.012462952 0.0013525392 -0.023361215 -0.00083766424 0.058223173 -0.0521412 0.01588872
-0.023167815 0.045526296 0.07401416 0.032719936 0.020662174 0.029974487 -0.0061548264 0.025443278
0.02404763 0.0142885195 -0.06302788 0.0030114565 0.045850046 -0.025965255 -0.00789645 -0.06762728
00000000: 29b7 803d 15b3 14bd 45ff 703d 54b9 ad3a
00000010: a9b2 33bd d691 1ebd a41f 10bc 3aeb 803c
00000020: be17 49bd 8871 103d 44d8 783d b624 28bd
00000030: 6b04 143d 8278 ba3c 71ec 253d 81b0 e73b
00000040: d5e9 18bd 8b7d 91bd 89f6 f53c 1801 933d
00000050: 36e1 4a3d 8b52 9cbd cfd7 49bd 7ae8 2e3d
00000060: 77ec 56bd f366 a53d d888 03bd 2ba3 81bd
00000070: 6d0e 9bbc 8f57 a4bd b452 343c 6862 0abd
00000080: 8840 723d 5e5c 24bd ba15 68bd 4d7f a43d
00000090: 35dd 93ba 3f0e 99bc 2257 943a 7161 eabc
000000a0: e1e0 063a 336c dcbc 8abc 03ba 41ea 1ebd
000000b0: c099 54bb a43e 5a3b 9b32 2dbd f7ca 10bd
000000c0: 9394 81bd 293b 93bd 61f4 7fbd 62ea 6fbd
000000d0: b8d3 903b 2d1c 55bc fea8 17bd 343a 26bd
000000e0: 2592 d43c 3596 5dbc 2ba0 a23c 5e92 30bd
000000f0: 2304 56bd 393e 433d fe15 a3bc 0c1e 93bc
00000100: d44f 993d cb46 f13b 0a18 9d3b 56d0 89bd
00000110: db50 933d 02da 81bd 2c79 55bd 08ad 0b3a
00000120: 598c 13bc f0b2 093a 39cb 7a3d 70cf 05bd
00000130: 44f9 bbbc f0d9 033d f1d7 03bd e450 c4bc
00000140: a8d0 a53c fd5e 93bd 788b 8dbd 2939 8ebd
00000150: 0aa2 69bd 1d6c 1f3c d392 623b 46bf 29bd
00000160: 7729 76bb 0aa5 a2bc 2bb0 b83c 0dc3 86bd
00000170: 20d3 273d 36fd 1d3d 6db5 853d 0ed3 063d
00000180: c4a1 a8bc 4cdb 2b3d c6c3 813d 0208 0cbd
00000190: d3d4 0f3d 319d 0c3c 5ad2 3f3a a48b 4c3d
000001a0: ea2e 3cbc fed2 adbc 2aea e63c 2895 3c3c
000001b0: 92c1 82bd 3120 313d a438 413d bb4e 9c3c
000001c0: 0c4b 8a3d 4e31 543d 0695 503d e6e2 613c
000001d0: 8a2a 8e3b 5992 a3bc 5cdc 55bd 53c5 e53c
000001e0: 7289 07bb e0ff 9b3a e564 113c aff3 31bd
000001f0: 6edd 803d 8099 503c a6ca 90bd e7cc 873c
00000200: 41ff 2839 7d26 5bbd 6d15 98bd 7527 e93b
00000210: d8b6 003d 872c 4f3c fedf 23bd de66 973d
00000220: 7d86 9bbd 96c9 f2bc 0bc2 353d a169 37bd
00000230: 2ead 7a3d 0cee af3b e648 d6bc 433a 353b
00000240: 76a7 243d 53b0 483d 1017 533d 9bfe 4f3d
00000250: b675 99bd fab3 c63a e656 32bc 0aa7 73bc
00000260: 0b4a 4ebb e727 d0bb 87fc 07bd cb9c dbbc
00000270: 032b f83c 7d9f 5abc 2f91 473c 4c90 fbbc
00000280: b29e 2a3d 5859 5c3d 9630 81bd 9767 9dbd
00000290: 1143 e13a 2496 813d 6c3e 7a3b d81b 11bd
000002a0: a37f bfbc f7ca 133d cf39 0fbc 2927 423d
000002b0: 051c 6dbd 4a80 8fbc 609a 4bbd 7db3 323d
000002c0: 91e5 18bd 037e 373d 62a7 a1bd 568d 7cbd
000002d0: f53b 903c b455 99bc 91fe 263d 5519 4a3d
000002e0: bbe8 44bd fed6 14bc 0546 213d 0ad5 3e3d
000002f0: 0fbc 093d 06e7 fc3c 41c1 6bbd 5393 8bbd
00000300: 9326 61bd ae5a 46bd 23da fabc 946e 85bd
00000310: 0f95 963d 673e 5fbd 2167 9ebc 2b04 2f3d
00000320: 2ace 993b 2bde df3b 61fb cc3c 44e4 5f3c
00000330: d500 be3c 3d7c 8f3d 2556 0b3d d02c cebc
00000340: 7cd7 263d 3835 18bd b121 8fbc 6cc5 9d38
00000350: 15a7 babc e2ae 16bd 411b a23c 045c 4c3c
00000360: 4866 1dbd ec4c 87bd 2712 a43d 86bf 40bd
00000370: badc 0ebb 2e5b 92bc 4ef6 67bc 1f88 213d
00000380: 48ec 07bd 8f76 a6bd 2162 55bd 04c8 dd3a
00000390: 05ad a83b 38c1 1bbc 7302 b33c 6b40 7f3d
000003a0: b06a 9a3d 6931 4cbc af47 b13a 0560 bfbc
000003b0: b296 5bba 6c7b 6e3d 0392 55bd 1029 823c
000003c0: 6eca bdbc c879 3a3d bc94 973d 5705 063d
000003d0: b843 a93c 0e8d f53c 6dae c9bb 6c6e d03c
000003e0: 89ff c43c 651a 6a3c c314 81bd db5b 453b
000003f0: 42cd 3b3d 16b5 d4bc 1d60 01bc 2c80 8abd

fc3.bias f4 [32]
-0.049228422 0.024631795 0.029785302 0.063789226 -0.017077152 -0.012399227 -0.008885696 -0.04600183
0.03526926 0.057166994 0.0068418067 0.024489487 -0.02524188 0.040428907 0.055322777 -0.05716721
-0.013813374 -0.031229088 0.04010767 0.020157905 0.031861752 0.039712064 0.072206475 0.019360278
-0.04222263 -0.03510634 0.052360673 0.002844017 0.055552926 -0.019532498 -0.017043758 -0.020029213
00000000: bea3 49bd 9ec8 c93c 4e00 f43c eda3 823d
00000010: 62e5 8bbc 2126 4bbc 4f95 11bc 6a6c 3cbd
00000020: 8076 103d f027 6a3d 3c31 e03b 2d9e c83c
00000030: 0fc8 cebc c898 253d 239a 623d 2a28 6abd
00000040: 7d51 62bc 25d4 ffbc f147 243d 3122 a53c
00000050: 7881 023d 1ea9 223d fde0 933d 7299 9e3c
00000060: a3f1 2cbd aacb 0fbd 2578 563d b062 3a3b
00000070: 778b 633d 9e02 a0bc 5a9f 8bbc 4e14 a4bc

output.weight f4 [1, 32]
0.048300866 0.18442516 -0.036209382 -0.16214144 -0.04862706 -0.13364069 0.09388854 -0.11882471
0.06504395 -0.11956808 0.0994748 -0.11803968 0.18962239 -0.048281286 0.031827386 0.18761037
0.124753214 0.06928869 -0.12392552 0.11879943 -0.10887096 0.051992737 -0.18470685 -0.038738694
-0.1199917 -0.03185061 -0.039649386 0.042321935 -0.07742269 0.022762146 0.15406823 0.11155298
00000000: 21d7 453d f3d9 3c3e 4a50 14bd 6808 26be
00000010: 2b2d 47bd 1bd9 08be a348 c03d 5f5a f3bd
00000020: c335 853d 1ce0 f4bd 72b9 cb3d cabe f1bd
00000030: 5f2c 423e 99c2 45bd 6f5d 023d ef1c 403e
00000040: 9d7e ff3d 3be7 8d3d aacc fdbd 1e4d f33d
00000050: bdf7 debd 56f6 543d cb23 3dbe 77ac 1ebd
00000060: 35be f5bd c975 02bd 6567 22bd c459 2d3d
00000070: ca8f 9ebd ae77 ba3c 10c4 1d3e e475 e43d
