result/occur/887/1000/Train_887_under_1000_256_256_32_0.0004_128_3_0.pth (torch, 309423 bytes, 7 tensors)

fc1.weight f4 [256, 9]
000000 5c 81 39 3e 3d b3 0e be 2a 9d 8a bd d5 7f 35 3e
       0.18115753 -0.13935561 -0.06768258 0.17724545
000010 b9 c4 99 be aa 67 61 3e a7 ca 91 bd 23 4d 3b 3e
       -0.300329 0.22012201 -0.07118731 0.18291144
000020 c2 c4 8a 3d 6a b1 5d bc 77 ec ef 3d 93 50 12 bc
       0.0677581 -0.013531068 0.11715024 -0.008930343
000030 0f 87 04 3e 9f fc dc bd ea 2a eb bc 05 6d 0a 3c
       0.12942146 -0.10790371 -0.028706986 0.008448844
000040 84 23 8c 3d d8 ab 4c bc 95 cb a2 3e 60 70 f8 3d
       0.068427116 -0.012492143 0.31795946 0.12130809
000050 6b fa 10 be 39 21 45 be 2b d1 0a bd 50 df 06 be
       -0.14158027 -0.19250955 -0.033890884 -0.13171124
000060 d9 a3 8f bd 90 37 1a 3d a9 07 43 3e 76 b7 29 3e
       -0.07013673 0.037650645 0.19045891 0.16573891
000070 7b 7e ac be 0d 64 5d 3e cd 69 c5 3d 92 ac 9d 3e
       -0.33690247 0.21620198 0.096393205 0.30795723
000080 8f e5 6d 3e 98 1a aa be 35 20 a6 be f2 24 18 be
       0.23232101 -0.33223414 -0.32446447 -0.14857844
000090 4d d1 a5 3e 00 6a 19 bd 47 96 0f 3e d6 63 08 be
       0.32386246 -0.037454605 0.1402217 -0.13319334
0000a0 78 46 b6 3e 4f 7f ff bd 14 d9 94 3e a5 6e ff 3c
       0.35600638 -0.12475454 0.29071867 0.03118069
0000b0 2e e9 2c be d8 34 1a 3e 91 1a 4d be e6 77 f1 3d
       -0.16885826 0.15059221 -0.20029666 0.11790447
0000c0 d7 b4 cc bd bd c7 57 bd b3 f9 a2 be 05 d8 48 be
       -0.0999543 -0.05268072 -0.3183113 -0.19613655
0000d0 78 cc 29 3e 14 df 91 bd e5 07 bb 3e d9 c6 97 3e
       0.16581905 -0.07122627 0.3652946 0.29643896
0000e0 19 00 3b bc 6a 0a 48 be 76 8a 70 3e 48 e0 d7 3d
       -0.0114135975 -0.19535223 0.23490319 0.10540825
0000f0 de 1c 35 be b7 92 7d 3e 05 15 62 3e 1f 0d 9c 3e
       -0.17686793 0.24762999 0.22078331 0.3047876
000100 79 18 38 be e6 0d 8a bd 4a dd 46 bc 7e 79 5b 3d
       -0.17978086 -0.06740932 -0.01213772 0.05358266
000110 ac b4 87 be db f6 5c be 8b fe 3c 3e 41 b3 c3 bd
       -0.2650503 -0.21578543 0.18456475 -0.09555674
000120 0e 91 48 3e f5 fc 19 3d ec fc d9 3d 01 b3 c1 3d
       0.19586584 0.037594754 0.10643944 0.094579704
000130 25 4f 1b 3e 99 cb 21 3e 85 7f 88 be 0a d0 49 3e
       0.1516691 0.15800323 -0.2665979 0.19708267
000140 05 3a 6b be 1d a2 8e be a2 c0 c3 bb ee 6c 10 bd
       -0.22971351 -0.27858058 -0.0059738914 -0.035260133
000150 1d 2d 3c 3e 5a dd 5c be 1d fa 94 be d2 3f 51 3e
       0.18376584 -0.21568814 -0.2909707 0.20434502
000160 39 d3 8c bd 16 28 42 3e da 39 b4 3d 76 10 8c be
       -0.06876225 0.18960604 0.08800097 -0.2735631
000170 81 b7 c1 3d c9 31 b8 3d 3a 39 6e be f4 80 12 be
       0.09458829 0.08993871 -0.23264018 -0.14307004
000180 25 a8 96 3d 6d 0a 49 3d a2 d8 ec bd 4d 97 a4 bd
       0.0735629 0.04908221 -0.11564757 -0.08036671
000190 e7 23 a7 3e 4b f9 ad bd 0e 7d 3d 3e 18 ad 21 3e
       0.3264458 -0.084948145 0.18504736 0.15788686
0001a0 23 ff 66 be 8d 37 7e be 65 c6 a9 3e 36 63 33 bb
       -0.22558264 -0.24825878 0.33159176 -0.0027372367
0001b0 3a e3 82 3e 91 c6 c0 3d b4 4b ac 3d 20 3d 86 3e
       0.25563985 0.094128735 0.08412877 0.2621851
0001c0 7c d3 ad 3e 99 0e 5f be d6 c9 9f 3d 99 80 8a 3e
       0.33950412 -0.21782912 0.07802169 0.27051237
0001d0 66 0f 76 3e 29 1c 73 3e d4 81 6a be 19 df 85 be
       0.24029312 0.23741211 -0.22901088 -0.26146773
0001e0 d3 fa 3f be a6 0d 8c 3d 30 92 a8 3e 31 b5 2d be
       -0.18748026 0.06838541 0.32924032 -0.1696365
0001f0 6a 3f 4f 3e 2a 1a 41 be 7e 7d a5 be 52 a6 bf bd
       0.20239034 -0.18857637 -0.32322305 -0.09357895
000200 36 90 60 3e 35 86 a4 3e b5 22 56 be 28 0e b7 3d
       0.21930012 0.32133642 -0.20911677 0.08938247
000210 eb fa 80 3e e2 dc 60 3e 2b 60 6d 3e f0 38 85 3e
       0.25191435 0.2195926 0.23181216 0.26020002
000220 1d 39 77 3e 4c 49 8d 3d 0f c2 5e be fb c4 85 be
       0.2414288 0.06898746 -0.21753715 -0.26126847
000230 61 eb 18 be f5 65 5b bb c8 3a 3e be 1d 1e fd 3d
       -0.1493354 -0.003347752 -0.18577111 0.12359259
000240 03 64 f9 3d 1c c3 6c bd 23 72 e9 3d 03 a4 00 3e
       0.12177279 -0.05780326 0.11398723 0.12562566
000250 83 6d 63 3e 97 8a 73 3e b5 af ba bd 52 80 af 3e
       0.22209744 0.23783337 -0.09115545 0.34277588
000260 2a 1d cc bc f9 e2 02 bd e4 e7 a9 be 03 81 41 be
       -0.02491625 -0.03195474 -0.3318473 -0.1889687
000270 f8 8a 4a be 0c 87 21 be 3e 0c 80 3e 2a 70 14 be
       -0.19779575 -0.15774173 0.2500934 -0.14495912
000280 87 3f 85 be 83 1d 0f 3e 31 2a 0d 3e 1b 29 7a 3e
       -0.2602503 0.13976102 0.13785626 0.24429743
000290 9e db 4c be cb 7b c1 3d 86 0b be bd 23 aa 73 bd
       -0.20005652 0.0944744 -0.09279542 -0.059488427
0002a0 68 f6 68 be 5f ef 00 be 03 a8 bb bd fd bc 2c 3e
       -0.22750247 -0.12591313 -0.09162905 0.16868968
0002b0 01 a4 ae 3d 11 df 81 3d 76 03 b1 3e 9d f5 b1 3e
       0.08527375 0.06341375 0.34572953 0.347577
0002c0 c2 db 6b 3e c0 d9 34 3d d7 2c 56 be 05 de 84 3e
       0.2303305 0.044152975 -0.20915543 0.25950637
0002d0 69 ff d8 bd a7 de 21 bd d4 ed 88 be 43 eb a5 bd
       -0.105955906 -0.03951898 -0.26743948 -0.08101513
0002e0 dd 3e 71 be 4b 30 95 3e e5 0a a0 be 96 91 8f be
       -0.23559137 0.29138407 -0.31258312 -0.2804076
0002f0 0d ab 8f bc d8 e8 1c be 39 5f 13 3e 45 cb 1e be
       -0.017537618 -0.15323198 0.14391793 -0.15507229
000300 ce 1d 0f be 25 58 31 3d 99 17 83 3e 7c 1c 4d be
       -0.13976213 0.04329695 0.2560394 -0.20030397
000310 51 2e 38 3e de 65 61 3e 50 ee ae 3e 4c 2f 6b be
       0.17986418 0.22011515 0.34166193 -0.22967261
000320 c3 a5 a3 3d b6 30 73 be 62 ee 98 3e bd 1b fc bd
       0.07990601 -0.2374905 0.29869372 -0.12309978
000330 c3 91 62 3e 8c ec bb 3c ef dd ce bc bb 55 8e 3c
       0.22125916 0.022939943 -0.02525231 0.017374864
000340 7b 0a a6 3d 65 34 0f 3e a0 8a 88 3d f1 d3 00 3e
       0.08107468 0.1398483 0.066670656 0.12580849
000350 8f ab 9d be c8 ce 8e 3e af 09 a0 3e 64 05 8c 3e
       -0.3079495 0.27892137 0.31257388 0.27347863
000360 cb 98 84 3e 84 db 66 be ea 9b 0c be 9b a1 9e 3e
       0.25897822 -0.22544676 -0.13731351 0.3098267
000370 4b b1 75 be 1a 64 a0 3e 12 73 82 be 15 fe 61 be
       -0.23993413 0.3132637 -0.25478417 -0.22069581
000380 96 ec 34 3e 28 5c 5d be 80 d2 59 bd 67 3b 61 3e
       0.17668375 -0.21617186 -0.053179264 0.21995316
000390 dd 93 8e 3e 36 3c ac 3e 11 bf 74 bd 4f e5 6b be
       0.27847186 0.33639687 -0.059752528 -0.23036693
0003a0 9e 39 b2 3e 2e 96 8c bd 64 83 da bd 4b 92 cf 3d
       0.34809583 -0.06864582 -0.10669592 0.10135325
0003b0 c9 3a 85 be 42 99 79 3e 5a 79 73 3e 84 f0 7e be
       -0.26021412 0.2437487 0.2377676 -0.24896437
0003c0 e6 f0 72 be b5 85 04 bb 02 1a 1f 3e 1f 52 22 bd
       -0.23724708 -0.0020221297 0.15537265 -0.039629098
0003d0 33 d2 40 be 4d 2c f8 3c 79 64 a6 be c6 a2 85 be
       -0.18830185 0.030294562 -0.3249853 -0.2610075
0003e0 99 b3 63 be 7a fb 72 3e e3 33 8a 3e 25 0c dc bd
       -0.2223648 0.23728743 0.2699271 -0.10744504
0003f0 ec ee 0d 3d 9a a2 27 3e 90 77 ea 3c d3 cb 24 be
       0.03465168 0.16370621 0.028621465 -0.16093378

fc1.bias f4 [256]
000000 88 78 57 bc f0 fe 25 3e d3 f2 77 3e c1 7a ab 3b
       -0.0131512955 0.16210532 0.24213724 0.0052331393
000010 d8 04 20 be b7 c1 87 be 14 81 65 be b6 c1 87 3e
       -0.15626848 -0.2651498 -0.2241252 0.26514977
000020 69 47 88 be bb 87 16 be 1e ba 38 3e 1c ae 3b 3e
       -0.26616982 -0.14700215 0.18039748 0.18328136
000030 25 1f 8d be ca 58 ac 3d 73 e5 4a 3d d3 cd a2 3e
       -0.27562824 0.08415373 0.049535226 0.31797656
000040 46 84 cf 3b 6d 85 09 3e 66 75 a4 bb 6d 59 a0 3e
       0.006332907 0.13429804 -0.005018878 0.31318226
000050 a1 06 50 bd 08 8f 34 be 93 1e 94 3d f0 6f 24 be
       -0.05078757 -0.17632687 0.07232394 -0.16058326
000060 05 df cb 3d dd 3c 7e 3e 08 3e 6f be 47 15 84 be
       0.09954647 0.24827905 -0.23363507 -0.25797483
000070 94 5d 55 3c 70 3c 3f bb 75 62 bb bd 5a 08 99 3e
       0.013022799 -0.002918031 -0.091496386 0.29889184
000080 38 5f 30 3e 24 4c 04 be e9 09 44 3d 77 ce 1c bd
       0.17223823 -0.1291967 0.047861014 -0.038282838
000090 37 00 57 be fb 21 fc 3d 6f 75 71 be 16 db 63 3d
       -0.20996176 0.12311169 -0.23579954 0.05562886
0000a0 66 b8 69 3e 99 14 91 be db e7 f7 3c d4 87 a1 3e
       0.22824249 -0.28336027 0.030261924 0.3154894
0000b0 a5 57 1c 3e 77 90 db bd 02 24 75 3d 48 3b a3 be
       0.15267809 -0.10720914 0.059848793 -0.31881166
0000c0 c7 0d ac 3d c3 20 9c 3e 1b b1 9b 3e da 6d b6 3c
       0.08401065 0.30493745 0.30408558 0.022269178
0000d0 55 12 fa 3d 78 98 1a bd 5b c6 ca bd 1b c5 0f bc
       0.12210528 -0.03774306 -0.099011146 -0.008775021
0000e0 e2 a3 52 be 20 99 ec 3d 29 99 35 3e 4d d5 8b bd
       -0.20570329 0.11552644 0.17734207 -0.06827793
0000f0 64 6e 78 bd 35 60 4b be 03 d6 f1 3c ef 3d 10 3e
       -0.06065215 -0.19860919 0.029520994 0.14086126
000100 18 39 a9 3e cd 9b 98 be 7b 7a 87 be ed 3f 4f 3c
       0.33051372 -0.29806367 -0.26460633 0.012649518
000110 bc 2f a4 3e 46 d2 05 3d 3b 88 a3 3d 66 c7 64 3d
       0.32067668 0.032671236 0.07984968 0.055854224
000120 1c a6 50 bd 7f 17 76 3e b2 38 75 3e e5 6a 42 be
       -0.050939664 0.240324 0.23947409 -0.1898609
000130 e1 43 5a be 36 d2 8b be 95 87 56 bd d6 99 4f 3c
       -0.21314956 -0.27308816 -0.052375395 0.012670955
000140 ed ac 95 3e d1 8a aa be 4a 3d 7a 3e 69 5a 30 be
       0.29233494 -0.33309034 0.24437442 -0.17221989
000150 a9 fd 8d 3c ce 4d aa bb 10 ca 50 3e 3f fb 90 be
       0.017332869 -0.0051972633 0.2038958 -0.28316686
000160 dc 56 63 be bb 71 fd 3c 9b 5f 3a 3e 42 00 0f be
       -0.22201103 0.03093802 0.18200533 -0.13964942
000170 83 e9 f8 3d e9 cf b2 bd 06 60 a6 be b8 77 22 3d
       0.12153914 -0.08731062 -0.32495135 0.039664954
000180 7e 6d bb bd fc 46 44 3e 6e 8e 6c 3e 48 f9 71 3e
       -0.09151743 0.19167703 0.23101208 0.2363025
000190 d2 ec 40 3e d6 50 80 be f1 ff a9 be 11 b5 37 3d
       0.1884034 -0.25061673 -0.3320308 0.044850413
0001a0 a5 17 d1 3d af 78 75 be b9 4b 92 3e 3b c6 ca bc
       0.10209588 -0.23971818 0.28573397 -0.024752727
0001b0 b3 27 54 be 51 f5 5e 3e 53 92 9a 3e 33 c2 a3 3d
       -0.20718269 0.21773268 0.30189762 0.07996025
0001c0 b7 c3 b8 bd 9e 67 9e 3c 5a 70 64 be 6b 29 61 3e
       -0.09021705 0.019336518 -0.22308484 0.21988456
0001d0 18 0b 64 3e fa 51 4f bd 86 12 7c be 93 e6 81 3e
       0.22269857 -0.05061529 -0.24616441 0.25371227
0001e0 98 2f 87 be 1c 88 3f be 0b 8c 54 3e b4 af 18 be
       -0.264035 -0.18704265 0.20756547 -0.14910775
0001f0 f2 43 99 3d 55 e6 8c 3e a0 ea ca bc 62 36 b1 bd
       0.07483663 0.2751948 -0.024770081 -0.08652951
000200 dc 43 9f 3e 59 37 ae 3d dd 6a ea 3d b8 2a cd bd
       0.3110646 0.085066505 0.11446164 -0.100179136
000210 d9 2d 8b be 80 b2 66 3d b9 a1 5c be d4 f4 16 be
       -0.27183416 0.056322575 -0.21546067 -0.14741832
000220 2c 9d 89 be 05 c5 9f 3e 62 5c 59 be 22 56 d5 3d
       -0.26877725 0.31205 -0.21226647 0.10416819
000230 6c 2c be 3d 9b 43 7a 3e 5f e8 4a 3e da 96 5d be
       0.092858166 0.24439852 0.19815205 -0.21639577
000240 a1 72 26 3e 19 f4 1c be 2f 62 8f 3c 30 35 07 be
       0.16254665 -0.15327491 0.017502872 -0.13203883
000250 9e d6 87 be c6 e3 db 3d dd 18 67 be 18 b5 ae 3e
       -0.26530927 0.10736804 -0.22568078 0.3412254
000260 4a fc 0d 3e fb 70 04 be b2 8f 57 be 04 d9 a3 be
       0.13865772 -0.12933724 -0.21050909 -0.32001507
000270 de 76 2c be aa 26 4d be 5a 49 36 3d 76 a6 bd 3d
       -0.16842219 -0.2003428 0.044503547 0.092602655
000280 f9 52 9f 3e bd a6 55 3d 27 7d 42 bd a6 f6 09 be
       0.3111799 0.052160967 -0.047482636 -0.13472995
000290 92 ad ec bc 1e 2c 3e 3e f4 cf ac be be 6c 9c be
       -0.028891359 0.18571517 -0.33752406 -0.30551714
0002a0 72 b1 17 3e 58 e3 b8 bd 7c 06 a0 bd 65 cc 65 be
       0.14813784 -0.090277374 -0.07813737 -0.22441252
0002b0 90 09 47 be 6e 50 8b be 3c 3d 4d be 1e fd 94 be
       -0.19437242 -0.272098 -0.2004289 -0.29099363
0002c0 13 d3 0e be 80 44 8f 3e 73 b6 32 be 4a 6f 86 3e
       -0.13947706 0.2798195 -0.17452411 0.26256782
0002d0 2a 25 89 be 7e 3d 43 3d 95 bf 08 bc bf 18 6f be
       -0.26786166 0.047666065 -0.008346458 -0.23349284
0002e0 8f 7b dc 3c be dc 95 3e 53 77 11 be f6 23 a0 3e
       0.026914386 0.29269975 -0.14205675 0.31277436
0002f0 75 58 4f bd a8 0a aa bd 87 8b 1d 3e 23 70 8c 3e
       -0.05062147 -0.08302814 0.15385257 0.27429304
000300 51 de 9b 3e d0 55 51 3e 1f ca 8b be 66 39 3d bd
       0.3044305 0.20442891 -0.27302644 -0.046197318
000310 4b 2c 5d 3d 5d f1 11 be 07 75 2c 3e 5d e1 6f bd
       0.05399732 -0.14252229 0.16841517 -0.058564533
000320 41 6f 85 be f0 4a fe bd 3a 2e 66 be 8f da 1d 3e
       -0.26061442 -0.12416637 -0.22478572 0.15415405
000330 3c be 85 be b7 fe 9c bd b6 74 84 3d 85 b6 03 3e
       -0.261217 -0.076657705 0.06467573 0.12862594
000340 dc 84 72 be f0 0c 6d 3e 1c 51 6d be c3 e7 79 be
       -0.23683494 0.23149467 -0.23175472 -0.24404816
000350 a7 87 1a 3e ef 93 5b be 55 9a 69 3e 89 c6 24 3e
       0.1509081 -0.21443151 0.22812779 0.1609136
000360 7f 98 36 be 86 a1 8f bd c5 57 0e be d4 ce d0 bc
       -0.1783161 -0.0701323 -0.13900669 -0.025489248
000370 a4 81 34 3b 39 d7 95 3b 1b 62 4f be c7 70 86 be
       0.0027543092 0.0045727757 -0.20252268 -0.26257917
000380 9f a9 5e be 1f 73 20 3d 08 c1 48 3d ab b8 3e be
       -0.21744393 0.039172288 0.049012214 -0.18625133
000390 7c c1 51 bd b6 1d 9b bb 1e 77 7f 3e 73 06 90 be
       -0.05120991 -0.0047337664 0.24947783 -0.2812992
0003a0 fe e5 20 be 03 6a ba bc 51 cc 42 bd cc 34 25 be
       -0.15712735 -0.022755628 -0.047558133 -0.16133422
0003b0 ed 36 3b 3e 41 ea e2 bd ce 2f 3d 3d 87 84 34 be
       0.18282671 -0.11079837 0.04618817 -0.1762868
0003c0 0a 30 b3 3e b2 2f 54 be 32 08 a2 bd 66 18 80 3e
       0.34997588 -0.2072132 -0.079117194 0.25018615
0003d0 8a 78 41 3e b6 62 92 be d1 eb 57 3e 8e c7 1a be
       0.18893638 -0.28590935 0.2108605 -0.15115187
0003e0 aa 53 0f bd 1f a7 1c 3e 04 16 ee 3c 52 9b 89 3e
       -0.034991898 0.15298127 0.029063232 0.26876312
0003f0 8b 4d 0f be ec c4 7a be 90 84 42 3c 95 d2 04 3e
       -0.13994424 -0.24489182 0.011872426 0.12970956

fc2.weight f4 [256, 256]
000000 a0 79 53 3d f2 69 3f bd e0 fd e5 bc 9d b1 90 bc
       0.051629663 -0.046731897 -0.028075159 -0.017662818
000010 25 f4 a2 bd a1 1f 08 bd 40 60 8b bd 4b 27 53 bd
       -0.07956723 -0.03323329 -0.068054676 -0.051551145
000020 7c bb 56 3b 18 86 2b 3c 3c a7 67 3d d5 3e f1 3c
       0.0032765558 0.010468982 0.05655597 0.029448906
000030 a0 b6 82 bd a8 b7 04 bc e0 18 2d 3d 03 d7 8b bd
       -0.06382489 -0.008100428 0.04226005 -0.068281196
000040 41 b3 e6 bc 29 65 8d 3d 2a 5a 8c bd 9b 43 36 3d
       -0.028161647 0.069040604 -0.06853135 0.044498067
000050 2f cc 8a 3c 8e cf d9 3a 84 12 28 3d 49 9e 90 bd
       0.016943065 0.0016617642 0.041033283 -0.070614405
000060 28 f6 69 3d e1 89 80 bd ca 38 07 3c 9b 82 1b 3c
       0.05711952 -0.06276298 0.008253286 0.009491588
000070 a4 a5 1a 3d 34 fe 87 3c 3b c3 a1 bd e1 de 71 3b
       0.037755623 0.016600706 -0.078985654 0.0036906528
000080 42 b2 73 3c 91 93 a5 3a 5a cc 8e bd ea 6f 92 3c
       0.014874043 0.0012632479 -0.06972571 0.01787563
000090 3a 7e 0a bc a0 1b de 3c fd 61 03 3d 23 23 bf bc
       -0.008452946 0.027112782 0.03207587 -0.023332184
0000a0 59 4a b9 3c 79 b4 84 3c 2f a3 db ba fb 7a 79 ba
       0.02261846 0.016199337 -0.0016757007 -0.0009516922
0000b0 b5 ec ad 3c 1b 78 88 bc 90 8d ca bc 72 9a 75 3d
       0.021231035 -0.016658833 -0.024725705 0.059961744
0000c0 b5 8d ea bc 27 eb 7c bd f7 14 83 3b be 8a 17 3d
       -0.028632024 -0.061747696 0.004000302 0.03699755
0000d0 b0 da 12 bd 54 2b 78 3c 6e 6b 79 bd f4 cb 81 bc
       -0.035853088 0.015147049 -0.06089347 -0.015844323
0000e0 9e a4 52 3d 72 0c 20 bd 9b 3a 29 bd 04 ca 39 3c
       0.051426522 -0.03907437 -0.041315656 0.011339668
0000f0 60 4d 9e bc 86 94 35 bd 63 30 63 3d f7 38 9f bc
       -0.019324005 -0.044331096 0.055466067 -0.019436343
000100 30 b2 e1 bc 70 98 89 3d 08 57 18 bb b4 41 57 bd
       -0.027550787 0.06718528 -0.0023245234 -0.052552894
000110 c4 40 c1 3c a8 50 3b bd 06 a7 91 3d 41 75 32 3d
       0.023590453 -0.045731217 0.07111935 0.043568853
000120 b9 f0 ad 3c 56 a5 0d bb 90 74 40 bd f4 92 7f bd
       0.02123295 -0.002161344 -0.046986163 -0.062396005
000130 99 15 ef bc a3 23 e1 3c e9 9e 06 3c 05 1f ca bc
       -0.029185103 0.027482813 0.008216598 -0.024672994
000140 9f 97 29 bd 57 fa 0f bc 33 b4 48 bd 39 46 59 bd
       -0.041404363 -0.008787713 -0.048999976 -0.053045485
000150 c5 d5 b7 3c be 65 ef bc 17 65 60 3d 09 bb 46 3d
       0.0224408 -0.02922332 0.054783907 0.048518214
000160 cd 53 f2 bc e5 18 00 bd c3 11 be bc f6 80 80 bd
       -0.029580975 -0.03127374 -0.023201829 -0.06274597
000170 63 15 00 3c 4e c3 e4 bc 51 3e 94 3c a5 44 1b 39
       0.007817599 -0.02792516 0.018096121 0.00014807524
000180 36 89 43 bd 2a 88 5c bd a4 fa 2e 3d 6d 37 d4 3c
       -0.047738276 -0.053840794 0.0427195 0.025905335
000190 87 34 69 3d 6c de 38 3c 92 14 4b 3d 52 85 d6 3c
       0.05693486 0.011283498 0.049580164 0.026186619
0001a0 38 33 27 3d e5 81 1a 3d 2f 4c 88 3c 8e b8 0e 3d
       0.04082033 0.037721533 0.01663789 0.034843974
0001b0 66 d0 1a 3d 9e 9f 58 bd 8d 3e db 3c b5 99 1d 3d
       0.0377964 -0.052886598 0.026763225 0.038476665
0001c0 2e 0c 9f bc b1 50 52 bd 30 3f c9 bc fb 54 86 bc
       -0.019414987 -0.051346485 -0.024566263 -0.016397944
0001d0 43 51 56 3d 65 f9 03 bd 9e 2d 9c bc b6 b0 6c 3c
       0.05232359 -0.032220263 -0.01906472 0.014446428
0001e0 c7 61 5b 3c f9 01 ee 3c 18 c3 77 3d de 6c a3 bd
       0.013390011 0.029053675 0.06048879 -0.07979749
0001f0 68 4d ed 3c a4 7c 69 bc 84 b8 13 3d fd 0f 01 bc
       0.028967574 -0.014250908 0.03606464 -0.007877347
000200 0a 10 6d 3d 6f 81 19 bd ee 73 81 3c 88 e5 e1 bc
       0.057876624 -0.037476953 0.01580235 -0.02757527
000210 41 72 0f 3d 96 1d 9e bd 0c 37 2c 3d 0e b5 cc 3c
       0.03502107 -0.07720487 0.042044684 0.024988677
000220 bd a9 69 3d c8 73 85 3c 95 47 09 3c 48 f6 ff bb
       0.05704664 0.01629056 0.008378883 -0.0078113414
000230 bb 24 4f bc 1f ae 9e bd 78 fc cb 3c 45 07 57 bd
       -0.012643035 -0.07748055 0.02490066 -0.052497167
000240 a7 f9 3d 3d f8 cf ac 3d 54 bc dc bc 0d fb e5 3c
       0.046380665 0.084381044 -0.02694527 0.028073812
000250 ce bf 15 3d ff ae 84 3d 92 b0 ee 3c e6 8a 58 bd
       0.036559872 0.0647869 0.02913693 -0.05286684
000260 1e b4 e4 bb 95 a3 73 bd 20 47 a3 3c 8e 90 3c bd
       -0.0069794795 -0.059482176 0.019931376 -0.046036296
000270 fa 1f d9 3c b2 bf 42 3d ed 74 8f bd c1 fc d1 bc
       0.026504505 0.047546096 -0.07004724 -0.025633218
000280 64 46 19 bd f6 43 33 3d 5c 63 9f 3c c4 6a e0 3c
       -0.037420645 0.043765984 0.019456558 0.02739466
000290 96 71 62 bd bf a6 f4 bb 16 01 6e 3d 1e 74 78 3c
       -0.055284105 -0.0074661667 0.058106504 0.015164403
0002a0 1e 52 f5 bc e9 62 17 bd 1c 80 b9 3c f5 fe 07 3d
       -0.029946383 -0.036959562 0.022644095 0.03320213
0002b0 a1 80 84 bc a5 fe 10 3d f0 72 4a bc e1 03 95 bd
       -0.016174616 0.035399098 -0.012356505 -0.072761305
0002c0 2f ee 0f bd 99 61 1b 3d 6c a7 86 bd 69 93 5c bd
       -0.03513926 0.037934873 -0.06574902 -0.05385152
0002d0 17 c1 12 3d 2c 5b 3e 3b 06 b4 36 3c c8 3e 4b bb
       0.035828676 0.0029046042 0.011151319 -0.0031012762
0002e0 9f 28 9b bd 3f 5d 07 bd 28 70 87 3d c3 19 0b 3d
       -0.07576107 -0.03304791 0.06613189 0.033960115
0002f0 2c b6 40 3d c6 07 e2 3c 76 22 00 3d 2d 46 2e bd
       0.047048733 0.027591597 0.031282865 -0.042547394
000300 6f 45 14 bd 1f b9 fa bc 5a 3e b8 bc dd 1d c6 3c
       -0.03619903 -0.03060585 -0.022490669 0.024184162
000310 1a 5e c8 bc 99 14 d2 bb e3 2c 3a 3d 75 49 3e bd
       -0.024458934 -0.006411147 0.045452964 -0.046456773
000320 94 1d 1a 3c 28 ea fa bc 2a 46 65 bc 88 ea 9f bd
       0.009406466 -0.030629233 -0.013993779 -0.07808405
000330 e9 f3 7f 3d 8e 6b 7a bd ac ce 86 bd 85 6f 75 3d
       0.06248847 -0.06113773 -0.06582388 0.059920806
000340 85 4c 63 3c 90 8e 8a 3d 22 5a 01 3d ce fc 93 bd
       0.013873224 0.06765473 0.031580098 -0.07225953
000350 80 e7 83 bd 39 c1 6c 3d fb d4 99 bd 32 eb 1d 3d
       -0.064406395 0.05780146 -0.07511326 0.038554378
000360 13 7b 83 ba 4e ad 7d 3b bc 22 b2 3c a2 35 e0 ba
       -0.0010031186 0.0038708034 0.021745078 -0.0017105828
000370 dd 07 dc 3b ac 55 fd 3b c2 17 d7 bc 0e 98 0f 3d
       0.0067148046 0.00773116 -0.026256446 0.03505712
000380 31 64 90 3d 01 94 71 3c 53 cb 97 bd 93 60 32 bd
       0.0705036 0.01474476 -0.07411828 -0.04354913
000390 9d 9a 72 3d 19 1b 30 3d 3a 12 e3 bb 64 73 a0 bc
       0.059229482 0.042994592 -0.006929663 -0.019586273
0003a0 68 09 05 bd 6c bf 09 3d d4 75 1e bd f6 e8 3c bd
       -0.032479674 0.03362982 -0.03868659 -0.046120606
0003b0 23 f7 52 3d 34 63 a0 3d 14 da 16 bd 52 94 93 bd
       0.05150522 0.078314215 -0.03682907 -0.07206024
0003c0 08 a5 bd bb 89 79 97 3c 6a 00 df bc 0b 24 2d bd
       -0.0057874955 0.01849057 -0.027221877 -0.0422707
0003d0 f6 6b 0e 3d be 20 e5 3b 82 ab b0 3c 46 83 4b 3c
       0.03477093 0.0069924286 0.021566156 0.012421435
0003e0 3e e9 16 3d 17 b6 21 bd 2b 38 cb bb 44 61 2d bd
       0.03684353 -0.039480295 -0.006201764 -0.042329088
0003f0 a1 82 03 bd e8 a3 32 bd 01 cb f0 3c d8 0b 08 bd
       -0.032107 -0.043613344 0.029393675 -0.03321442

fc2.bias f4 [256]
000000 f2 46 ca 3c b1 ad 02 3a 7b 63 70 bc 60 4d f4 bc
       0.024692032 0.00049849885 -0.0146721555 -0.029822052
000010 1b 3c 49 3d 5b ea 0c 3c 4e 9e f8 bc ae e0 85 3d
       0.049129587 0.008600797 -0.030348923 0.06536995
000020 c2 fa 39 3d d6 b7 cf 3c 0f c7 db 3c 31 e9 e3 bc
       0.045405157 0.025356214 0.026828317 -0.027821155
000030 2c a4 30 3c c3 f6 b4 bc 05 21 33 bc b2 e2 1b bd
       0.010781329 -0.022090321 -0.010933165 -0.03805799
000040 b0 99 17 3c 79 9a 27 3d c4 a8 01 bd 73 9e 0e bd
       0.009252951 0.0409188 -0.031655088 -0.034819078
000050 c7 42 98 bc 37 34 85 3d 0d 47 30 3d f5 d5 84 3d
       -0.01858653 0.065041 0.04303651 0.064861216
000060 ea b8 5d bd 3d 01 af bc 3b 1d 31 3d ae cc 08 bd
       -0.054131426 -0.021362895 0.043240767 -0.033398323
000070 8c 19 c7 bc 96 0e 28 bd 4d f1 e6 bc 40 4f d7 bc
       -0.024304174 -0.041029535 -0.028191233 -0.026282907
000080 cd 8a 87 3d 0b cb 38 bd 6b 14 83 3d 58 b9 f6 bc
       0.06618271 -0.045115512 0.06400379 -0.030117676
000090 b7 37 f3 bc 87 c0 30 b9 74 39 01 bd 28 fd 1c 3c
       -0.029689653 -0.0001685639 -0.031548932 0.0095818415
0000a0 9a 54 87 3d 6a c4 fc 3c 13 89 2b bd 5f 8e 6a 3d
       0.06607933 0.030855376 -0.04187877 0.057264682
0000b0 53 ae 84 bd b0 ee bf 3c 9b 6f 1e bd 7d 01 67 3d
       -0.06478562 0.023429245 -0.038680654 0.056397904
0000c0 b4 e8 ea bc fb 99 2a bd 4b 2c b2 bc e6 d2 05 bc
       -0.028675415 -0.041650753 -0.021749636 -0.008167958
0000d0 a3 9a 98 bd 19 5e 8a 3c 63 c9 42 bd ce 3c 5a bd
       -0.074513696 0.016890572 -0.04755534 -0.053280644
0000e0 ea a5 71 bc 07 2f 58 39 5e 5b 27 3d 21 7c 33 bd
       -0.01474903 0.00020616884 0.04085862 -0.04381955
0000f0 bc ec 1f 3c f9 82 53 bd 3c b9 8b 3d 29 b8 14 bd
       0.009761032 -0.051638577 0.0682244 -0.03630844
000100 33 e0 34 bd a7 fa 82 bd 26 fb 28 bc 48 61 53 3d
       -0.044159126 -0.063954644 -0.010313785 0.051606447
000110 f9 99 5b bd e6 0e 0a 3c 5a e0 82 3d 4d 3b 89 3d
       -0.053613637 0.008426404 0.06390448 0.06700764
000120 99 da d2 bb 1e 63 5f bd 21 4f 99 bc 69 32 d6 3c
       -0.0064347503 -0.054537885 -0.01871449 0.026147084
000130 5a 89 d5 bc 6a 47 b9 3c 19 0c 48 3d 10 3d 98 3d
       -0.02606647 0.02261706 0.048839662 0.07433522
000140 df cf 0c 3c e7 78 19 3d 20 30 50 bd 66 ed a5 3c
       0.008594482 0.037468817 -0.050827146 0.020254802
000150 dc d7 8b 3d 84 bf 4f bd 18 5a 74 bd 29 ec 0a bd
       0.06828281 -0.050719753 -0.059656233 -0.033916626
000160 c9 b6 bc bc ed 44 f8 bc e0 0a 1d bd 54 7b 41 3c
       -0.023036378 -0.030306304 -0.03834045 0.011809189
000170 65 bc 3b 3c 14 64 2e 3d 85 c7 25 3d 89 54 c4 bc
       0.011458491 0.04257591 0.04047348 -0.02396609
000180 4f 4d 55 bd c5 5a 46 3d d8 76 d1 3c 47 d8 0e 3d
       -0.05207568 0.04842641 0.025569364 0.034874227
000190 1a dc 58 3a 2e 07 55 bd d8 b7 ee bc b7 b5 a2 3c
       0.0008272544 -0.0520088 -0.029140398 0.019862039
0001a0 71 57 62 bc f5 7e 8b 3b 34 d8 f7 3b 56 96 e2 bc
       -0.013814793 0.004257078 0.007563615 -0.027659576
0001b0 06 78 2a bd d2 78 65 bb b3 16 2c 3b 21 95 88 3c
       -0.04161837 -0.0035014641 0.0026258647 0.016672673
0001c0 1a 8c e1 bc c7 8f 16 3d 10 37 2b 3d 0f 22 09 3c
       -0.027532626 0.03675821 0.04180056 0.008369937
0001d0 53 19 9a 3d e1 82 ed bb 43 e6 3d 3d 4c 55 68 3d
       0.075243615 -0.007248268 0.046362173 0.05672197
0001e0 2b 1b 1d 3d 2b 19 49 bd ec 22 8f 3c b6 05 30 3c
       0.038355988 -0.049096268 0.017472707 0.010743549
0001f0 53 bf bd bb ef 38 bf bc 11 ac cc b7 56 dc 2e bc
       -0.00579063 -0.023342578 -2.439882e-05 -0.010672649
000200 6f 60 5a 3b 82 08 ef bc a7 41 6c bb 21 2c 77 bb
       0.003332164 -0.029178862 -0.0036049874 -0.0037715512
000210 ee e6 6a 3d 8b 72 d8 bc 2e e2 5e 3d af 11 3a 3d
       0.057349138 -0.026421806 0.05441492 0.04542702
000220 a5 63 55 3d b5 ae 6a bd 0a 11 86 3d ca ed 8c 3d
       0.05209698 -0.05729552 0.06546219 0.06881292
000230 a6 7d 90 bd 56 63 17 bc d1 20 13 3c a1 ed 4c bd
       -0.070552155 -0.009239992 0.008979992 -0.050031308
000240 f7 90 0d 3d 3e ac 95 3b 2b fd 03 3d 32 40 f2 3c
       0.034562077 0.004567652 0.03222386 0.029571626
000250 fb 4b 88 3c 3c 5a b5 3c d9 60 1a bd 42 a9 25 3c
       0.016637793 0.022137754 -0.037690017 0.010111155
000260 6f 23 81 3c fe 2b 61 bd d7 f2 b8 3a ad c0 1b ba
       0.015763966 -0.054973595 0.0014110458 -0.00059414917
000270 f3 f4 5a 3c 2c 57 ad 3b 6a 7c 7e 3d b1 94 05 bc
       0.0133640645 0.0052899327 0.06213037 -0.008153127
000280 45 97 e2 3c af 5e fc bb 3d 42 39 3c a1 13 1f 3d
       0.027660022 -0.007701717 0.011307296 0.03883708
000290 76 8d 6c 3c 91 72 02 bd b6 96 38 bd d8 6b 2e bc
       0.014438024 -0.03184754 -0.045065604 -0.010645829
0002a0 28 1a 9a 3d 75 85 1e 3b 74 94 82 bd 89 65 15 bd
       0.0752452 0.0024188433 -0.063759714 -0.036473785
0002b0 2c c1 cf 3c 2a b7 9e bc 37 8f f3 bc d8 05 14 3d
       0.025360666 -0.019374449 -0.029731376 0.036138386
0002c0 fd 67 21 bd c4 40 15 bb 1b 48 59 3c 35 f9 45 3d
       -0.03940581 -0.00227742 0.01326182 0.048333365
0002d0 e2 ab 02 bd 76 8c af 3c 13 6a 58 3d a0 f0 34 3d
       -0.0319022 0.021429282 0.052835535 0.04417479
0002e0 1d c1 6e 3d 37 59 6e bc 5e 08 05 bd b2 61 11 bd
       0.058289636 -0.014547638 -0.032478683 -0.03549356
0002f0 ec 82 0f 3d 3c e0 69 3d dc 98 d7 3c d1 8a 88 3d
       0.035036966 0.057098612 0.026318006 0.06667102
000300 e7 e8 42 3c bb 73 e3 bb 57 aa ab bd 9c 32 2c 3d
       0.011896349 -0.0069412864 -0.08382099 0.042040452
000310 4b aa 1a bd c4 34 a2 3c d9 73 8f bd 31 85 5d bb
       -0.03776006 0.019800551 -0.07004518 -0.0033801312
000320 9b f9 cf bc 40 6a 16 bd 8f f0 b5 3c 54 4d 60 3d
       -0.025387576 -0.03672242 0.022209434 0.054761246
000330 c7 99 b9 3c 73 d1 7a 3d cd f8 0c 3d 00 73 5b bd
       0.022656335 0.061234903 0.034416962 -0.05357647
000340 b8 68 09 bb f7 8f 3b bc 5a 2a 4a bd c4 f7 30 bd
       -0.0020966958 -0.011447898 -0.049356796 -0.043205038
000350 81 3f 2e 3d 7b 38 55 3c bb f6 fc 3c 52 5d 3f bd
       0.04254103 0.013013954 0.030879369 -0.046719857
000360 bd 43 12 3d 26 e8 26 3d d4 24 fe 3c 39 51 e6 bc
       0.03570913 0.040748738 0.03102342 -0.028114902
000370 4b 22 81 3d 7b 67 18 3d c9 33 93 3d cf b9 4b 3d
       0.06305369 0.03720806 0.071876116 0.049737748
000380 5d b7 2d bc 68 6f ff 3c fc 8b 03 bd 51 13 1f 3d
       -0.010602799 0.031181052 -0.03211592 0.03883678
000390 00 aa d8 bc 57 50 34 bc 75 f7 98 3c 7c 2a 8e bd
       -0.02644825 -0.011005483 0.018672684 -0.06941697
0003a0 29 01 89 3d cc 9d b6 3b 20 b7 55 bb 33 fb 32 3d
       0.066896744 0.00557301 -0.0032610372 0.043696593
0003b0 25 82 60 3d f3 74 b4 bc ac fe 6e 3c c0 04 04 b9
       0.054811615 -0.022028422 0.014587086 -0.0001259027
0003c0 ca 31 97 bd 56 cf 09 3c 34 fc f5 3c b6 de 83 bd
       -0.073825434 0.008411249 0.030027486 -0.06438963
0003d0 45 21 24 3c 90 62 1a bd 3b 6b ba 3b 5c 53 1a bd
       0.010017698 -0.037691653 0.0056890524 -0.037677154
0003e0 cd 70 08 3c 08 a0 37 bd d6 fe 9d 3c 6f 52 77 3d
       0.008327675 -0.044830352 0.019286554 0.06038135
0003f0 d9 f3 be bb 52 62 e6 3c a6 3a 47 bd 81 d2 20 bd
       -0.0058274087 0.028123055 -0.048639916 -0.039263252

fc3.weight f4 [32, 256]
000000 d2 ba 86 3d 6f 48 17 bd 1c 76 8c 3d be 62 e2 bb
       0.06578602 -0.036934312 0.06858465 -0.0069087436
000010 98 d9 0a bd eb 03 28 bd 8b ca 43 bc ce ff 59 3c
       -0.03389892 -0.04101936 -0.0119501455 0.0133056175
000020 37 16 30 bd 8c 95 33 3d 6f af 96 3d 3a ac fe bc
       -0.042989936 0.04384379 0.0735768 -0.031087983
000030 57 db 33 3d a2 78 a1 3c 79 3d 17 3d c9 fb 9e 3c
       0.04391035 0.019710843 0.03692386 0.01940717
000040 17 b3 16 bd 21 2b 9d bd 11 f3 2d 3d 35 83 8c 3d
       -0.036791887 -0.07674242 0.042468134 0.06860963
000050 fc da 2b 3d a1 55 a3 bd 1e 7d 53 bd aa dc 25 3d
       0.041956887 -0.07975317 -0.051632993 0.040493645
000060 dd 5d 62 bd e2 6e bd 3d 39 27 16 bd e4 1f 8b bd
       -0.055265296 0.09249665 -0.0366585 -0.06793192
000070 92 7c 96 bc 17 9e a9 bd fe 24 db 3b f0 dc c5 bc
       -0.018369947 -0.08282106 0.0066877594 -0.024153203
000080 46 cd 8d 3d 70 07 34 bd b7 08 83 bd 98 ae b8 3d
       0.069239184 -0.043952405 -0.063981466 0.09017676
000090 ba 44 4f 3b aa d6 bb bc 6a 40 07 3c e0 05 90 bc
       0.0031626658 -0.022929508 0.008255104 -0.017580926
0000a0 30 9f da 3b cd 66 df bc e3 1f 17 3c ab e1 25 bd
       0.0066718087 -0.027270699 0.009223911 -0.040498417
0000b0 ac 14 6e bb a8 67 53 3c 83 13 3b bd 15 b5 38 bd
       -0.003632824 0.012903132 -0.045672905 -0.04509457
0000c0 bc 18 8e bd 58 80 9b bd 73 f9 62 bd 9d 89 84 bd
       -0.069383115 -0.07592839 -0.055413675 -0.0647156
0000d0 f9 c6 9b ba b3 5f 95 bc ee a1 f8 bc 97 d0 f4 bc
       -0.001188486 -0.01823411 -0.030350652 -0.02988462
0000e0 b4 ad 09 3d 57 9d 8a bc e6 eb bc 3c 5b 78 54 bd
       0.03361292 -0.016920729 0.023061704 -0.051872592
0000f0 fc 1b 6d bd c4 f5 46 3d f3 bd 51 bc ae 37 a6 bc
       -0.057888016 0.048574224 -0.012801635 -0.020290222
000100 3a 6a 95 3d 63 74 03 bb ac f6 87 3c a4 cc 9b bd
       0.07295652 -0.0020058386 0.016597115 -0.076073915
000110 28 ea 94 3d e0 bb 8b bd 1e 17 6f bd b7 74 8a 3b
       0.07271224 -0.06822944 -0.058371656 0.0042253393
000120 0f a0 75 bc 43 d0 b3 bb be 91 8f 3d 9e 11 0f bd
       -0.014991774 -0.005487473 0.0701022 -0.03492891
000130 cf 7e 02 bd 7d f9 0d 3d 79 16 d7 bc 44 b1 f6 bc
       -0.031859215 0.03466176 -0.026255833 -0.030113824
000140 15 b3 00 3d 7b 31 93 bd 60 9a 93 bd ac 02 8c bd
       0.031420786 -0.07187172 -0.07207179 -0.06836447
000150 c8 da 47 bd 66 d6 1b 3b 34 45 3f 3b 92 83 34 bd
       -0.04879263 0.0023778914 0.0029185535 -0.044070788
000160 6b b7 a8 3b a6 9d ea bc 25 a7 03 3d 3a a5 89 bd
       0.0051488183 -0.028639626 0.032141823 -0.067209676
000170 17 32 0c 3d 87 51 41 3d 20 e0 a0 3d ba 44 cd 3c
       0.034227457 0.04719689 0.078552485 0.025057185
000180 67 26 df bc 0d 41 48 3d f4 e8 81 3d e7 98 25 bd
       -0.027239991 0.048890162 0.063432604 -0.040429022
000190 d9 f0 2c 3d 77 3a 6c 3a 42 8b d8 ba 24 1d 79 3d
       0.042221878 0.00090113975 -0.0016520994 0.060818806
0001a0 04 a0 a0 bc 3d 54 51 bc 1c 12 ac 3c f6 5a 35 3c
       -0.019607551 -0.012776432 0.021004729 0.01106905
0001b0 1a 19 93 bd 2c 75 1f 3d 1d dc 6a 3d 2e a2 db 3c
       -0.07182522 0.038930103 0.057338823 0.026810732
0001c0 d3 2e a2 3d 50 c2 7e 3d 2f b8 7c 3d f5 31 ca 3c
       0.07919087 0.06219703 0.06169909 0.024682024
0001d0 74 5a 47 3c d8 89 c3 bc 24 c9 38 bd f4 ed 1a 3d
       0.012167562 -0.02386944 -0.045113698 0.037824586
0001e0 f5 1d 77 ba 84 57 32 3c c9 67 70 b9 0d 5d 4a bd
       -0.0009426766 0.010885123 -0.00022926847 -0.049405146
0001f0 f6 be 93 3d 8d 1b b7 3c d9 29 9c bd 87 51 db 3c
       0.07214157 0.022352004 -0.07625169 0.026772274
000200 26 2d bf 3a bd 2b 29 bd b8 b2 9b bd 75 32 fe 3b
       0.0014585599 -0.041301478 -0.07602447 0.00775748
000210 e5 98 15 3d f9 ec ba 3c 0a 50 1e bd be e9 ab 3d
       0.036522765 0.022818075 -0.03865055 0.08394192
000220 47 11 a1 bd 1b 6e a2 bc 37 b9 5b 3d 38 51 4b bd
       -0.078646235 -0.019827893 0.05364343 -0.049638003
000230 98 6c 62 3d d4 3c 92 bb 64 76 96 bc 21 87 9c bb
       0.055279344 -0.0044628177 -0.018367 -0.004776851
000240 63 75 55 3d 45 b9 5b 3d 35 b4 3a 3d 90 8b 77 3d
       0.0521139 0.053643484 0.045582015 0.06043583
000250 80 a4 a0 bd fb 5e f0 bb 79 90 46 bc 32 06 1a bc
       -0.07843876 -0.0073355413 -0.012119406 -0.009400891
000260 a5 4c 2a bc d4 e7 64 bc d2 de bd bc bd 92 eb bc
       -0.01039425 -0.013971288 -0.023177538 -0.028756494
000270 01 bb 20 3d 36 4e 02 bc da 44 b2 3c 0a d0 99 bc
       0.03924084 -0.007953217 0.021761347 -0.018775959
000280 7a 5e 52 3d b8 ee 43 3d 94 97 84 bd 8b 13 ab bd
       0.05135963 0.04783508 -0.06474224 -0.08353337
000290 8e 3a ad 3b bc 3c 9b 3d 89 0d 3b 3b 5c 83 25 bd
       0.0052865213 0.075799435 0.0028542003 -0.040408477
0002a0 20 b2 d8 bc cd d8 38 3d 55 dc 96 bc 14 ab 6a 3d
       -0.026452124 0.045128632 -0.01841561 0.05729206
0002b0 a7 34 83 bd f3 5a da bb f0 ef 53 bd 41 9c 4a 3d
       -0.06406527 -0.006663674 -0.051742494 0.04946542
0002c0 9b 59 cc bc d8 8a 4e 3d c3 4c a6 bd 9b 67 5a bd
       -0.024945071 0.05042538 -0.0812011 -0.053321462
0002d0 91 e9 49 3c ae 44 a3 bc 05 82 4f 3d 97 c4 2f 3d
       0.012323753 -0.01993021 0.050661106 0.042912092
0002e0 d0 df 55 bd 8b 63 38 bc c4 02 03 3d 1c 64 24 3d
       -0.052215397 -0.011254202 0.03198506 0.040134534
0002f0 c2 a8 02 3d 92 cb b5 3c 04 39 7b bd 5f 6e 82 bd
       0.03189922 0.022191796 -0.06133367 -0.06368708
000300 7b 73 67 bd 85 73 55 bd d2 43 1c bd 5d 3c 6e bd
       -0.056506615 -0.05211212 -0.038150616 -0.058163036
000310 49 6f 91 3d b1 6d 82 bd ed 01 29 bc 37 8e 1f 3d
       0.07101304 -0.06368578 -0.010315401 0.038953986
000320 4c e8 87 bb d1 73 b0 3b dc 87 a7 3c f7 c7 26 3c
       -0.004147565 0.0053849 0.020450525 0.010179511
000330 0c 74 9b 3c f9 4c a2 3d c6 1b f5 3c 0c ca 83 bc
       0.018976234 0.079248376 0.02992047 -0.016087554
000340 d5 ed fd 3c 4d 45 fd bc b1 e6 d3 bc 2e 3d c8 3b
       0.030997196 -0.030916834 -0.025866838 0.006110809
000350 c6 f8 fb bc b8 5f 24 bd b5 c0 fa 3c a3 2c 96 3c
       -0.030758273 -0.040130347 0.030609468 0.018331831
000360 b0 da 41 bd f3 67 91 bd 37 c8 b7 3d ed af 62 bd
       -0.047327697 -0.07099905 0.08973735 -0.055343557
000370 74 e3 01 3c 67 70 75 bc 28 b5 a7 bc 54 b1 18 3d
       0.007927764 -0.014980412 -0.020472124 0.03727849
000380 91 df 22 bd 74 16 b0 bd 6a ad 6a bd 38 76 3b 3c
       -0.03976399 -0.085980326 -0.057294287 0.01144176
000390 a1 9d 2a 3c 47 90 90 bc 32 5c 5c 3c 87 3c 72 3d
       0.010413558 -0.017646922 0.013449715 0.059139755
0003a0 aa 96 ae 3d 51 d3 6c bc e0 46 ca 3b f7 42 f8 bc
       0.08524831 -0.014454679 0.0061729997 -0.030305369
0003b0 86 e3 bf 3b d2 2f 90 3d 9a cc 6f bd dc b9 9d 3c
       0.0058559803 0.07040371 -0.058544733 0.019253664
0003c0 a6 28 02 bd 07 40 4d 3d 02 7c ab 3d 62 65 f9 3c
       -0.031777047 0.05010989 0.08373262 0.03044385
0003d0 bf c0 8c 3c 05 3d 22 3d 0f 08 1b 3b 13 cc 16 3d
       0.017181752 0.039608974 0.0023655926 0.036815714
0003e0 46 cc 0a 3d 8f a7 d5 3c a9 73 76 bd 67 51 0d 3c
       0.033886217 0.026080875 -0.060168896 0.008625365
0003f0 7c cd 53 3d 90 78 ea bc 72 62 60 bc 6f 1d 96 bd
       0.051709637 -0.028621942 -0.013695346 -0.07329833

fc3.bias f4 [32]
000000 91 05 2a bd 54 f8 f9 3c b2 d1 00 3d a1 77 86 3d
       -0.041509215 0.03051392 0.03144998 0.06565786
000010 bf 22 86 bc b0 da 2d bc 3f 1d 8c bb fb 8b 36 bd
       -0.01637399 -0.010611221 -0.0042759473 -0.04456709
000020 1e 78 1a 3d f1 bc 71 3d c0 5c 78 3c 60 b3 d6 3c
       0.03771221 0.05901808 0.015158832 0.02620858
000030 37 55 99 bc 00 ca 31 3d 4e 9a 80 3d 56 df 48 bd
       -0.018717391 0.043405533 0.06279431 -0.049041115
000040 bf e0 3d bc be 8f ba bc 39 77 27 3d 9c c0 b7 3c
       -0.011589228 -0.02277362 0.040885184 0.02243071
000050 47 b6 01 3d 0f ee 2c 3d 14 00 97 3d 73 66 ba 3c
       0.031667974 0.042219218 0.07373062 0.02275393
000060 26 05 23 bd e0 87 0c bd 32 60 65 3d cc 10 1d 3c
       -0.03979983 -0.034309268 0.055999942 0.009586524
000070 03 5f 6d 3d 05 5f 2c bc d3 55 78 bc 26 ff 63 bc
       0.05795194 -0.010520701 -0.015157181 -0.013915813

output.weight f4 [1, 32]
000000 d8 ab 78 3d 57 80 49 3e 81 85 35 bd 0e bc 2e be
       0.060710758 0.19677864 -0.044316772 -0.17063925
000010 31 fd 64 bd ba 15 10 be 3c 45 d3 3d 68 d0 00 be
       -0.055905525 -0.14070788 0.1031594 -0.125795
000020 03 e8 94 3d 62 40 02 be bf 53 e4 3d c2 d8 ff bd
       0.07270815 -0.12719873 0.11148786 -0.12492515
000030 d8 65 4f 3e ee dd 62 bd 2b 6b 36 3d 25 b6 4c 3e
       0.20253694 -0.05538743 0.044535797 0.19991358
000040 41 79 07 3e f4 4f a8 3d 1f a3 05 be 64 46 01 3e
       0.13229848 0.08218375 -0.13050507 0.12624508
000050 31 00 ec bd 64 99 76 3d e2 31 43 be 71 09 44 bd
       -0.11523474 0.06020488 -0.19061998 -0.047860567
000060 42 85 02 be dd b4 23 bd 72 ea 48 bd 97 7a 60 3d
       -0.12746146 -0.039967407 -0.04905171 0.05480441
000070 4e ba ab bd 54 21 13 3d cf 50 25 3e 42 b6 ff 3d
       -0.08385144 0.035920456 0.16144107 0.12485935
