result/occur/887/1000/Train_887_under_1000_128_256_32_0.0004_128_4_0.pth (torch, 173231 bytes, 7 tensors)

fc1.weight f4 [128, 9]
0.16163124 -0.17623849 -0.040663086 0.1814355 -0.31146854 0.23058267 -0.11137704 0.17315358
0.08669579 -0.077010065 0.061168704 0.0471054 0.10977417 -0.15996164 -0.01910502 -0.07945459
0.020749105 0.009803114 0.33748406 0.13578 -0.13984415 -0.15688722 -0.010280841 -0.12169209
-0.05360571 0.058456726 0.2345014 0.1688136 -0.3419233 0.2347187 0.11828162 0.31833607
0.24986205 -0.34770063 -0.3159117 -0.12674046 0.3233461 -0.029620841 0.11530564 -0.15071295
0.351212 -0.15590686 0.29546553 0.02428331 -0.19686678 0.15284286 -0.19960073 0.12313664
-0.085499786 -0.045094285 -0.30127707 -0.20849897 0.174761 -0.053534668 0.3725736 0.30903032
-0.042840704 -0.20112635 0.23866789 0.09891891 -0.16193531 0.25118986 0.20302515 0.33094695
-0.16904694 -0.07829853 0.0028390414 0.07780873 -0.2396306 -0.18499425 0.20900576 -0.09256238
0.20833017 0.035564203 0.10135436 0.09343782 0.16123809 0.14826095 -0.25062042 0.20632319
-0.24189827 -0.21557133 0.052250884 -0.08405128 0.21041514 -0.16290434 -0.30078575 0.29052073
-0.021378774 0.18131597 0.08292278 -0.27971268 0.08338702 0.09097793 -0.23669966 -0.1249343
0.064798884 0.050869092 -0.111345805 -0.06573386 0.33582222 -0.077770285 0.21146789 0.17647748
-0.19258936 -0.24192041 0.35302392 0.029026117 0.26624313 0.101744674 0.07571435 0.2626427
0.34790784 -0.22341898 0.09257706 0.27785188 0.23201565 0.23142156 -0.21160257 -0.2682046
-0.2078053 0.057905212 0.31174672 -0.16492501 0.18826315 -0.21460706 -0.31964043 -0.084253915
0.21592484 0.3298604 -0.20355216 0.10030142 0.2516768 0.22850369 0.23810808 0.27923667
0.25003353 0.09218144 -0.1988198 -0.24154969 -0.15689526 0.0144214425 -0.16752428 0.13817877
0.12396453 -0.043107647 0.09619947 0.10380472 0.21711846 0.2116024 -0.07191027 0.33707452
-0.06003484 -0.051933352 -0.34151193 -0.18652904 -0.20415173 -0.175415 0.24743831 -0.16539627
-0.2781674 0.14477825 0.12830599 0.23188028 -0.18989874 0.08281115 -0.10284978 -0.0764737
-0.23491894 -0.13742718 -0.10926606 0.17517948 0.0872568 0.05096028 0.34671032 0.3532131
0.22405674 0.051801644 -0.20386794 0.25275192 -0.044614512 0.0041343938 -0.3272174 -0.038881358
-0.1792563 0.32558915 -0.23716815 -0.2261889 0.001465073 -0.14404424 0.15513001 -0.16799714
-0.13706046 0.051138803 0.25114125 -0.1856507 0.18576305 0.21554641 0.35962114 -0.20385574
0.051936038 -0.2565393 0.3047674 -0.14942405 0.25605908 0.028438734 -0.055302635 0.026587985
0.08956518 0.12683187 0.06156648 0.13104452 -0.31827614 0.29582816 0.31731978 0.26091015
0.24585663 -0.26174724 -0.11364712 0.31839356 -0.24637023 0.33659077 -0.28908196 -0.22420534
0.20281985 -0.21288297 -0.046397146 0.2132772 0.27516422 0.33809778 -0.06614789 -0.22430137
0.34956592 -0.07677073 -0.11519161 0.11041785 -0.26239505 0.21444392 0.22367162 -0.27171016
-0.23542011 -0.01523815 0.111214 -0.046575185 -0.20320512 0.034408715 -0.32525033 -0.2662216
-0.21485634 0.22428648 0.2660328 -0.102366626 0.057866707 0.19250867 0.027034646 -0.14227498
00000000: a982 253e dd77 34be 568e 26bd 3aca 393e
00000010: ce78 9fbe dd1d 6c3e a519 e4bd 2c4f 313e
00000020: 908d b13d 74b7 9dbd 098c 7a3d 98f1 403d
00000030: 48d1 e03d fccc 23be 2282 9cbc 17b9 a2bd
00000040: 07fa a93c 3e9d 203c b6ca ac3e ea09 0b3e
00000050: 4e33 0fbe 0ba7 20be f970 28bc b439 f9bd
00000060: a991 5bbd 5270 6f3d 2321 703e 79dd 2c3e
00000070: 9210 afbe 195a 703e a23d f23d f2fc a23e
00000080: d6db 7f3e d105 b2be 2ebf a1be 40c8 01be
00000090: 9f8d a53e 68a7 f2bc 5d25 ec3d 7f54 1abe
000000a0: 0fd2 b33e 0ca6 1fbe 4247 973e cbed c63c
000000b0: 7297 49be d782 1c3e 2264 4cbe 102f fc3d
000000c0: 831a afbd c9b4 38bd fd40 9abe c180 55be
000000d0: 8cf4 323e 2b47 5bbd f8c1 be3e 3939 9e3e
000000e0: bc79 2fbd 11f4 4dbe 5b65 743e ff95 ca3d
000000f0: 5fd2 25be f59b 803e d3e5 4f3e e171 a93e
00000100: a41a 2dbe fb5a a0bd 360f 3a3b 2f5a 9f3d
00000110: b961 75be 226f 3dbe 9b05 563e 5891 bdbd
00000120: 8154 553e c5ab 113d e092 cf3d 545c bf3d
00000130: 991b 253e b8d1 173e 5251 80be 6346 533e
00000140: 2eb4 77be bbbe 5cbe 0605 563d 1423 acbd
00000150: 1177 573e 65d0 26be 9700 9abe 22bf 943e
00000160: 8a22 afbc e5aa 393e 6bd3 a93d 8036 8fbe
00000170: d0c6 aa3d a352 ba3d 6561 72be 8edd ffbd
00000180: 47b5 843d 1c5c 503d 4509 e4bd 799f 86bd
00000190: e4f0 ab3e 0746 9fbd 0a8b 583e 83b6 343e
000001a0: 2536 45be fcb9 77be 8dbf b43e 2ec8 ed3c
000001b0: 0551 883e 835f d03d 2010 9b3d 1b79 863e
000001c0: fa20 b23e f2c7 64be 0b99 bd3d 9a42 8e3e
000001d0: 8395 6d3e c6f9 6c3e 58ae 58be 1d52 89be
000001e0: eaca 54be 042e 6d3d 449d 9f3e 1ae2 28be
000001f0: 0ec8 403e f4c1 5bbe e9a7 a3be 518d acbd
00000200: 671b 5d3e 76e3 a83e fa6f 50be d56a cd3d
00000210: c8db 803e dffc 693e 9bd2 733e 1cf8 8e3e
00000220: 6504 803e 9fc9 bc3d 6b97 4bbe cd58 77be
00000230: 27a9 20be ea47 6c3c 7c8b 2bbe bc7e 0d3e
00000240: 1ee1 fd3d a591 30bd 3a04 c53d 9297 d43d
00000250: 4d54 5e3e 4dae 583e b145 93bd 0895 ac3e
00000260: 18e7 75bd 11b8 54bd a7da aebe 7801 3fbe
00000270: 270d 51be fd9f 33be 7860 7d3e a45d 29be
00000280: f56b 8ebe c040 143e a562 033e 0672 6d3e
00000290: d174 42be e498 a93d e8a2 d2bd 3e9e 9cbd
000002a0: 978e 70be b6b9 0cbe e2c6 dfbd 4062 333e
000002b0: b1b3 b23d babb 503d 0484 b13e 59d8 b43e
000002c0: 216f 653e f62d 543d c2c2 50be b368 813e
000002d0: b5bd 36bd cf79 873b 0a89 a7be 0f42 1fbd
000002e0: f78e 37be 9fb3 a63e 35dc 72be 109e 67be
000002f0: b107 c03a 5580 13be 67da 1e3e 7107 2cbe
00000300: 9459 0cbe ec76 513d 9695 803e 381b 3ebe
00000310: ab38 3e3e 33b8 5c3e 4320 b83e 8fbf 50be
00000320: e2ba 543d 1e59 83be 790a 9c3e 9e02 19be
00000330: 2d1a 833e 59f8 e83c 0485 62bd 0ccf d93c
00000340: f36d b73d 37e0 013e 222d 7c3d 8930 063e
00000350: 17f5 a2be ca76 973e bd77 a23e 0496 853e
00000360: d7c1 7b3e bc03 86be d2bf e8bd 7b04 a33e
00000370: 7a48 7cbe a055 ac3e 8d02 94be 1696 65be
00000380: 02b0 4f3e fefd 59be ef0a 3ebd 5765 5a3e
00000390: 53e2 8c3e 271b ad3e 8c78 87bd 42af 65be
000003a0: 4efa b23e f939 9dbd 94e9 ebbd c122 e23d
000003b0: a558 86be 3097 5b3e 2c0a 653e 981d 8bbe
000003c0: f811 71be 6fa9 79bc 2ac4 e33d 9fc5 3ebd
000003d0: 0115 50be 27f0 0c3d 3687 a6be 334e 88be
000003e0: 4d03 5cbe 5bab 653e 7335 883e 98a5 d1bd
000003f0: a405 6d3d fe20 453e c377 dd3c 88b0 11be

fc1.bias f4 [128]
-0.19683391 -0.1981228 0.04155998 -0.15416574 0.3180104 -0.113592304 -0.15989712 -0.073623486
-0.24498828 0.18948527 0.29230905 -0.1667923 -0.10536445 0.31079042 -0.22350039 0.12181103
-0.27119887 -0.31211632 0.013028184 -0.1722567 0.21037677 -0.079056576 -7.6414755e-05 -0.16105762
0.15848404 0.3233659 -0.05031158 -0.22258817 -0.29678747 0.3348029 0.14569783 0.15645003
0.06622082 0.18702227 0.11612806 0.17329268 0.2246007 0.027726043 0.28883743 0.223741
0.010791603 -0.12421573 0.045696713 0.27663535 0.22848982 -0.15324421 -0.048558038 0.11408656
0.15801598 0.3309942 0.17626384 0.13752525 0.092794314 -0.2723771 -0.10507993 0.022513527
-0.24951363 -0.31131107 0.23866963 0.117771015 -0.28764924 0.049907967 0.17263542 0.21724464
0.31466484 -0.11522989 0.14585762 -0.23296686 -0.022763737 -0.1953695 -0.080804035 0.1973463
0.15070376 -0.13705504 -0.0495031 -0.036124144 -0.1385589 -0.19930115 0.27072498 0.26479453
0.29401535 -0.15415421 0.24994549 -0.09819335 -0.07231422 -0.06271861 -0.01593331 -0.15955211
0.048240628 -0.24051945 0.1601855 -0.2962274 -0.11361613 -0.24024057 0.25858355 0.24279612
-0.26633212 -0.18625855 0.3183937 0.13334249 0.21406455 -0.23991829 0.17361711 0.22699594
-0.05995704 -0.0044947485 0.2458898 0.09797512 0.076771684 -0.007538738 -0.1528249 -0.21939556
0.34988025 -0.025717635 0.30206734 0.28722557 -0.1685969 0.039804943 -0.110649295 -0.0046697427
0.23835306 0.21726859 -0.16584177 -0.13002639 -0.22736853 -0.27366456 0.2116368 -0.20424686
00000000: d48e 49be b4e0 4abe cc3a 2a3d a0dd 1dbe
00000010: 42d2 a23e 15a3 e8bd 12bc 23be e9c7 96bd
00000020: 35de 7abe 6d08 423e 88a9 953e 9acb 2abe
00000030: 51c9 d7bd ec1f 9f3e 49dd 64be 1078 f93d
00000040: 94da 8abe b6cd 9fbe 2a74 553c 0f64 30be
00000050: 026d 573e 6ae8 a1bd dc40 a0b8 4aec 24be
00000060: a449 223e 3790 a53e 8413 4ebd 27ee 63be
00000070: 87f4 97be 496b ab3e d031 153e 7034 203e
00000080: c89e 873d c482 3f3e 8cd4 ed3d a373 313e
00000090: bafd 653e ba21 e33c 80e2 933e 5c1c 653e
000000a0: 43cf 303c d164 febd 7a2c 3b3d 26a3 8d3e
000000b0: 3cf9 693e 0dec 1cbe cbe4 46bd 37a6 e93d
000000c0: f1ce 213e 1278 a93e 827e 343e 6bd3 0c3e
000000d0: f20a be3d 0375 8bbe 2534 d7bd 4a6e b83c
000000e0: 8080 7fbe 2a64 9fbe d065 743e ee31 f13d
000000f0: c346 93be 4c6c 4c3d 57c7 303e 6175 5e3e
00000100: c01b a13e a6fd ebbd b35b 153e dd8e 6ebe
00000110: 047b babc f10e 48be 967c a5bd 2615 4a3e
00000120: 1652 1a3e 2858 0cbe c3c3 4abd e9f6 13bd
00000130: 62e2 0dbe 9a15 4cbe 779c 8a3e 2693 873e
00000140: 2e89 963e 9ada 1dbe b6f1 7f3e 9819 c9bd
00000150: 7a19 94bd 9d72 80bd 9386 82bc a161 23be
00000160: f797 453d bb4a 76be ab07 243e 1eab 97be
00000170: 93af e8bd a001 76be 1065 843e 8c9f 783e
00000180: af5c 88be 90ba 3ebe 8004 a33e ef8a 083e
00000190: bd33 5b3e 24ad 75be afc8 313e a071 683e
000001a0: 8395 75bd af48 93bb 89ca 7b3e 2ea7 c83d
000001b0: 793a 9d3d 8507 f7bb 217e 1cbe 3ba9 60be
000001c0: 8123 b33e caad d2bc 92a8 9a3e 3b0f 933e
000001d0: aaa4 2cbe 820a 233d 199c e2bd a404 99bb
000001e0: d312 743e a87b 5e3e 6dd2 29be a325 05be
000001f0: 4cd3 68be c31d 8cbe 51b7 583e 1726 51be

fc2.weight f4 [256, 128]
-0.023580419 0.005934752 0.031313602 -0.027530761 0.0440704 0.007972219 0.06683269 0.02415121
0.01267618 -0.00173026 0.038901303 0.015906947 0.05397058 -0.008715945 -0.03165159 0.09459766
-0.09422243 0.013262785 0.100919224 -0.057414606 0.0014462626 0.0063229217 0.03327576 0.02524794
-0.004909524 0.02065689 -0.039016847 0.04890547 -0.015116905 0.038347542 -0.033530455 -0.095700495
0.029523533 0.06294762 -0.016345263 -0.024531303 -0.0105031105 0.058498587 0.0078107566 -0.08758653
-0.087660894 -0.01981395 -0.0018210922 0.07685938 -0.03762499 0.08271254 -0.07384019 -0.08751926
0.009550823 -0.06789311 -0.040397827 0.016469143 -0.06983199 0.09216802 -0.052020185 0.09018052
0.042147316 0.0011840238 -0.06654456 -0.0036880542 -0.04106554 0.08529284 -0.062329058 -0.03683783
-0.060456205 -0.07753051 -0.05410564 0.0059548365 -0.0018008021 0.009767015 0.059181716 -0.04998771
-0.048974346 0.00014028297 0.100136586 0.0063248705 -0.06681627 0.08376726 0.021209441 0.029870503
0.01641495 0.08071752 -0.048374522 0.05641271 0.10863036 -0.043137744 0.060699694 0.05712726
0.07095289 -0.0038721228 -0.069789305 -0.020655008 -0.095666625 0.0062613734 0.068705946 0.059785347
0.078720644 0.022963915 -0.008414164 0.06758287 0.07726624 -0.017659048 -0.05129035 0.019167045
-0.022229504 -0.09143481 -0.06740408 0.058465626 0.09209902 -0.020439155 -0.008895086 -0.025686463
-0.04539105 0.09376593 -0.07992606 0.013865799 -0.08885485 -0.043666493 -0.0114101535 0.016792728
-0.024947038 -0.018392064 -0.07088615 -0.045414433 -0.074327275 -0.06185077 0.05986983 -0.032776717
-0.10767235 0.03668628 0.071443595 0.035717826 -0.05492401 -0.10437955 -0.026517022 -0.017037
0.038795225 0.05471245 0.037940398 -0.04062434 0.060161594 -0.019658005 -0.009569105 0.046761237
0.023295078 0.00043737798 0.02200035 0.07321222 0.038787715 0.09907066 0.04421796 -0.024478933
0.04259091 0.013832202 0.11683144 -0.029006923 0.10449762 -0.054984428 0.06887309 -0.06900947
0.072420575 0.042387187 0.06492316 -0.09432068 -0.0666656 0.025518466 -0.008929481 0.0583816
-0.08559351 -0.061350618 0.040359993 0.07934517 0.052396026 -0.013662307 0.008894397 -0.020793399
0.09521458 -0.07123168 -0.017241122 -0.050722066 0.05343318 0.0211899 0.079997264 0.08450866
-0.091033846 -0.03927725 0.023888692 0.0010613137 -0.04319064 -0.014213197 -0.052036587 0.016256323
0.085606895 -0.033839043 0.08143672 -0.028301302 0.029458031 -0.03988318 -0.098994836 0.02239636
-0.06767021 0.11240737 0.10006227 -0.052399326 -0.032738555 -0.02401034 -0.018876223 -0.026750656
-0.0026986313 0.051722113 0.045985673 0.07888213 0.011762023 0.015801813 -0.007905355 -0.044453584
0.008351726 -0.08957612 -0.0025378165 -0.044146497 -0.05804083 -0.06674836 -0.06029993 -0.094172634
-0.0042688204 -0.014293525 -0.0026145787 0.11714459 0.06935759 0.043671787 -0.06825277 0.017950537
-0.060747854 0.035064008 0.0635411 0.0013243216 0.06798117 0.066831656 -0.024244512 -0.035040736
0.007005014 0.00556955 -0.04951287 -0.033421062 -0.012149755 0.092075795 -0.019827148 0.038253117
0.09622224 -0.002183421 -0.021998035 0.026684169 -0.051042672 -0.086216494 -0.011346353 0.00597055
00000000: b92b c1bc 4f78 c23b b142 003d 3188 e1bc
00000010: 2a83 343d e99d 023c 94df 883d c2d8 c53c
00000020: c1af 4f3c e4c9 e2ba f956 1f3d 494f 823c
00000030: 4110 5d3d 53cd 0ebc 19a5 01bd 6bbc c13d
00000040: b0f7 c0bd 274c 593c bdae ce3d 942b 6bbd
00000050: 8590 bd3a 8330 cf3b 2a4c 083d c5d4 ce3c
00000060: 13e0 a0bb a338 a93c 21d0 1fbd 1a51 483d
00000070: e5ac 77bc 5012 1d3d 3b57 09bd 9ffe c3bd
00000080: 56db f13c afea 803d 80e6 85bc dff5 c8bc
00000090: 3d15 2cbc 379c 6f3d 60f1 ff3b 9160 b3bd
000000a0: 8e87 b3bd dd50 a2bc b7b1 eeba 7368 9d3d
000000b0: a91c 1abd 3165 a93d 8739 97bd 4c3d b3bd
000000c0: 0e7b 1c3c 8b0b 8bbd 3178 25bd 4cea 863c
000000d0: 1304 8fbd 96c2 bc3d 1e13 55bd 91b0 b83d
000000e0: aaa2 2c3d 3f31 9b3a 8448 88bd 48b3 71bb
000000f0: 5734 28bd 03ae ae3d c14c 7fbd 44e3 16bd
00000100: eda0 77bd 51c8 9ebd e09d 5dbd ca20 c33b
00000110: e408 ecba d505 203c 8768 723d eabf 4cbd
00000120: 5399 48bd ec18 1339 6914 cd3d dc40 cf3b
00000130: f8d6 88bd 2b8e ab3d 6cbf ad3c fcb2 f43c
00000140: a578 863c 3a4f a53d 5d24 46bd 0411 673d
00000150: 9879 de3d 34b1 30bd 3ea0 783d 46fe 693d
00000160: c04f 913d 71c3 7dbb b2ed 8ebd b134 a9bc
00000170: ddec c3bd 352c cd3b b4b5 8c3d 7be1 743d
00000180: 4a38 a13d d21e bc3c 90db 09bc e368 8a3d
00000190: c33d 9e3d b5a9 90bc d415 52bd 3504 9d3c
000001a0: a61a b6bc 2c42 bbbd 260b 8abd a779 6f3d
000001b0: 699e bc3d 0470 a7bc b2bc 11bc 6b6c d2bc
000001c0: f7eb 39bd 5a08 c03d 46b0 a3bd 602d 633c
000001d0: 88f9 b5bd a3db 32bd a7f1 3abc e790 893c
000001e0: bb5d ccbc f4aa 96bc c22c 91bd 7c04 3abd
000001f0: e638 98bd 3c57 7dbd 113a 753d e140 06bd
00000200: 5283 dcbd 5a44 163d 0551 923d db4c 123d
00000210: 00f8 60bd f2c4 d5bd 3a3a d9bc 2e91 8bbc
00000220: bee7 1e3d 291a 603d 6467 1b3d b565 26bd
00000230: 016c 763d d309 a1bc bcc7 1cbc b688 3f3d
00000240: 52d5 be3c e14f e539 143a b43c 4af0 953d
00000250: dedf 1e3d 8fe5 ca3d e41d 353d 0b88 c8bc
00000260: ce73 2e3d 76a0 623c 5245 ef3d ed9f edbc
00000270: d902 d63d 5a37 61bd 560d 8d3d d654 8dbd
00000280: 3d51 943d 309e 2d3d 6ff6 843d 332b c1bd
00000290: f987 88bd 1a0c d13c f54c 12bc 8b21 6f3d
000002a0: a64b afbd c94a 7bbd 8550 253d b87f a23d
000002b0: 379d 563d ded7 5fbc ceb9 113c eb56 aabc
000002c0: ddff c23d eae1 91bd 413d 8dbc f1c1 4fbd
000002d0: c0dc 5a3d 7196 ad3c 9bd5 a33d e012 ad3d
000002e0: f46f babd 2fe1 20bd 38b2 c33c c71b 8b3a
000002f0: abe8 30bd 78de 68bc 5124 55bd fb2b 853c
00000300: ab52 af3d cf9a 0abd 4cc8 a63d 22d8 e7bc
00000310: f851 f13c 8c5c 23bd cebd cabd 9278 b73c
00000320: ae96 8abd d635 e63d 73ed cc3d ada0 56bd
00000330: dd18 06bd 55b1 c4bc 4fa2 9abc 3124 dbbc
00000340: 85db 30bb 91da 533d 795b 3c3d f48c a13d
00000350: 80b5 403c ce72 813c 7685 01bc f614 36bd
00000360: aed5 083c af73 b7bd 7f51 26bb f5d2 34bd
00000370: 39bc 6dbd 5db3 88bd 0ffd 76bd 95dd c0bd
00000380: 76e1 8bbb 642f 6abc 5a59 2bbb 81e9 ef3d
00000390: 5a0b 8e3d 30e1 323d 1cc8 8bbd 010d 933c
000003a0: bed2 78bd 479f 0f3d d621 823d dc94 ad3a
000003b0: b639 8b3d 09df 883d 6d9c c6bc e086 0fbd
000003c0: 518a e53b c680 b63b 02ce 4abd 86e4 08bd
000003d0: c40f 47bc 3c92 bc3d 8b6c a2bc 4daf 1c3d
000003e0: 2a10 c53d ba17 0fbb 3935 b4bc c298 da3c
000003f0: 1f12 51bd 4692 b0bd 0ee6 39bc 9aa4 c33b

fc2.bias f4 [256]
0.045045756 0.004144908 -0.017173469 -0.054885563 -0.003728799 0.07023199 -0.011936899 0.0824592
0.006771898 -0.09135623 -0.043311313 0.011305458 0.013829572 0.08436339 0.029003493 0.016742101
-0.00015782191 -0.04342615 0.05817601 -0.079762354 -0.030502928 -0.05624495 0.010592931 -0.042962894
0.06837404 -0.0442253 -0.050013803 0.08361804 0.032700405 -0.081925794 0.0770742 0.06390318
-0.0031356933 -0.099646516 -0.06907629 -0.0036627494 -0.03829885 0.079282336 -0.02933256 0.081004664
0.007443572 -0.008411698 -0.04012919 0.10576281 -0.099225774 -0.07269545 0.09519426 0.05578672
0.067892514 -0.027197625 -0.0011678989 0.018505888 0.071111456 -0.040687345 0.059490662 -0.04459316
0.011134561 -0.00033942162 0.06520376 -0.047119375 -0.020444708 0.09043098 0.05763606 -0.030160688
-0.01623357 0.10754373 0.07085618 -0.06482884 -0.03589851 0.02571829 0.03886201 -0.048802923
0.058014937 0.018135097 -0.05779064 -0.05024933 0.07277106 0.062466014 0.006303164 0.0021980796
0.042379566 -0.0052020084 0.031268556 0.01845024 -0.058894392 0.030380497 0.06973276 -0.049951676
0.030326968 0.030482722 0.052423198 0.06215276 -0.01401363 0.02145559 -0.037456643 -0.018916763
0.05488759 -0.027928578 0.03282977 -0.05186418 -0.06473244 0.026023041 0.07304925 -0.07190219
0.09787072 0.067905724 0.09900389 0.015932707 0.03515626 -0.07474239 0.051872317 -0.01970834
-0.0669011 -0.05833519 -0.0063896603 -0.026816681 -0.043913186 -0.066805 -0.050808907 -0.054822914
0.06618012 0.07683711 -0.0032299955 -0.012832418 0.005473493 0.04228003 -0.008621672 0.072532356
-0.07803676 0.10629487 0.084749684 0.06043903 0.00067118893 -0.051594764 -0.07230181 -0.07097237
0.025873272 0.021523166 -0.052546993 -0.0107349 -0.015924545 0.016684717 0.01264537 -0.060029615
0.038962163 0.018725906 -0.0033048324 0.04520174 0.01833677 -0.052217547 -0.022072148 -0.041693717
0.03659603 0.026863737 0.07880505 -0.040771585 0.019636277 0.07124225 -0.04373029 0.045015097
0.026944274 -0.019485986 -0.015276112 -0.019009484 -0.026829269 0.096019045 -0.05814076 0.023974817
-0.0041935137 0.007710407 -0.046713844 -0.055282265 0.092672646 -0.032935858 0.008355642 0.07075268
0.039945915 0.0040704813 0.031097235 0.023864232 -0.06843841 -0.063230455 0.05646842 0.060207635
0.0029609143 -0.064131156 0.09887106 -0.007298097 -0.027328348 -0.0007677093 -0.05166267 0.024330234
-0.06952309 -0.066803016 -0.01711115 0.005355488 0.0097431885 0.094527476 -0.042297404 0.045976844
-0.032905597 0.0009771086 -0.005582531 -0.05400728 0.048470136 -0.014654311 -0.07303119 0.01213404
0.031325888 0.031606745 -0.011513937 0.07699053 0.01734402 -0.059156347 0.08327068 -0.070727676
0.09124768 -0.0817098 0.051545918 0.061072223 -0.05804683 0.0034292354 0.06837364 -0.051146448
0.0977066 0.047240693 -0.017568603 0.054012783 0.039060824 0.10303974 0.008410044 -0.077840485
-0.03561372 0.017934995 0.06700909 -0.06410391 0.012183001 0.054968137 0.0035499136 -0.034832694
0.040203717 0.030596705 0.060053244 -0.066822276 -0.012601838 -0.06409492 -0.035611052 0.03216726
-0.0028367897 0.035866577 0.076498866 -0.105268195 -0.04723413 -0.08927271 -0.059331536 0.026448967
00000000: e681 383d 02d2 873b 60af 8cbc afcf 60bd
00000010: de5e 74bb cad5 8f3d fc92 43bc 5ee0 a83d
00000020: cce6 dd3b fa18 bbbd 3467 31bd 873a 393c
00000030: 6e95 623c b7c6 ac3d bc98 ed3c bb26 893c
00000040: ff7c 25b9 9edf 31bd f849 6e3d 725a a3bd
00000050: 47e1 f9bc 1b61 66bd f98d 2d3c dcf9 2fbd
00000060: b007 8c3d 9725 35bd 46db 4cbd ef3f ab3d
00000070: dcf0 053d b6c8 a7bd 14d9 9d3d acdf 823d
00000080: 3480 4dbb 7913 ccbd df77 8dbd bd0a 70bb
00000090: 41df 1cbd c75e a23d d64a f0bc c6e5 a53d
000000a0: 35e9 f33b 38d1 09bc 815e 24bd 2c9a d83d
000000b0: e236 cbbd 5ae1 94bd 35f5 c23d 9e80 643d
000000c0: 3b0b 8b3d 8ecd debc 2f14 99ba a999 973c
000000d0: e2a2 913d c6a7 26bd 7bac 733d 51a7 36bd
000000e0: bc6d 363c 66f4 b1b9 8d89 853d 3f00 41bd
000000f0: a97b a7bc e133 b93d ca13 6c3d 8c13 f7bc
00000100: 44fc 84bc e33f dc3d 0b1d 913d fcc4 84bd
00000110: 510a 13bd 2aaf d23c c52d 1f3d 93e5 47bd
00000120: 12a1 6d3d 0e90 943c e1b5 6cbd 3ed2 4dbd
00000130: fe08 953d 5ddc 7f3d c68a ce3b a80d 103b
00000140: 3296 2d3d 9c75 aabb 7513 003d f524 973c
00000150: 3f3b 71bd 85e0 f83c 0dd0 8e3d 219a 4cbd
00000160: 4370 f83c e7b6 f93c b5b9 563d e493 7e3d
00000170: 6d99 65bc a2c3 af3c 236c 19bd 54f7 9abc
00000180: cfd1 603d 79ca e4bc 8278 063d 896f 54bd
00000190: 7192 84bd 462e d53c d89a 953d 7541 93bd
000001a0: 7270 c83d 2812 8b3d 8dc2 ca3d 4f85 823c
000001b0: 0300 103d 8a12 99bd 1178 543d 6273 a1bc
000001c0: 7203 89bd e1f0 6ebd 5b60 d1bb a8ae dbbc
000001d0: 50de 33bd 0fd1 88bd 001d 50bd fe8d 60bd
000001e0: 7189 873d c65c 9d3d 55ae 53bb 103f 52bc
000001f0: fd5a b33b d32d 2d3d ea41 0dbc d88b 943d
00000200: bdd1 9fbd 20b1 d93d 3e91 ad3d eb8e 773d
00000210: baf2 2f3a 0855 53bd f912 94bd f659 91bd
00000220: 2ff4 d33c 5a51 b03c 843b 57bd 6fe1 2fbc
00000230: 3174 82bc 63ae 883c 872e 4f3c 9de1 75bd
00000240: ca96 1f3d 1267 993c e395 58bb 7625 393d
00000250: fe36 963c 11e2 55bd a6d0 b4bc 08c7 2abd
00000260: b8e5 153d 5711 dc3c 8b64 a13d 1b00 27bd
00000270: 42dc a03c 75e7 913d 881e 33bd c061 383d
00000280: 3dba dc3c 13a1 9fbc a848 7abc c7b9 9bbc
00000290: 0ec9 dbbc a2a5 c43d 0125 6ebd d666 c43c
000002a0: be69 89bb 95a7 fc3b 0457 3fbd a86f 62bd
000002b0: 28cb bd3d c0e7 06bd 1ae6 083c c8e6 903d
000002c0: 549e 233d ac61 853b a1bf fe3c ec7e c33c
000002d0: 7029 8cbd f87e 81bd 6e4b 673d 489c 763d
000002e0: e60b 423b 3257 83bd e97c ca3d e024 efbb
000002f0: b3df dfbc 1940 49ba 3c9c 53bd 3350 c73c
00000300: 1f62 8ebd 05d0 88bd af2c 8cbc 177d af3b
00000310: e5a1 1f3c 9f97 c13d 0b40 2dbd 3752 3c3d
00000320: 05c8 06bd 5312 803a aaed b6bb bd36 5dbd
00000330: 9f88 463d a318 70bc 6091 95bd dacd 463c
00000340: 934f 003d 1376 013d f4a4 3cbc 36ad 9d3d
00000350: 0c15 8e3c ed4d 72bd d189 aa3d acd9 90bd
00000360: 10e0 ba3d 7857 a7bd d021 533d de26 7a3d
00000370: 83c2 6dbd 06bd 603b 7b07 8c3d f07e 51bd
00000380: 661a c83d 757f 413d 08ec 8fbc 823c 5d3d
00000390: 3efe 1f3d 8006 d33d 48ca 093c d56a 9fbd
000003a0: b1df 11bd 69ec 923c 103c 893d e948 83bd
000003b0: 369b 473c 4526 613d aba5 683b baac 0ebd
000003c0: a7ac 243d f1a5 fa3c 64fa 753d 1eda 88bd
000003d0: f177 4ebc 3344 83bd e5dc 11bd d1c1 033d
000003e0: 6fe9 39bb d5e8 123d 70ab 9c3d da96 d7bd
000003f0: 9378 41bd 9cd4 b6bd a005 73bd 81ab d83c

fc3.weight f4 [32, 256]
-0.05743005 -0.03722189 0.001714236 -0.03743516 0.018543646 0.016039543 0.008299983 0.0005261526
0.06342705 0.065860696 -0.01898083 -0.07443822 0.08349932 -0.057950404 0.044409085 -0.032840073
0.026930396 -0.0053110872 -0.03591718 0.046725094 -0.031929396 0.044437487 0.05723187 0.029712943
-0.04375327 0.0018884668 -8.14728e-05 -0.0119484095 0.029654577 0.04263148 -0.02578474 -0.06590988
-0.06959875 -0.040055566 -0.0076068062 0.035631105 -0.038294323 -0.05076981 0.058002386 -0.07929671
0.05141165 -0.018549003 -0.040516425 0.02411237 0.03625469 -0.05120755 0.037055805 -0.024157219
0.094377555 0.05548471 -0.026452381 -0.03985358 -0.07574581 -0.041352037 0.014104676 -0.006249532
-0.0632686 -0.004301515 -0.027630575 -0.058730207 -0.008548197 -0.044731323 0.003152954 -0.029085113
-0.02273638 -0.013786762 -0.03684545 -0.014251385 0.08789309 0.012480438 -0.013012406 -0.061152145
0.03127875 -0.04715925 0.055593338 0.021791782 -0.062004533 -0.002705041 0.034662463 -0.0047130277
-0.016503194 0.08458267 -0.0026436022 0.020013675 0.03735254 -0.00041447303 0.022885157 0.0037321406
0.049157847 0.014718802 0.043359924 -0.027175106 -0.011629308 -0.009774309 -0.06755306 -0.029945629
0.025451748 -0.08051541 0.0018501556 0.009403395 -0.021687439 -0.008712065 -0.009481667 -0.0056877933
-0.07623537 -0.010666892 0.01214641 -0.095323004 -0.05865888 -0.048288733 -0.029328221 -0.007818569
0.03058715 0.062356595 0.012106674 0.02361277 -0.046638343 -0.05017837 0.08361378 0.08193577
0.013919567 -0.08753201 -0.07772422 0.03889717 -0.07012921 -0.0045831483 -0.018221054 0.06677163
0.0065955864 -0.085396774 -0.07232764 0.00057222194 -0.0086695915 -0.026471883 0.0075218417 -0.054643936
-0.028950693 -0.008029482 0.09991059 -0.056522507 0.016646154 0.010560148 -0.0069325636 -0.05141047
-0.009561211 -0.02366002 0.009502224 -0.005324837 -0.03151961 0.045884937 0.068106875 -0.07233995
-0.04184557 0.011327066 0.03531095 0.0033024505 -0.015912458 0.076158814 -0.03338462 0.03391273
-0.034177046 -0.006318933 -0.0045687757 -0.062712066 -0.012608788 0.058357846 0.07839186 -0.025249029
-0.057192337 -0.060709644 0.026221702 -0.04678921 0.030344468 0.010324327 -0.017477423 -0.02399088
-0.022352714 0.029106298 -0.032076724 -0.011942234 0.055231463 0.03105989 -0.008272144 -0.028123267
0.06651629 0.055569902 -0.037382293 0.020943535 0.03847669 -0.00090329495 0.018649857 -0.0062747095
-0.046038013 0.019953616 0.020511126 0.06965876 0.031091401 -0.088691995 0.0014953093 0.018977968
-0.040587902 0.029265303 -0.007815752 -0.004685242 -0.07069824 -0.021416362 -0.0052473596 0.027258601
-0.06804117 0.010011938 0.021093728 0.10794207 0.023201382 0.012924948 -0.05895976 -0.034308594
-0.0023498368 0.027863601 -0.028486425 -0.06048006 0.0920807 -0.0028372887 -0.04748133 -0.04952326
-0.0069532427 -0.030267738 0.006099505 -0.022646897 0.03828312 -0.07055475 0.07691599 0.0063642375
0.015515017 0.06766036 -0.021708144 0.008632023 0.10212287 0.07696122 -0.03322127 0.008258618
0.013693218 -0.013448022 0.012777997 0.073467515 0.009475363 0.0776175 0.010791535 0.012468761
0.018749714 -0.025552591 -0.024450958 0.05803122 0.03187522 0.07431139 0.045683227 -0.037622515
00000000: c63b 6bbd fb75 18bd 37b0 e03a 9c55 19bd
00000010: d8e8 973c 5c65 833c a7fc 073c 81ed 093a
00000020: 0be6 813d f9e1 863d b07d 9bbc 1173 98bd
00000030: b101 ab3d 675d 6dbd 4de6 353d 5083 06bd
00000040: 229d dc3c a108 aebb e51d 13bd d062 3f3d
00000050: 66c8 02bd 1504 363d f76b 6a3d 8f68 f33c
00000060: a136 33bd 6e86 f73a 60dc aab8 43c3 43bc
00000070: 28ee f23c 599e 2e3d 853a d3bc c2fb 86bd
00000080: ca89 8ebd 4e11 24bd 8442 f9bb ecf1 113d
00000090: 82da 1cbd 01f4 4fbd e993 6d3d 5066 a2bd
000000a0: 0695 523d 14f4 97bc 8df4 25bd 4e87 c53c
000000b0: cc7f 143d 02bf 51bd d4c7 173d 5ce5 c5bc
000000c0: 0549 c13d ef43 633d aab2 d8bc 823d 23bd
000000d0: 9f20 9bbd c160 29bd 4d17 673c e0c8 ccbb
000000e0: f892 81bd b9f3 8cbb 8459 e2bc 168f 70bd
000000f0: bd0d 0cbc 3138 37bd caa1 4e3b e743 eebc
00000100: a541 babc dfe1 61bc 41eb 16bd a47e 69bc
00000110: 4b01 b43d c07a 4c3c fd31 55bc ac7a 7abd
00000120: 261e 003d 0f2a 41bd d7b5 633d ae84 b23c
00000130: 77f8 7dbd 0f47 31bb 3afa 0d3d be6f 9abb
00000140: b531 87bc ae39 ad3d 4940 2dbb b8f3 a33c
00000150: fafe 183d a14d d9b9 a779 bb3c ee96 743b
00000160: bd59 493d 2127 713c 2d9a 313d 549e debc
00000170: da88 3ebc 6c24 20bc 4259 8abd 8950 f5bc
00000180: 2f80 d03c 43e5 a4bd ec80 f23a b210 1a3c
00000190: dba9 b1bc 0dbd 0ebc fe58 1bbc ab60 babb
000001a0: 4a21 9cbd 30c4 2ebc bc01 473c b538 c3bd
000001b0: 4b44 70bd 68ca 45bd bd41 f0bc 7519 00bc
000001c0: e791 fa3c a169 7f3d 125b 463c 916f c13c
000001d0: d907 3fbd d687 4dbd b43d ab3d f1cd a73d
000001e0: e50e 643c fc43 b3bd e02d 9fbd a452 1f3d
000001f0: e79f 8fbd 3c2e 96bb 5244 95bc 90bf 883d
00000200: ca1f d83b 81e4 aebd 8420 94bd 2a01 163a
00000210: e70a 0ebc 90db d8bc c879 f63b 52d2 5fbd
00000220: 012a edbc 178e 03bc ec9d cc3d 2584 67bd
00000230: 845d 883c 7904 2d3c 8f2a e3bb c993 52bd
00000240: a0a6 1cbc a9d2 c1bc 37af 1b3c f87b aebb
00000250: b51a 01bd d8f1 3b3d 9e7b 8b3d f826 94bd
00000260: 4366 2bbd 2995 393c 37a2 103d ed6d 583b
00000270: d85a 82bc 27f9 9b3d 50be 08bd 13e8 0a3d
00000280: 3bfd 0bbd 0d0f cfbb abb5 95bb 2f6f 80bd
00000290: 1795 4ebc a308 6f3d e98b a03d 0dd7 cebc
000002a0: 8342 6abd adaa 78bd e5ce d63c 0ba6 3fbd
000002b0: f694 f83c 5e27 293c d02c 8fbc 8688 c4bc
000002c0: 0a1d b7bc 5570 ee3c e262 03bd 5ca9 43bc
000002d0: 633a 623d 4f71 fe3c e387 07bc c462 e6bc
000002e0: b139 883d 449d 633d 2d1e 19bd c791 ab3c
000002f0: bc99 1d3d 19cb 6cba 96c7 983c 149c cdbb
00000300: 5b92 3cbd c475 a33c f306 a83c 41a9 8e3d
00000310: 65b3 fe3c 26a4 b5bd 41fe c33a af77 9b3c
00000320: 803f 26bd cabd ef3c a40d 00bc a986 99bb
00000330: 3dca 90bd 5e71 afbc 0bf2 abbb 6e4d df3c
00000340: 2b59 8bbd 1d09 243c c1cc ac3c bb10 dd3d
00000350: d310 be3c 29c3 533c ca7f 71bd 2b87 0cbd
00000360: b8ff 19bb 3542 e43c 5d5c e9bc f0b9 77bd
00000370: ce94 bc3d cef1 39bb c87b 42bd e7d8 4abd
00000380: 07d8 e3bb 0cf4 f7bc 5bde c73b fc85 b9bc
00000390: c3ce 1c3d 027f 90bd 2186 9d3d 188b d03b
000003a0: b332 7e3c 8491 8a3d 47d5 b1bc 546d 0d3c
000003b0: cc25 d13d d89d 9d3d 0713 08bd 284f 073c
000003c0: 8559 603c 1855 5cbc ce5a 513c 2376 963d
000003d0: 8e3e 1b3c edf5 9e3d face 303c c649 4c3c
000003e0: 0099 993c ab53 d1bc 604d c8bc 25b2 6d3d
000003f0: 978f 023d 9230 983d 561e 3b3d 111a 1abd

fc3.bias f4 [32]
0.016900023 -0.03212225 0.048434854 0.056186676 -0.038262352 -0.013667163 0.026061714 0.007328861
0.0058219866 -0.05720359 0.06672897 -0.02828358 0.05598103 -0.048415344 0.012779636 -0.026748689
0.041526634 0.035957158 -0.03900098 0.03175166 -0.053997304 -0.046520345 0.018219834 -0.029092094
0.028435169 0.052161008 -0.0074791913 0.01428752 0.0011469183 0.0775009 0.04558602 0.019249327
00000000: eb71 8a3c 9f92 03bd a063 463d 0024 663d
00000010: fcb8 1cbd 3dec 5fbc 607f d53c f126 f03b
00000020: 5dc6 be3b 504e 6abd 33a9 883d f7b2 e7bc
00000030: 5d4c 653d 2b4f 46bd ae61 513c 1120 dbbc
00000040: d517 2a3d d047 133d 7ebf 1fbd 070e 023d
00000050: 472c 5dbd 1e8c 3ebd c341 953c 8b52 eebc
00000060: dff0 e83c c8a6 553d 0114 f5bb 3416 6a3c
00000070: 3154 963a cbb8 9e3d 68b8 3a3d c4b0 9d3c

output.weight f4 [1, 32]
0.11435544 -0.15709409 -0.09742881 0.20606844 -0.11825568 0.17410992 -0.083436035 -0.064948946
0.06867025 0.16942102 -0.06423047 -0.18845429 0.20694488 0.12043852 0.14381285 -0.12711126
-0.19647579 0.18647777 0.06576571 -0.043690998 0.17359696 0.12529463 0.09865951 -0.10422059
-0.11297473 0.06979319 -0.10379468 -0.21249017 0.20057026 -0.0525975 -0.21003442 -0.14185786
00000000: 2f33 ea3d 46dd 20be c288 c7bd 9b03 533e
00000010: 0930 f2bd df49 323e 83e0 aabd f403 85bd
00000020: fda2 8c3d b47c 2d3e 448b 83bd 29fa 40be
00000030: 5ce9 533e 79a8 f63d ad43 133e 7429 02be
00000040: f330 49be 07f4 3e3e 2cb0 863d 55f5 32bd
00000050: 67c3 313e 3c4d 003e ff0d ca3d 9b71 d5bd
00000060: 4c5f e7bd bbef 8e3d 4e92 d4bd 0697 59be
00000070: 4a62 4d3e 7a70 57bd 4313 57be 3043 11be
