result/occur/887/1000/Train_887_under_1000_256_256_32_0.0004_128_4_0.pth (torch, 309423 bytes, 7 tensors)

fc1.weight f4 [256, 9]
0.17731853 -0.13733529 -0.06606594 0.17984676 -0.30210236 0.22489005 -0.08635975 0.18209653
0.075118534 -0.01014175 0.11581665 -0.0094980765 0.12822498 -0.1058903 -0.032003526 0.018206848
0.06966181 -0.01740678 0.32157362 0.11946963 -0.14312889 -0.19468813 -0.032046013 -0.13730691
-0.0580205 0.039117403 0.18393473 0.16201632 -0.33500457 0.21729529 0.098345585 0.30603626
0.23633541 -0.34536067 -0.32545292 -0.14234537 0.33032584 -0.040377855 0.14357182 -0.13034198
0.36140212 -0.12650453 0.30628163 0.03501583 -0.17114516 0.14862552 -0.20060693 0.11873541
-0.09860893 -0.053672526 -0.31515285 -0.2067938 0.16514213 -0.06718916 0.36630842 0.29954928
-0.014590848 -0.19892308 0.23455554 0.09693842 -0.16819878 0.2469855 0.21394847 0.30892193
-0.18153872 -0.06831725 -0.014125083 0.055801194 -0.2693352 -0.20167331 0.1859289 -0.102470644
0.20270348 0.03300416 0.11134971 0.09805003 0.15756519 0.1554108 -0.25110322 0.20163742
-0.23130074 -0.2830776 -0.005025816 -0.036881726 0.18321876 -0.21892175 -0.28760904 0.19118999
-0.07045784 0.1924303 0.08443284 -0.27169466 0.09554372 0.09168075 -0.23452927 -0.13949405
0.06166717 0.047890563 -0.11015578 -0.077103935 0.325263 -0.08596186 0.18311682 0.15953116
-0.23076525 -0.23697607 0.3325056 -0.008647001 0.259401 0.09259291 0.083573535 0.2608132
0.34173062 -0.22155793 0.08900263 0.2719754 0.23459823 0.24305075 -0.23188436 -0.25859183
-0.18535723 0.07305711 0.3273371 -0.1560797 0.20588785 -0.19110449 -0.32704252 -0.091847695
0.22057617 0.3234866 -0.21104082 0.0938115 0.23819868 0.21860228 0.23847291 0.25730076
0.24274161 0.062075082 -0.22529085 -0.26644647 -0.15741675 0.0031220247 -0.1903541 0.11451124
0.123844914 -0.058786627 0.11511078 0.12651633 0.22387223 0.2381259 -0.08745598 0.34436393
-0.025700692 -0.035375845 -0.32984763 -0.1897264 -0.19846737 -0.16029593 0.25150153 -0.15606456
-0.2607394 0.14252715 0.14135154 0.2433546 -0.20111173 0.09313308 -0.0907939 -0.06295435
-0.2174668 -0.1247423 -0.09742064 0.17184857 0.08410004 0.0633758 0.3452104 0.34968948
0.22790559 0.05172586 -0.20760754 0.25571257 -0.10967515 -0.038314063 -0.26746354 -0.079994075
-0.23789842 0.2942419 -0.3225342 -0.28208056 -0.011942781 -0.15137057 0.14258312 -0.15577692
-0.14074841 0.044366863 0.25339624 -0.19541666 0.18079394 0.21672726 0.34728584 -0.2326983
0.080003984 -0.23843187 0.30231053 -0.12618692 0.23890428 0.025430638 -0.032380447 0.020752344
0.08014107 0.13954665 0.065156244 0.12773293 -0.31367478 0.28915334 0.31383947 0.26788503
0.25535768 -0.22363798 -0.13556938 0.3127145 -0.24149866 0.3182863 -0.269327 -0.2213247
0.18456213 -0.21356031 -0.054130916 0.22050576 0.27880824 0.33841968 -0.06098697 -0.22516909
0.3497847 -0.07083066 -0.10286921 0.09834665 -0.2613659 0.24447994 0.2406414 -0.25345773
-0.22852018 -0.00043997815 0.15222181 -0.04270608 -0.18709186 0.030119125 -0.32500342 -0.26325735
-0.22044824 0.2311939 0.2679576 -0.10486125 0.03755716 0.16254687 0.02839428 -0.16148953
00000000: fd92 353e 9fa1 0cbe 944d 87bd c029 383e
00000010: 29ad 9abe 9449 663e 61dd b0bd 8377 3a3e
00000020: bfd7 993d 9529 26bc 4831 ed3d d29d 1bbc
00000030: 694d 033e 03dd d8bd 2116 03bd 8726 953c
00000040: daaa 8e3d aa98 8ebc 4ca5 a43e 7eac f43d
00000050: 6190 12be 535c 47be ae42 03bd 2f9a 0cbe
00000060: e7a6 6dbd 9239 203d 6359 3c3e 9be7 253e
00000070: b885 abbe a882 5e3e 6969 c93d c9b0 9c3e
00000080: e901 723e 1dd3 b0be c4a1 a6be fcc2 11be
00000090: 7820 a93e 4063 25bd 7e04 133e 5e78 05be
000000a0: b309 b93e 678a 01be f2d0 9c3e c26c 0f3d
000000b0: ad40 2fbe 4a31 183e e76b 4dbe 8d2b f33d
000000c0: 7bf3 c9bd b9d7 5bbd b75b a1be c1c1 53be
000000d0: 051b 293e 789a 89bd c78c bb3e 865e 993e
000000e0: 740e 6fbc 7eb2 4bbe 542f 703e a687 c63d
000000f0: 4d3c 2cbe c4e9 7c3e 4f15 5b3e 042b 9e3e
00000100: 49e5 39be eae9 8bbd e46c 67bc cb8f 643d
00000110: 4ee6 89be 7383 4ebe 2564 3e3e 21dc d1bd
00000120: 8091 4f3e 5f2f 073d 510b e43d 74ce c83d
00000130: c558 213e 0224 1f3e 9a90 80be 0a7a 4e3e
00000140: 1ada 6cbe 8cef 90be 9aaf a4bb 4b11 17bd
00000150: b39d 3b3e 062d 60be 7e41 93be 4fc7 433e
00000160: 334c 90bd 730c 453e 20eb ac3d 901b 8bbe
00000170: 6dac c33d 1ec3 bb3d 7128 70be 87d7 0ebe
00000180: b796 7c3d e528 443d 5b99 e1bd abe8 9dbd
00000190: df88 a63e c60c b0bd fa82 3b3e 235c 233e
000001a0: ba4d 6cbe dba9 72be 2d3e aa3e 27ac 0dbc
000001b0: 35d0 843e 5aa1 bd3d 9a28 ab3d 4f89 853e
000001c0: 51f7 ae3e 15e0 62be 0347 b63d 5c40 8b3e
000001d0: 853a 703e 4ce2 783e 1873 6dbe 2666 84be
000001e0: 49ce 3dbe f79e 953d ba98 a73e 5bd3 1fbe
000001f0: 44d4 523e e5b0 43be 1e72 a7be a51a bcbd
00000200: b8de 613e 09a0 a53e 161b 58be 3e20 c03d
00000210: 5bea 733e 47d9 5f3e 3e32 743e edbc 833e
00000220: 4291 783e 7142 7e3d a5b2 66be ac6b 88be
00000230: db31 21be e29a 4c3b 2fec 42be de84 ea3d
00000240: 67a2 fd3d 3fca 70bd 33bf eb3d 7f8d 013e
00000250: c33e 653e 47d7 733e 1f1c b3bd 7850 b03e
00000260: 428a d2bc 43e6 10bd cae1 a8be a347 42be
00000270: 083b 4bbe 9e24 24be cfc4 803e 63cf 1fbe
00000280: a27f 85be a3f2 113e 75be 103e f331 793e
00000290: 3cf0 4dbe 8ebc be3d 27f2 b9bd 36ee 80bd
000002a0: 9eaf 5ebe e478 ffbd 7984 c7bd 12f9 2f3e
000002b0: a43c ac3d 2ccb 813d 6bbf b03e 800a b33e
000002c0: 1560 693e 7fde 533d 1297 54be c2ec 823e
000002d0: 5d9d e0bd 35ef 1cbd fbf0 88be efd3 a3bd
000002e0: a59b 73be e0a6 963e 3423 a5be dd6c 90be
000002f0: a7ab 43bc e300 1bbe 4f01 123e fc83 1fbe
00000300: 5a20 10be 07ba 353d 27bd 813e 4e1b 48be
00000310: 0c22 393e c0ed 5d3e 73cf b13e 7748 6ebe
00000320: 21d9 a33d 7c27 74be 72c8 9a3e 2537 01be
00000330: 53a3 743e ea53 d03c 5ca1 04bd d200 aa3c
00000340: 0021 a43d 51e5 0e3e a370 853d 6ccc 023e
00000350: fb99 a0be e80b 943e 91af a03e 3a28 893e
00000360: 3ebe 823e 5b01 65be b3d2 0abe 1d1c a03e
00000370: 6d4b 77be 6cf6 a23e 3be5 89be f1a2 62be
00000380: dbfd 3c3e 8eaf 5abe 61b8 5dbd 43cc 613e
00000390: f4bf 8e3e 5845 ad3e 79cd 79bd ba92 66be
000003a0: fb16 b33e aa0f 91bd 18ad d2bd f869 c93d
000003b0: c0d1 85be f358 7a3e b36a 763e 36c5 81be
000003c0: 3201 6abe deac e6b9 09e0 1b3e 92ec 2ebd
000003d0: 0295 3fbe 62bc f63c d966 a6be abc9 86be
000003e0: 2fbd 61be 18be 6c3e bd31 893e 7fc1 d6bd
000003f0: 89d5 193d b072 263e 1f9b e83c 835d 25be

fc1.bias f4 [256]
-0.011362238 0.16156065 0.24075319 0.006440666 -0.15286651 -0.264341 -0.22672153 0.26393688
-0.26208058 -0.14839683 0.18147059 0.18207403 -0.2762547 0.08690153 0.050893813 0.31079626
0.0074058915 0.13297917 -0.005639067 0.31323227 -0.05048259 -0.17683025 0.07220133 -0.16143428
0.10157921 0.24899384 -0.23248768 -0.25846988 0.01296116 -0.0016860183 -0.09463228 0.3007831
0.17220213 -0.12896766 0.046138667 -0.037063874 -0.21422215 0.12333252 -0.235545 0.055530462
0.22951049 -0.2808151 0.030345187 0.3146868 0.15400694 -0.10464627 0.05673232 -0.31828174
0.09078871 0.3061283 0.30352598 0.023532625 0.12394501 -0.034573767 -0.10653001 -0.010543015
-0.2065204 0.11372445 0.17874709 -0.059156355 -0.06164819 -0.19066967 0.030009367 0.13873
0.33016518 -0.2968148 -0.26765472 0.011667988 0.32024318 0.032133996 0.07941976 0.058986686
-0.05012171 0.23868988 0.2426756 -0.18688558 -0.21285602 -0.27450383 -0.050030034 0.012165414
0.29172933 -0.33185917 0.24289559 -0.17274168 0.016253399 -0.004205145 0.20490125 -0.2825585
-0.2222057 0.037366115 0.18340893 -0.1389285 0.123042375 -0.086436145 -0.32421786 0.046431735
-0.09338386 0.18939374 0.23087096 0.2373653 0.18654007 -0.2505533 -0.33129078 0.046456918
0.104223706 -0.2374824 0.28705257 -0.026353415 -0.20914401 0.22172987 0.29729775 0.082527645
-0.088606864 0.01801363 -0.22394106 0.22109331 0.22281866 -0.059334554 -0.24498104 0.25723183
-0.264696 -0.18751378 0.20905083 -0.15100941 0.07700411 0.27637827 -0.023494376 -0.0861078
0.31123248 0.08592849 0.11490568 -0.098934405 -0.27045652 0.055429187 -0.21554998 -0.14861804
-0.26985464 0.3122074 -0.21386705 0.10311497 0.095642574 0.24388556 0.19845547 -0.21374558
0.16451004 -0.15192598 0.017556751 -0.13112575 -0.265919 0.10659623 -0.2236538 0.3416416
0.13674343 -0.12681161 -0.21081276 -0.31996056 -0.16598079 -0.19597343 0.04410875 0.09184192
0.3147935 0.051053036 -0.04528691 -0.13687408 -0.0314724 0.1848459 -0.33755675 -0.3052674
0.15030222 -0.0861476 -0.080253854 -0.2253483 -0.19579986 -0.27423933 -0.19954793 -0.2907912
-0.14089875 0.28036332 -0.17202225 0.26165363 -0.26539585 0.0416459 -0.0070945877 -0.23673902
0.027744396 0.29217514 -0.14083116 0.3141237 -0.050425183 -0.08557253 0.15580122 0.2734121
0.30597985 0.203664 -0.27713013 -0.044101834 0.05450232 -0.1437999 0.17131726 -0.058682933
-0.26019382 -0.12193389 -0.2259277 0.15201417 -0.26291874 -0.07537521 0.0647145 0.1297494
-0.24065597 0.22808617 -0.2310112 -0.24560934 0.150337 -0.21423288 0.22713067 0.154157
-0.17826836 -0.0708938 -0.13736975 -0.025624285 0.0086922515 0.004003966 -0.19939063 -0.2568551
-0.21559523 0.03903499 0.04785589 -0.18924601 -0.053568494 -0.005988635 0.24878804 -0.28104907
-0.1561912 -0.019129109 -0.04890123 -0.16784808 0.18803184 -0.10799897 0.045774914 -0.17677052
0.3521291 -0.20634349 -0.07992143 0.24888118 0.19087254 -0.2831984 0.21212928 -0.15238237
-0.042431626 0.15344746 0.02893899 0.26941112 -0.13965167 -0.24609564 0.010887501 0.13161165
00000000: ae28 3abc 2870 253e 0188 763e 390c d33b
00000010: 0a89 1cbe b457 87be b029 68be bc22 873e
00000020: 6d2f 86be 57f5 17be 6dd3 393e 9d71 3a3e
00000030: 4271 8dbe 6ef9 b13d 0876 503d b020 9f3e
00000040: 1fad f23b b12b 083e ecc7 b8bb fb5f a03e
00000050: d5c6 4ebd fd12 35be 4ade 933d 074f 25be
00000060: c308 d03d 3ef8 7e3e 4011 6ebe 2a56 84be
00000070: 0c5b 543c 63fd dcba 92ce c1bd 3e00 9a3e
00000080: c155 303e 1910 04be e6fb 3c3d 4ad0 17bd
00000090: 0d5d 5bbe c395 fc3d b532 71be e973 633d
000000a0: cc04 6b3e ffc6 8fbe 7896 f83c a11e a13e
000000b0: ffb3 1d3e c950 d6bd 2660 683d d3f5 a2be
000000c0: 6eef b93d d9bc 9c3e c267 9b3e 7ec7 c03c
000000d0: e2d6 fd3d 399d 0dbd 682c dabd 9cbc 2cbc
000000e0: 157a 53be 5de8 e83d 7a09 373e ef4d 72bd
000000f0: d082 7cbd e93e 43be 34d6 f53c 3d0f 0e3e
00000100: 690b a93e 1cf8 97be 0a0a 89be 172b 3f3c
00000110: eaf6 a33e f09e 033d d4a6 a23d 069c 713d
00000120: 6c4c 4dbd 1f6b 743e f47f 783e ef5e 3fbe
00000130: eef6 59be c48b 8cbe 4bec 4cbd 7251 473c
00000140: 8c5d 953e 72e9 a9be 9fb9 783e 32e3 30be
00000150: d925 853c 50cb 89bb a2d1 513e 82ab 90be
00000160: e489 63be 360d 193d 8dcf 3b3e 4643 0ebe
00000170: a4fd fb3d 6f05 b1bd e2ff a5be 342f 3e3d
00000180: 0a40 bfbd 6ff0 413e 7069 6c3e e40f 733e
00000190: 5c04 3f3e 8648 80be f29e a9be 9c49 3e3d
000001a0: 3d73 d53d 962e 73be 8ef8 923e 1ee3 d7bc
000001b0: d929 56be 280d 633e 6937 983e 4104 a93d
000001c0: 8477 b5bd 5291 933c ce50 65be 4966 623e
000001d0: 932a 643e ca08 73bd 4fdc 7abe e4b3 833e
000001e0: 3c86 87be 9d03 40be 6c11 563e 36a2 1abe
000001f0: 55b4 9d3d 7481 8d3e 4777 c0bc 4959 b0bd
00000200: dd59 9f3e 47fb af3d ab53 eb3d 1f9e cabd
00000210: 4779 8abe b709 633d 22b9 5cbe 542f 18be
00000220: 632a 8abe a6d9 9f3e f7ff 5abe f12d d33d
00000230: 41e0 c33d 23bd 793e e937 4b3e 1fe0 5abe
00000240: 5275 283e 7c92 1bbe 2dd3 8f3c d445 06be
00000250: 8926 88be 204f da3d 8005 65be a6eb ae3e
00000260: 7806 0c3e e7da 01be 4ddf 57be dfd1 a3be
00000270: def6 29be 42ad 48be 60ab 343d 9e17 bc3d
00000280: 9d2c a13e fd1c 513d c47e 39bd b828 0cbe
00000290: 34e9 00bd 3e48 3d3e 3dd4 acbe 024c 9cbe
000002a0: d3e8 193e 276e b0bd 225c a4bd b4c1 66be
000002b0: c27f 48be 1969 8cbe 4b56 4cbe 96e2 94be
000002c0: c347 10be c88b 8f3e 9a26 30be 77f7 853e
000002d0: f7e1 87be e494 2a3d b779 e8bb b76b 72be
000002e0: 3748 e33c fb97 953e 0b36 10be d2d4 a03e
000002f0: a38a 4ebd a740 afbd 5b8a 1f3e acfc 8b3e
00000300: 64a9 9c3e 4c8d 503e 00e4 8dbe 20a4 34bd
00000310: d33d 5f3d 4840 13be cb6d 2f3e 845d 70bd
00000320: 2038 85be 7ab8 f9bd 9759 67be 9aa9 1b3e
00000330: 499d 86be 515e 9abd 0989 843d 07dd 043e
00000340: 856e 76be 6c8f 693e 338e 6cbe 0481 7bbe
00000350: f1f1 193e dd5f 5bbe f194 683e 55db 1d3e
00000360: fb8b 36be c530 91bd a8aa 0cbe 05ea d1bc
00000370: f269 0e3c b433 833b 0f2d 4cbe 8382 83be
00000380: ffc4 5cbe 27e3 1f3d 8a04 443d b5c9 41be
00000390: a36a 5bbd 503c c4bb 4bc2 7e3e aae5 8fbe
000003a0: 96f0 1fbe a6b4 9cbc a84c 48bd 5ee0 2bbe
000003b0: 6b8b 403e 902e ddbd 7a7e 3b3d 5503 35be
000003c0: 444a b43e b54b 53be d9ad a3bd b5da 7e3e
000003d0: 1774 433e 61ff 90be 6b38 593e 200a 1cbe
000003e0: c9cc 2dbd 5521 1d3e 7611 ed3c 41f0 893e
000003f0: d900 0fbe 7f00 7cbe 7d61 323c 34c5 063e

fc2.weight f4 [256, 256]
0.053616416 -0.0454364 -0.02817755 -0.018345736 -0.08965513 -0.033990044 -0.06867058 -0.05352801
-0.0016259628 0.013142576 0.054744773 0.030311098 -0.06453974 -0.010220796 0.04413873 -0.067398705
-0.028657606 0.07192243 -0.06808412 0.04486241 0.019178964 0.0059162835 0.036026426 -0.071513176
0.0595065 -0.06264936 0.009551684 0.008192144 0.040503133 0.01621009 -0.0776276 0.004952644
0.01073985 0.0010646215 -0.06549373 0.018798832 -0.0069899396 0.027240233 0.03464259 -0.024324704
0.024119226 0.01869682 -0.004140538 -0.0015613283 0.021372901 -0.019842448 -0.023187758 0.059448972
-0.03938587 -0.06513593 0.0047050393 0.036747087 -0.041701987 0.013946545 -0.060728095 -0.016469935
0.05001653 -0.040071793 -0.044571515 0.01585342 -0.019607592 -0.048953213 0.054110628 -0.015126138
-0.027916776 0.066720605 -0.0011946539 -0.05626796 0.023234226 -0.045223247 0.06726516 0.04518164
0.02258886 -0.0051215147 -0.049715754 -0.066976115 -0.03072026 0.02661107 0.006211776 -0.025862295
-0.04322099 -0.008558525 -0.04812473 -0.051569708 0.02108873 -0.029059332 0.052951492 0.048464343
-0.029957894 -0.038227998 -0.023267236 -0.06465732 0.009252407 -0.027572008 0.01965756 0.0048391293
-0.04571232 -0.055172965 0.04306169 0.022594089 0.05441597 0.00934698 0.05174394 0.026640201
0.042375464 0.041053288 0.015999807 0.037702605 0.03646008 -0.06228966 0.025459263 0.035366505
-0.019055808 -0.05039478 -0.026409445 -0.01628091 0.0542893 -0.03140704 -0.015648639 0.0030290212
0.010497601 0.0294889 0.06349644 -0.080812015 0.027455749 -0.0133844325 0.03939079 -0.0063284882
0.05298796 -0.039704066 0.013854914 -0.027212456 0.035305258 -0.0808702 0.04397235 0.025943022
0.05423411 0.015698064 0.013283402 -0.008222997 -0.018074458 -0.08033521 0.0242421 -0.050026108
0.049005307 0.0855393 -0.026542539 0.028827595 0.037399188 0.06281773 0.027139375 -0.052525967
-0.008737069 -0.069750115 0.019550584 -0.047218554 0.026380766 0.04946879 -0.069916025 -0.02433662
-0.04278596 0.040239997 0.020209853 0.025687596 -0.0581245 -0.009200572 0.057805274 0.015570565
-0.028595993 -0.042125653 0.023932535 0.03216282 -0.015645212 0.034667943 -0.011479985 -0.07718253
-0.036019918 0.038628567 -0.061828937 -0.057248764 0.035051603 0.0027446817 0.010868571 -0.0038873074
-0.07933228 -0.034909084 0.06837783 0.03465813 0.046041936 0.028800767 0.03194585 -0.0432537
-0.03640367 -0.030266117 -0.023164526 0.02757047 -0.026292508 -0.008721572 0.044208135 -0.048147473
0.009562992 -0.025727443 -0.015607769 -0.07902551 0.061543655 -0.062018532 -0.072970204 0.062176127
0.014321142 0.06653536 0.029884214 -0.07509295 -0.06442177 0.05937783 -0.07361749 0.039679673
-0.0021171432 0.002022362 0.02078288 -0.0022706788 0.010142907 0.006093593 -0.030280767 0.040340535
0.070999905 0.012133521 -0.077608205 -0.0425593 0.054568604 0.040846035 -0.007699332 -0.023824193
-0.030649446 0.02603348 -0.042758267 -0.04334561 0.058354937 0.08314185 -0.037229642 -0.07445966
-0.0069462494 0.020974422 -0.02688219 -0.04357395 0.035761006 0.0076552485 0.02277573 0.011579277
0.037762515 -0.04363433 -0.0056090946 -0.046945564 -0.032429747 -0.04463643 0.031400274 -0.03506723
00000000: e39c 5b3d 851b 3abd 9bd4 e6bc cc49 96bc
00000010: 1c9d b7bd 2539 0bbd 29a3 8cbd 3040 5bbd
00000020: 421e d5ba f653 573c 0e3c 603d fb4e f83c
00000030: 692d 84bd 2075 27bc d0ca 343d 5508 8abd
00000040: 5bc3 eabc 114c 933d b06f 8bbd a5c1 373d
00000050: 341d 9d3c 62dd c13b 7290 133d 8075 92bd
00000060: 16bd 733d 4f4e 80bd ab7e 1c3c 5838 063c
00000070: 9de6 253d 06cb 843c 38fb 9ebd ca49 a23b
00000080: 32f6 2f3c c58a 8b3a 9421 86bd 0200 9a3c
00000090: dd0b e5bb e926 df3c 63e5 0d3d 9a44 c7bc
000000a0: af95 c53c 132a 993c 5aad 87bb 7ca5 ccba
000000b0: 3916 af3c a18c a2bc 41f4 bdbc c480 733d
000000c0: 1453 21bd fd65 85bd bb2c 9a3b 1d84 163d
000000d0: b4cf 2abd 0d80 643c 06be 78bd f5eb 86bc
000000e0: 22de 4c3d 5222 24bd 9f90 36bd 08df 813c
000000f0: 1aa0 a0bc 2a83 48bd 1ba3 5d3d 9fd3 77bc
00000100: b9b1 e4bc d0a4 883d ef95 9cba 3c79 66bd
00000110: b455 be3c 033c 39bd 51c2 893d 6210 393d
00000120: 460c b93c 61d2 a7bb bfa2 4bbd c62a 89bd
00000130: 0ea9 fbbc 75ff d93c 278c cb3b 2add d3bc
00000140: 7e08 31bd 0e39 0cbc 701e 45bd c23a 53bd
00000150: 46c2 ac3c d60d eebc aae3 583d 8c82 463d
00000160: 426a f5bc f694 1cbd ee9a bebc 0f6b 84bd
00000170: 6897 173c b1de e1bc e408 a13c 8f91 9e3b
00000180: d73c 3bbd 0cfd 61bd 7461 303d 3d17 b93c
00000190: 48e3 5e3d 1324 193c 74f1 533d 8d3c da3c
000001a0: e591 2d3d 7e27 283d 0712 833c 0c6e 1a3d
000001b0: 2a57 153d 7123 7fbd f28f d03c 78dc 103d
000001c0: ed1a 9cbc c26a 4ebd 9f58 d8bc 8b5f 85bc
000001d0: 755e 5e3d aba4 00bd 9331 80bc 8b82 463b
000001e0: 21fe 2b3c b592 f13c 6c0a 823d c580 a5bd
000001f0: e1ea e03c 614a 5bbc 3d58 213d 355f cfbb
00000200: e709 593d bba0 22bd b9ff 623c a8ec debc
00000210: 3f9c 103d 479f a5bd 5a1c 343d 7686 d43c
00000220: 9624 5e3d 3a99 803c a0a2 593c c0b9 06bc
00000230: e310 94bc c986 a4bd 5e97 c63c 2de8 4cbd
00000240: cab9 483d 3b2f af3d bd6f d9bc d927 ec3c
00000250: e42f 193d 95a6 803d 6553 de3c 7825 57bd
00000260: ec25 0fbc 26d9 8ebd 8c28 a03c 3e68 41bd
00000270: 7a1c d83c c99f 4a3d 2230 8fbd 975d c7bc
00000280: 5540 2fbd b2d2 243d 228f a53c cb6e d23c
00000290: f513 6ebd ffbd 16bc 39c5 6c3d af1b 7f3c
000002a0: 2542 eabc f38b 2cbd 2a0e c43c 29bd 033d
000002b0: 632a 80bc f9ff 0d3d 8c16 3cbc e011 9ebd
000002c0: 9f89 13bd fd38 1e3d 5740 7dbd ae7d 6abd
000002d0: 4592 0f3d 1ee0 333b 1712 323c 32c2 7ebb
000002e0: f678 a2bd d4fc 0ebd ad09 8c3d aff5 0d3d
000002f0: 7896 3c3d 96ef eb3c a7d9 023d cb2a 31bd
00000300: 041c 15bd a6f0 f7bc 88c3 bdbc 77db e13c
00000310: 6363 d7bc ede4 0ebc 9713 353d 4936 45bd
00000320: 18ae 1c3c 5cc2 d2bc bab7 7fbc 20d8 a1bd
00000330: 3315 7c3d 2507 7ebd 6771 95bd 65ac 7e3d
00000340: 39a3 6a3c b143 883d bdcf f43c 55ca 99bd
00000350: 90ef 83bd 2b36 733d c4c4 96bd 2787 223d
00000360: c5bf 0abb 9b89 043b dc40 aa3c abcf 14bb
00000370: 6f2e 263c c3ac c73b 5f0f f8bc 1e3c 253d
00000380: 6668 913d adcb 463c 0df1 9ebd a952 2ebd
00000390: 5483 5f3d 2c4e 273d ae4a fcbb f42a c3bc
000003a0: 8c14 fbbc 2a44 d53c 4b23 2fbd 2b8b 31bd
000003b0: 9605 6f3d 4646 aa3d 1c7e 18bd 4e7e 98bd
000003c0: 5d9d e3bb 8dd2 ab3c 0a38 dcbc 997a 32bd
000003d0: 227a 123d e1d8 fa3b 2b94 ba3c 02b7 3d3c
000003e0: deac 1a3d e9b9 32bd 7fcc b7bb fe49 40bd
000003f0: 0ed5 04bd b0d4 36bd 939d 003d a8a2 0fbd

fc2.bias f4 [256]
0.02468881 0.00043533312 -0.013223605 -0.03275854 0.049867615 0.008162316 -0.031176148 0.06491663
0.045026198 0.027296849 0.028627096 -0.025840508 0.011232198 -0.018673284 -0.011561306 -0.03622895
0.00966514 0.040062856 -0.029923439 -0.033895228 -0.018911606 0.064564966 0.042781025 0.0642328
-0.05496117 -0.019496478 0.042587742 -0.03372086 -0.025091615 -0.041349534 -0.028926918 -0.02478332
0.06730032 -0.04453323 0.06337428 -0.027805282 -0.030201025 -0.0008491371 -0.03258806 0.012017626
0.06570088 0.030292587 -0.040257897 0.057025112 -0.06511313 0.024561541 -0.037051383 0.055629075
-0.02978744 -0.042205196 -0.021469021 -0.008751089 -0.074906066 0.01694738 -0.047574457 -0.0499196
-0.014442883 -0.00010493638 0.040553402 -0.046343643 0.009076009 -0.05239999 0.069246516 -0.036485612
-0.039970618 -0.06616163 -0.008560552 0.051208705 -0.05298532 0.007971717 0.06360659 0.067278445
-0.006451743 -0.05426039 -0.015474836 0.025512995 -0.026444059 0.022835372 0.047949847 0.07389896
0.010415534 0.037149843 -0.051476117 0.019667253 0.068513796 -0.050612513 -0.060041144 -0.03433529
-0.021881007 -0.03239625 -0.036959644 0.011993633 0.011458023 0.045668308 0.042851906 -0.024537724
-0.053103816 0.048588168 0.026018666 0.03419243 0.0010813851 -0.05171247 -0.028981993 0.02143195
-0.014391605 0.006525992 0.007005813 -0.027396513 -0.04219573 -0.003874827 0.0049193064 0.018059004
-0.025833482 0.03901705 0.04267128 0.009623179 0.07721561 -0.0075853365 0.045658216 0.058323614
0.038334254 -0.04756256 0.015494491 0.009793087 -0.0046992544 -0.02153209 -0.000975107 -0.009250842
0.0033579913 -0.027369812 -0.0037529175 -0.0045514256 0.05825253 -0.025200985 0.054246332 0.046611324
0.051529665 -0.056823216 0.06675613 0.0683853 -0.070836574 -0.009927322 0.010050148 -0.05114418
0.037256505 0.0047061434 0.031371262 0.031122508 0.015886245 0.021032855 -0.037556313 0.010259832
0.014685099 -0.056319993 0.002263045 -0.0011499204 0.0147044435 0.006359414 0.06295925 -0.0062409113
0.029105376 -0.009837305 0.010494198 0.037760247 0.014494433 -0.029080413 -0.04541745 -0.011284434
0.074655354 0.003208727 -0.06506259 -0.03537976 0.024747914 -0.017095834 -0.029901166 0.035717536
-0.03696321 -0.0021764403 0.012737461 0.04933047 -0.033052813 0.021066094 0.054915514 0.04409024
0.057731446 -0.014132247 -0.033485763 -0.03595867 0.03442779 0.061513226 0.025617596 0.066995285
0.011079051 -0.0053546447 -0.08553092 0.042476013 -0.037288055 0.01836996 -0.06855535 0.000919811
-0.026193192 -0.037137188 0.021726739 0.054357126 0.021834921 0.06277616 0.034223683 -0.052562337
-0.0047318772 -0.010629396 -0.050117888 -0.04332136 0.045304205 0.012712022 0.033119164 -0.042965665
0.03401833 0.039961874 0.032308582 -0.03024912 0.06459842 0.037307683 0.07154171 0.049284928
-0.011137755 0.030408787 -0.031067388 0.04025007 -0.025572916 -0.010715632 0.018181007 -0.06940596
0.0679846 0.006488135 -0.0045501147 0.04342137 0.055519186 -0.020291017 0.014126771 0.0001727042
-0.07717341 0.007112215 0.03152012 -0.06484012 0.008783944 -0.035819218 0.0068001063 -0.03879797
0.009700215 -0.043171644 0.018593943 0.06050373 -0.005267005 0.028576009 -0.049105085 -0.039790865
00000000: 3040 ca3c 6c3d e439 d2a7 58bc d22d 06bd
00000010: fc41 4c3d 3cbb 053c 1f65 ffbc 03f3 843d
00000020: 646d 383d a49d df3c 5f83 ea3c 79af d3bc
00000030: 4107 383c b7f8 98bc a26b 3dbc cf64 14bd
00000040: 895a 1e3c f318 243d 0022 f5bc b9d5 0abd
00000050: 83ec 9abc a33a 843d 283b 2f3d 7c8c 833d
00000060: f71e 61bd 14b7 9fbc 7c70 2e3d e21e 0abd
00000070: ee8c cdbc 215e 29bd 25f8 ecbc 6406 cbbc
00000080: c0d4 893d 7a68 36bd 60ca 813d e7c7 e3bc
00000090: 2468 f7bc a098 5eba 0f7b 05bd 94e5 443c
000000a0: 2f8e 863d 2928 f83c 77e5 24bd 2a93 693d
000000b0: 085a 85bd 4935 c93c 31c3 17bd 50db 633d
000000c0: ca04 f4bc 5bdf 2cbd cddf afbc ba60 0fbc
000000d0: 5a68 99bd 3bd5 8a3c 6fdd 42bd 7f78 4cbd
000000e0: d8a1 6cbc 4a11 dcb8 531b 263d d5d2 3dbd
000000f0: 8ab3 143c 5fa1 56bd 1ed1 8d3d f071 15bd
00000100: 3bb8 23bd c07f 87bd 8f41 0cbc 38c0 513d
00000110: 2307 59bd ce9b 023c 2c44 823d 48c9 893d
00000120: 2569 d3bb 2540 5ebd 2b8a 7dbc a100 d13c
00000130: 36a1 d8bc 3f11 bb3c 0f67 443d 5758 973d
00000140: eaa5 2a3c 6f2a 183d 9fd8 52bd 381d a13c
00000150: f650 8c3d 114f 4fbd b4ed 75bd 29a3 0cbd
00000160: cc3f b3bc eeb1 04bd ff62 17bd f180 443c
00000170: 6fba 3b3c b10e 3b3d 7b85 2f3d 5603 c9bc
00000180: 6383 59bd 6304 473d 1925 d53c 5d0d 0c3d
00000190: 43bd 8d3a 74d0 53bd a56b edbc 0f92 af3c
000001a0: c4ca 6bbc fdd7 d53b 0591 e53b a76e e0bc
000001b0: 6ed5 2cbd cff0 7dbb 2232 a13b 7af0 933c
000001c0: bda0 d3bc 58d0 1f3d 15c8 2e3d 8aaa 1d3c
000001d0: 3823 9e3d 6a8e f8bb 1c04 3b3d bee4 6e3d
000001e0: 6104 1d3d f5d0 42bd 9bdc 7d3c 2f73 203c
000001f0: 34fc 99bb 1164 b0bc 539e 7fba d890 17bc
00000200: bf11 5c3b a836 e0bc 82f3 75bb 2024 95bb
00000210: 349a 6e3d 4c72 cebc 6731 5e3d 84eb 3e3d
00000220: c510 533d 76bf 68bd 70b7 883d 980d 8c3d
00000230: c412 91bd 35a6 22bc 60a9 243c 8f7c 51bd
00000240: 479a 183d fe35 9a3b 277f 003d a1f4 fe3c
00000250: df23 823c 184d ac3c a6d4 19bd db18 283c
00000260: c599 703c cbaf 66bd 984f 143b edb8 96ba
00000270: e8ea 703c a262 d03b c7f0 803d 8f80 ccbb
00000280: 666e ee3c a62c 21bc dbef 2b3c 7daa 1a3d
00000290: 0f7a 6d3c 0c3a eebc a607 3abd 59e2 38bc
000002a0: e8e4 983d 8249 523b 893f 85bd 5eea 10bd
000002b0: 23bc ca3c 900c 8cbc 4af3 f4bc 8d4c 123d
000002c0: bc66 17bd 9ca2 0ebb c9b0 503c bf0e 4a3d
000002d0: 6362 07bd cd92 ac3c 17ef 603d f897 343d
000002e0: cf77 6c3d f18a 67bc 5e28 09bd 6649 13bd
000002f0: 2804 0d3d 4bf5 7b3d fedb d13c d334 893d
00000300: e884 353c 0476 afbb d62a afbd 54fb 2d3d
00000310: 5cbb 18bd 997c 963c bf66 8cbd 791f 713a
00000320: 1b93 d6bc 2a1d 18bd 46fc b13c 94a5 5e3d
00000330: 26df b23c ca90 803d 222e 0c3d 9b4b 57bd
00000340: dd0d 9bbb eb26 2ebc 6a48 4dbd bd71 31bd
00000350: e790 393d 1646 503c f6a7 073d c4fc 2fbd
00000360: ce56 0b3d 10af 233d 0156 043d 01cd f7bc
00000370: 2d4c 843d f1cf 183d 7684 923d fede 493d
00000380: 217b 36bc d91b f93c 0981 febc 42dd 243d
00000390: 4b7e d1bc 9e90 2fbc 56f0 943c b624 8ebd
000003a0: 833b 8b3d 6c9a d43b 2119 95bb 9bda 313d
000003b0: 1668 633d 5939 a6bc f973 673c ee17 3539
000003c0: 180d 9ebd 950d e93b 3e1b 013d e6ca 84bd
000003d0: 88ea 0f3c 2cb7 12bd 6dd3 de3b 9fea 1ebd
000003e0: a7ed 1e3c c0d4 30bd 5352 983c c2d2 773d
000003f0: d796 acbb 3c18 ea3c 6a22 49bd bffb 22bd

fc3.weight f4 [32, 256]
0.07128451 -0.037117485 0.07244439 -0.0091552725 -0.029599445 -0.041900393 -0.014383419 0.011751577
-0.041109774 0.04794754 0.081180535 -0.027035635 0.046656497 0.02683703 0.03229932 0.02584176
-0.03427957 -0.08164296 0.048224118 0.06874061 0.03983998 -0.08153463 -0.052630648 0.037645496
-0.058708537 0.09780096 -0.039985564 -0.06925542 -0.018448146 -0.08253644 0.0041779354 -0.020607423
0.0736382 -0.044112377 -0.07020959 0.09398598 0.0037564558 -0.025933716 0.008285699 -0.013340989
0.007546202 -0.027491936 0.012848151 -0.042403106 0.00033606566 0.016565183 -0.049149763 -0.048871126
-0.07428985 -0.079964675 -0.05367142 -0.0714309 -0.0016708006 -0.018055437 -0.028435793 -0.02114511
0.035617005 -0.018604966 0.021221234 -0.054534454 -0.061988644 0.04655122 -0.011028028 -0.0213372
0.076522574 -0.005503071 0.022068594 -0.08023701 0.07438485 -0.07002306 -0.065416925 0.003849487
-0.015767688 -0.008830374 0.07315565 -0.037063546 -0.040139668 0.03517018 -0.023906311 -0.033824347
0.03642796 -0.068590745 -0.07923013 -0.069383346 -0.045329377 -0.00019791878 0.006310107 -0.044185735
0.0090268515 -0.032003254 0.03553155 -0.066803716 0.03245012 0.0503524 0.08570861 0.018078448
-0.028759731 0.050434634 0.06241283 -0.046173062 0.04481395 -0.0013715597 -0.0017129524 0.06606372
-0.021996861 -0.008439882 0.017953502 0.01048093 -0.07435498 0.037144445 0.061458312 0.028496044
0.08430853 0.066013336 0.06792774 0.030845858 0.014728461 -0.023896875 -0.043831434 0.04189523
-0.002268963 0.014407877 -0.0032596376 -0.055050887 0.07497247 0.026012747 -0.08098934 0.0315748
0.0004640107 -0.03390846 -0.078145 0.009079951 0.03698523 0.027571294 -0.0378353 0.088137425
-0.0832623 -0.015772834 0.05678848 -0.052918646 0.054379154 -0.009222517 -0.016284695 -0.0074622207
0.060697455 0.053458598 0.043392718 0.06396185 -0.079411305 -0.009893036 -0.015331 -0.00850489
-0.011509762 -0.016383408 -0.018777367 -0.030051125 0.0420449 -0.0047247508 0.025556527 -0.013251533
0.05484276 0.046650663 -0.069623396 -0.08888048 0.0059201396 0.08226329 -0.00085251365 -0.044876754
-0.027601678 0.047714125 -0.022286877 0.061267648 -0.06911968 -0.0031560012 -0.050561838 0.049551714
-0.019071741 0.053293426 -0.08601402 -0.050424635 0.0074404385 -0.019865613 0.05515459 0.042095784
-0.055884995 -0.01623662 0.030256689 0.039465137 0.029071031 0.015751524 -0.06773967 -0.06268855
-0.05466064 -0.049057543 -0.040512607 -0.056513485 0.071103156 -0.06715609 -0.0065621273 0.03886663
-0.01060867 0.0034440218 0.016468767 0.0059613762 0.01739658 0.08282279 0.028053202 -0.012595167
0.026375609 -0.030250505 -0.031001236 0.007401702 -0.03903848 -0.041561395 0.034314647 0.026363386
-0.049920507 -0.073807225 0.09313171 -0.05852827 0.012105142 -0.014999221 -0.024850676 0.037032813
-0.04145896 -0.09008464 -0.057933874 0.015194355 0.017030269 -0.020734617 0.00980934 0.058882877
0.08924756 -0.013724173 0.0070754415 -0.031618666 0.007722099 0.07618045 -0.06275535 0.021234168
-0.034647297 0.04979977 0.08724238 0.033204503 0.013583405 0.043166243 0.0054881135 0.040944993
0.03772496 0.031651817 -0.061808087 0.0091679385 0.053099774 -0.029515281 -0.017257424 -0.07631992
00000000: 9dfd 913d 8108 18bd b95d 943d ffff 15bc
00000010: 897a f2bc bf9f 2bbd 6fa8 6bbc b089 403c
00000020: b962 28bd a464 443d fb41 a63d d679 ddbc
00000030: e21a 3f3d 55d9 db3c 4b4c 043d 19b2 d33c
00000040: bc68 0cbd 6d34 a7bd a786 453d e0c7 8c3d
00000050: 3f2f 233d a1fb a6bd 3c93 57bd 2a32 1a3d
00000060: 5d78 70bd df4b c83d e7c7 23bd c9d5 8dbd
00000070: 9120 97bc dd08 a9bd 10e7 883b e6d0 a8bc
00000080: a0cf 963d 2eaf 34bd 0cca 8fbd b97b c03d
00000090: df2e 763b f272 d4bc bec0 073c 2a94 5abc
000000a0: 2146 f73b c536 e1bc 0d81 523c e1ae 2dbd
000000b0: f831 b039 b5b3 873c 4351 49bd 172d 48bd
000000c0: 4725 98bd 85c4 a3bd 90d6 5bbd 5d4a 92bd
000000d0: c4fe daba ffe8 93bc 2ef2 e8bc 8238 adbc
000000e0: 23e3 113d 7169 98bc 27d8 ad3c 855f 5fbd
000000f0: cee7 7dbd 7eac 3e3d e7ae 34bc 5acb aebc
00000100: deb7 9c3d 1b53 b4bb 32c9 b43c 4d53 a4bd
00000110: 1657 983d 4068 8fbd 4ff9 85bd ad47 7c3b
00000120: 3d2b 81bc 46ad 10bc a1d2 953d f2cf 17bd
00000130: 7e69 24bd 9b0e 103d 2bd7 c3bc 668b 0abd
00000140: 7c35 153d 4e79 8cbd 6843 a2bd db18 8ebd
00000150: 4cab 39bd 6b88 4fb9 04c5 ce3b 1afc 34bd
00000160: 5ce5 133c d815 03bd 8889 113d 63d0 88bd
00000170: 6bea 043d 513e 4e3d ff87 af3d 4119 943c
00000180: 8799 ebbc 8c94 4e3d 98a4 7f3d f71f 3dbd
00000190: d58e 373d e8c5 b3ba 2585 e0ba 6a4c 873d
000001a0: c332 b4bc 6e47 0abc 3913 933c 35b8 2b3c
000001b0: 6c47 98bd c624 183d b6bb 7b3d 8970 e93c
000001c0: f3a9 ac3d 0032 873d b31d 8b3d 74b0 fc3c
000001d0: a54f 713c 61c3 c3bc 9788 33bd 559a 2b3d
000001e0: e2b2 14bb 040f 6c3c a59f 55bb 0a7d 61bd
000001f0: 2b8b 993d af18 d53c bddd a5bd 9454 013d
00000200: 7646 f339 99e3 0abd 7c0a a0bd 13c4 143c
00000210: d37d 173d 32dd e13c 30f9 1abd 6581 b43d
00000220: 6d85 aabd 0836 81bc 0a9b 683d 39c1 58bd
00000230: adbc 5e3d 0a1a 17bc 7b67 85bc a585 f4bb
00000240: e59d 783d 67f7 5a3d 90bc 313d 6efe 823d
00000250: 65a2 a2bd 6716 22bc e02e 7bbc 1858 0bbc
00000260: 7193 3cbc 7f36 86bc fed2 99bc c72d f6bc
00000270: 4637 2c3d 15d2 9abb ec5b d13c f51c 59bc
00000280: cda2 603d c414 3f3d b696 8ebd f806 b6bd
00000290: bbfd c13b a879 a83d 397b 5fba b0d0 37bd
000002a0: ea1c e2bc e36f 433d f892 b6bc c9f3 7a3d
000002b0: 9e8e 8dbd ead4 4ebb ee19 4fbd bdf6 4a3d
000002c0: 573c 9cbc 354a 5a3d 1e28 b0bd 108a 4ebd
000002d0: ecce f33b 36bd a2bc c8e9 613d a16c 2c3d
000002e0: aae7 64bd a902 85bc e0dc f73c 32a6 213d
000002f0: 5f26 ee3c 5709 813c 19bb 8abd db62 80bd
00000300: d6e3 5fbd 90f0 48bd 8cf0 25bd af7a 67bd
00000310: 889e 913d 2289 89bd 1d07 d7bb 9e32 1f3d
00000320: fdcf 2dbc 19b5 613b 82e9 863c a657 c33b
00000330: 4683 8e3c ff9e a93d d4cf e53c f65b 4ebc
00000340: a911 d83c e8cf f7bc 4ef6 fdbc fa89 f23b
00000350: d0e6 1fbd 483c 2abd 848d 0c3d 07f8 d73c
00000360: 7279 4cbd 3e28 97bd d7bb be3d 57bb 6fbd
00000370: a554 463c 4bbf 75bc a593 cbbc b8af 173d
00000380: dfd0 29bd 4c7e b8bd 124c 6dbd bef1 783c
00000390: 1083 8b3c a5db a9bc 5bb7 203c 2c2f 713d
000003a0: 6dc7 b63d 5bdb 60bc 1bd9 e73b 9382 01bd
000003b0: a909 fd3b 7f04 9c3d e085 80bd 47f3 ad3c
000003c0: 53ea 0dbd d8fa 4b3d 22ac b23d 7201 083d
000003d0: ee8c 5e3c 16cf 303d a2d5 b33b f0b5 273d
000003e0: 7d85 1a3d 56a5 013d 7a2a 7dbd 1f35 163c
000003f0: 267f 593d 08ca f1bc 715f 8dbc 9e4d 9cbd

fc3.bias f4 [32]
-0.03878273 0.032261472 0.03188804 0.06569284 -0.016078906 -0.010336879 0.0006332432 -0.04427119
0.038743064 0.05904503 0.018403871 0.026462698 -0.016780501 0.043986045 0.06613563 -0.046213068
-0.010621473 -0.019403992 0.041094884 0.023371676 0.031627737 0.043294784 0.0738925 0.023358442
-0.03938717 -0.033879902 0.056434598 0.01196073 0.0583072 -0.006793785 -0.01437401 -0.01183299
00000000: a4da 1ebd 9b24 043d 099d 023d f889 863d
00000010: e9b7 83bc 035c 29bc 3b00 263a b555 35bd
00000020: 0cb1 1e3d 34d9 713d b7c3 963c 4dc8 d83c
00000030: 4377 89bc b62a 343d 1e72 873d ea49 3dbd
00000040: b005 2ebc 1ff5 9ebc 1c53 283d f575 bf3c
00000050: 168c 013d df55 313d f354 973d 345a bf3c
00000060: 7154 21bd a7c5 0abd f727 673d f0f6 433c
00000070: 88d3 6e3d 669e debb f880 6bbc 28df 41bc

output.weight f4 [1, 32]
0.067586005 0.20305806 -0.048446726 -0.17493874 -0.05962627 -0.14399181 0.11158263 -0.1291033
0.076544896 -0.13090204 0.119008064 -0.12815607 0.2093525 -0.05886704 0.053462457 0.20748757
0.13612382 0.090443686 -0.13356999 0.12996727 -0.118275434 0.06424815 -0.19328997 -0.052880496
-0.13107568 -0.04413717 -0.054246247 0.061540674 -0.087041534 0.043797612 0.16501255 0.13181216
00000000: 886a 8a3d 74ee 4f3e 1370 46bd 2423 33be
00000010: ad3a 74bd 9772 13be 6f85 e43d a833 04be
00000020: 92c3 9c3d 2f0b 06be 80ba f33d 583b 03be
00000030: 8060 563e 911e 71bd 73fb 5a3d 9f77 543e
00000040: 0b64 0b3e 8a3a b93d 92c6 08be 2416 053e
00000050: 643a f2bd 8994 833d ceed 45be 3899 58bd
00000060: b438 06be 2dc9 34bd 5031 5ebd 1312 7c3d
00000070: d542 b2bd 2065 333d 0df9 283e c4f9 063e
