result/occur/921/1000/Train_921_under_1000_128_256_32_0.0004_128_2_0.pth (torch, 175279 bytes, 7 tensors)

fc1.weight f4 [128, 13]
000000 33 aa 20 3e 1f 9e 06 be 8a 2c 80 bd 82 c1 14 3e
       0.15689926 -0.13146256 -0.06258495 0.14526942
000010 90 91 7c be 51 a7 38 3e 1b 80 1a bd 2a 5a 1f 3e
       -0.24664903 0.18032576 -0.037719827 0.15561739
000020 b3 e9 61 3d 26 a3 9e bc a0 6b bb 3d e3 ef b0 3c
       0.055154514 -0.019364905 0.09151387 0.021598762
000030 c7 1c fa 3d 07 f8 b9 bd 81 41 13 bd 66 84 2b bd
       0.1221252 -0.090805106 -0.03595114 -0.041874312
000040 3b 83 6f 3d fa 30 88 3c dc f6 83 3e ad 05 df 3d
       0.05847476 0.016624916 0.25774276 0.108897544
000050 4e 19 af bd 51 93 17 be 22 80 ea bc 82 86 d0 bd
       -0.08549748 -0.1480229 -0.028625552 -0.10181905
000060 04 5c 9f bd d6 8f 15 3d d8 ee 39 3e 7c 88 0c 3e
       -0.077812225 0.036514126 0.18157518 0.1372394
000070 15 e9 91 be 4e 93 41 3e 6b b5 c0 3d e6 5d 8e 3e
       -0.2849814 0.18903849 0.09409603 0.27806014
000080 20 72 51 3e 5a f3 70 be 2b 12 7b be 9e 59 ef bd
       0.20453691 -0.23530331 -0.2451865 -0.11687015
000090 cc 47 85 3e 06 de 1c bd 86 ff 0f 3e 19 79 12 be
       0.2603134 -0.038297676 0.14062318 -0.14304008
0000a0 85 89 87 3e a0 ce eb bd 41 9e 45 3e fe a2 38 bc
       0.26472107 -0.1151402 0.1929865 -0.011269329
0000b0 db c0 25 be 54 2c 00 3e 0b 0f 25 be 77 4f 86 3d
       -0.1618685 0.1251691 -0.1611902 0.065581255
0000c0 45 c9 c1 bd 31 71 38 bd ec 44 8d be 4f b5 19 be
       -0.09462217 -0.045029823 -0.27591646 -0.1501057
0000d0 fa ee 29 3e 8c 57 a6 bd 6c 79 87 3e 1f 1d 75 3e
       0.16595069 -0.08122167 0.26459825 0.2393689
0000e0 cb 21 6c 3b f8 d0 2d be b5 43 42 3e 57 a8 d1 3d
       0.0036030884 -0.16974247 0.1897114 0.102371864
0000f0 1c c5 24 be c8 e1 48 3e 90 8d 3d 3e f4 b3 82 3e
       -0.16090816 0.19617379 0.18511033 0.25527918
000100 c9 72 09 be ea 85 3d bd 90 74 b8 bb e7 89 1a 3d
       -0.13422693 -0.04627029 -0.0056291297 0.03772917
000110 a2 25 57 be 56 c0 49 be 6e 02 18 3e d5 6c 77 bd
       -0.2101045 -0.19702277 0.14844677 -0.060406525
000120 cc a6 0a 3e 78 2b 90 3c 48 52 ba 3d 51 7b 79 3d
       0.1354019 0.017598853 0.09097725 0.06090862
000130 6a 5f c2 3d 19 25 11 3e c4 3a 89 be 9f 9c 1d 3e
       0.09490855 0.14174308 -0.26802647 0.15391777
000140 5e b3 3e be ab ad 62 be a6 b1 ad 3b 06 37 69 bd
       -0.1862311 -0.22136562 0.0053007184 -0.05693724
000150 3a 6d 16 3e d0 1f 31 be af 56 85 be a6 9b 42 3e
       0.14690104 -0.17297292 -0.26042697 0.19004688
000160 a4 75 58 bd 76 90 1c 3e 3c aa 94 3d 8a 8d 5f be
       -0.052846566 0.15289482 0.07259032 -0.21831337
000170 2f 89 91 3d f9 28 a4 3d f9 ef 47 be 2d 11 11 be
       0.07106244 0.080156274 -0.19525136 -0.14166708
000180 01 da bb 3d cf bc 0a 3d 48 3e 08 be 81 ce bf bd
       0.0917244 0.03387147 -0.13305008 -0.09365559
000190 40 30 78 3e 72 06 7d bd 4e f8 23 3e 2f bb d4 3d
       0.24237156 -0.061773725 0.1601269 0.10387265
0001a0 e6 39 43 be 10 50 65 be ba a8 87 3e e6 c4 38 3b
       -0.19065055 -0.22393823 0.26495916 0.0028193532
0001b0 84 e8 36 3e 26 42 3f 3d 6f ed 9a 3d a1 0b 48 3e
       0.17862135 0.046693943 0.07564818 0.19535686
0001c0 8b 57 80 3e 4d 59 48 be b1 66 bd 3c 8b 43 4b 3e
       0.2506679 -0.19565316 0.023120256 0.19849984
0001d0 e5 4a 3f 3e e6 8a 42 3e 56 84 60 be 61 40 58 be
       0.18680914 0.18998298 -0.21925482 -0.21118309
0001e0 40 c4 18 be 36 9e 58 3d 7e 42 96 3e 19 a1 1d be
       -0.14918613 0.052885257 0.29347605 -0.15393485
0001f0 75 ce 29 3e ea 06 09 be 87 7e 78 be 5b 22 27 bd
       0.16582663 -0.13381544 -0.24267016 -0.04080425
000200 49 30 31 3e ed 0a 8f 3e ce 2c 3a be 41 df 92 3d
       0.17303576 0.27938023 -0.18181154 0.071714886
000210 b7 e8 70 3e fc ea 30 3e 7f 99 26 3e a6 11 42 3e
       0.23526274 0.1727714 0.16269492 0.18952045
000220 85 71 20 3e d4 38 7c 3d cd 72 4f be 5e 0c 79 be
       0.15668304 0.061577633 -0.20258637 -0.24321124
000230 a8 a8 0c be f5 fc 06 bd aa 86 41 be 63 1d eb 3d
       -0.13736212 -0.032956082 -0.18899027 0.114802144
000240 7d f7 9f 3d ac 85 a1 bd fd 41 f8 3d c3 03 d4 3d
       0.078108765 -0.07886824 0.12121961 0.1035228
000250 86 1b 3b 3e 32 61 53 3e 74 5c a3 bd a6 20 93 3e
       0.18272218 0.20642546 -0.079766184 0.28735846
000260 c1 4d 93 bc 17 d5 93 3b 47 b9 83 be 32 34 22 be
       -0.017981412 0.0045114863 -0.25727293 -0.15840223
000270 0a 3a 2e be a4 f8 de bd 46 b2 4b 3e 8b c5 cc bd
       -0.17014328 -0.10887268 0.19892225 -0.09998616
000280 06 0c 5d be 71 9a d1 3d a9 11 9b 3d fd 47 2f 3e
       -0.21586618 0.102345355 0.07571728 0.17117305
000290 5a 43 1e be 5d cc 52 3d 94 a6 e0 bd 08 97 81 bd
       -0.1545538 0.051464427 -0.10969272 -0.06327635
0002a0 d9 50 70 be 26 cc e9 bd 8f 72 c6 bd 4e 91 df 3d
       -0.23468341 -0.11415891 -0.09689819 0.109163865
0002b0 5f ee 82 3d f1 45 a6 3d f2 50 93 3e c9 69 93 3e
       0.06393122 0.08118809 0.28772694 0.28791645
0002c0 da 1d 4f 3e c8 e4 c0 3c c3 3d 37 be 8a 1d 6b 3e
       0.20226231 0.023546591 -0.17894654 0.22960487
0002d0 da 48 87 bd 31 93 9a bb f8 50 80 be 01 6f 42 bd
       -0.06605692 -0.0047172536 -0.25061774 -0.047469143
0002e0 71 23 2c be 03 d9 76 3e af 38 81 be af ef 68 be
       -0.16810395 0.24106221 -0.2523856 -0.22747682
0002f0 df 4f ee bc 51 26 26 be 5b 4f aa 3d c5 7c f4 bd
       -0.02909082 -0.16225554 0.08315917 -0.119378604
000300 2b 8b 12 be 4e 1d 5e 3c 66 9a 38 3e 28 a0 42 be
       -0.14310901 0.0135567915 0.18027648 -0.19006407
000310 b5 34 02 3e 80 a9 32 3e db 44 8e 3e 54 fc 40 be
       0.12715419 0.17447472 0.27786908 -0.18846256
000320 35 11 93 3d 07 15 45 be 86 17 78 3e 81 06 cb bd
       0.07181016 -0.19246303 0.24227723 -0.0991335
000330 3d 03 31 3e 8b ba 66 3c a1 a9 cb bc 2d 8f 85 3b
       0.17286392 0.014082561 -0.024861159 0.004075906
000340 0e b8 30 3d 6f 88 0a 3e a7 de 56 3d a6 09 a1 3d
       0.04314428 0.13528608 0.05245843 0.078631684
000350 4b 37 82 be 7b f7 4b 3e 02 db 65 3e 5f 31 65 3e
       -0.2543281 0.19918625 0.22446826 0.22382115
000360 e4 d0 47 3e 60 ff 51 be 74 96 dc bd 76 fd 7d 3e
       0.19513279 -0.20507574 -0.10770884 0.24803719
000370 21 3b 6b be 27 b5 86 3e 54 4b 6e be 6f 28 50 be
       -0.22971775 0.26310083 -0.23270923 -0.20327924
000380 14 9c 17 3e 10 e1 3f be 20 ba 57 bd e6 44 5f 3e
       0.14805633 -0.18738198 -0.052667737 0.21803626
000390 a8 b2 6d 3e b1 88 8d 3e ea ef 34 bd 4b 62 50 be
       0.23212683 0.2764335 -0.044174112 -0.20349996
0003a0 80 7c 8e 3e 83 e5 2c bd 0c 1c c9 bd 50 29 61 3d
       0.2782936 -0.042211067 -0.09819803 0.05497104
0003b0 98 e1 55 be 01 c1 4b 3e 24 a1 42 3e 5e 4d 50 be
       -0.20886838 0.19897844 0.19006783 -0.20342013
0003c0 07 1a 54 be c4 db f1 bb e7 92 09 3e 43 c4 0b 3c
       -0.20713054 -0.0073809344 0.13434945 0.008530679
0003d0 1e 58 fe bd 77 b3 8b 3c 9e 3a 75 be 8a 40 38 be
       -0.12419151 0.017053349 -0.23948142 -0.1799337
0003e0 53 97 4b be ed 43 5e 3e 3c d0 85 3e aa 4b 9f bd
       -0.19881944 0.21705599 0.26135433 -0.07778104
0003f0 c9 40 e0 3c 8f 2e 14 3e 6f 54 4e 3d 11 19 f7 bd
       0.027374642 0.14470886 0.05037349 -0.12065328

fc1.bias f4 [128]
000000 1b 67 92 3c 98 26 78 3d 25 3b ef bd d7 d1 ef bc
       0.01787143 0.06058368 -0.11681203 -0.029274864
000010 a3 7a b5 3d 95 32 66 3e 70 22 78 be 37 50 79 bc
       0.08861282 0.22480233 -0.24231887 -0.015216879
000020 5f b4 73 be a0 7a c2 bb 12 62 97 bc 88 a2 ce bd
       -0.23799275 -0.005935028 -0.01847938 -0.10089594
000030 ff 7d 24 3e c7 91 50 3e 6e ed f8 bd 81 e5 02 bd
       0.16063689 0.2036811 -0.12154661 -0.031957153
000040 37 f2 ba bd f0 4f a4 3c 7d 98 dd 3d d4 fa 8b 3e
       -0.0912823 0.020057648 0.108201005 0.27339804
000050 03 eb 77 be 10 d5 00 3e 61 d5 37 be ff 26 76 be
       -0.24210744 0.12581277 -0.17952491 -0.24038313
000060 d9 13 62 3e c7 dd b7 bd e5 85 2d be c0 98 ba 3d
       0.22077884 -0.089778475 -0.16945608 0.09111166
000070 29 7e 26 bd 5a 80 84 be 5c cc 18 be 80 2f f7 bd
       -0.04064766 -0.25879174 -0.14921707 -0.12069607
000080 85 29 4c bc 80 15 34 be f2 15 81 be 5d 78 2c 3e
       -0.012461071 -0.17586327 -0.25212055 0.1684279
000090 e9 3d 6e be 4a 7f fb bc fd 46 62 3e 01 ae f3 bd
       -0.23265804 -0.030700345 0.22097392 -0.11898423
0000a0 2e 06 40 be f5 2b 91 3d ac 9d 83 3e d2 a8 20 bd
       -0.18752357 0.07088462 0.25706232 -0.0392235
0000b0 f1 24 57 3b 12 d0 15 3e 43 e6 4f 3d ec 01 56 3d
       0.0032828415 0.14630154 0.050756704 0.052247927
0000c0 f6 28 25 3e 3f 18 12 3e 84 cd 58 be 25 68 00 be
       0.16128907 0.14267062 -0.21172148 -0.12539728
0000d0 b3 90 52 3e 69 d3 3f 3d f0 60 a1 3d c3 81 90 3e
       0.20563011 0.046832476 0.078798175 0.28224
0000e0 ad f6 27 3e c0 bd 01 3e 1c cc 8b 3e 14 69 79 be
       0.16402693 0.1267004 0.2730416 -0.2435649
0000f0 e6 5b 59 3d aa b8 b6 3d 5d 3c 06 bd fc f2 0a be
       0.053066157 0.089219406 -0.03277241 -0.13569254
000100 41 8e 86 3d 61 45 71 be d2 37 08 be d2 cf 46 3e
       0.065701015 -0.23561622 -0.13302544 0.19415215
000110 9f cf b2 bd 11 6b c7 bd b8 85 10 3e 30 d0 57 bd
       -0.08731007 -0.09737218 0.1411351 -0.052688777
000120 a7 a1 02 3d e4 79 92 be 8e c7 33 3e 88 01 87 be
       0.031892445 -0.2860862 0.17556593 -0.26368356
000130 26 b9 54 3d f1 67 84 be 07 e9 81 be 68 f4 76 3e
       0.051934384 -0.2586055 -0.25373098 0.24116671
000140 1d 93 13 be 33 03 c6 bb 93 57 89 3c ca 04 8b 3e
       -0.14411588 -0.006042862 0.016765391 0.2715209
000150 81 5d 91 3d d5 86 1b 3e 2a 15 d9 bd 02 53 a4 bd
       0.070979126 0.15188153 -0.1059974 -0.08023645
000160 65 d6 3e 3e 61 cd c0 3d e3 06 51 3d b9 3e 44 be
       0.18636473 0.09414173 0.05103196 -0.19164552
000170 6b e0 57 be 2c a7 40 3d 21 fb 65 be c7 25 5b 3e
       -0.21081702 0.047034428 -0.2245908 0.2140113
000180 30 44 7e 3e 19 5a c9 bd 90 90 23 be ec 97 91 3e
       0.24830699 -0.09831638 -0.15973115 0.2843622
000190 43 6b 06 be 08 6a 51 be 08 f8 5e be 90 14 16 3d
       -0.13126855 -0.20450604 -0.21774304 0.036640704
0001a0 1e fd 8e 3d cc 83 43 3e fb 91 64 3e 10 d5 d1 3d
       0.06981872 0.19093245 0.22321312 0.102457166
0001b0 7c 43 f1 3c e9 76 85 3e 28 f0 d3 bd f6 02 83 bd
       0.029451124 0.26067284 -0.103485405 -0.06397049
0001c0 22 01 81 3e a5 c4 cf bd 15 9e 22 3e 86 7c a0 3d
       0.25196177 -0.10144929 0.15880616 0.07836251
0001d0 73 e8 eb 3d 7a d5 7b bd ab 75 81 be 46 bd 56 3e
       0.115189455 -0.061482884 -0.25285086 0.2097064
0001e0 af 3a 72 3e 5e 70 70 be 25 ed e8 bd 41 da fd 3b
       0.23655199 -0.23480365 -0.11373357 0.007746965
0001f0 1e aa 1c 3e 1f 41 2f bd 8e bc e6 bd b3 0d 69 3e
       0.1529927 -0.042786714 -0.11266433 0.22759132

fc2.weight f4 [256, 128]
000000 22 50 7a bd 74 ac 87 3d 44 c1 72 bc cc f0 5f 3d
       -0.061111577 0.0662469 -0.014816586 0.054673
000010 5f e6 04 3c 8c dd f9 3a 27 72 a2 3d a5 ea 41 3c
       0.008111565 0.0019063218 0.07931929 0.011835729
000020 bd 9e 4c 3d 4f b3 3a 3c 6f 98 49 bd 58 af 29 3d
       0.049956072 0.01139529 -0.049217638 0.041426986
000030 e9 37 43 bd d4 f3 fd 3c b6 7b f3 bb db 60 ae 3c
       -0.047660742 0.031000055 -0.007430519 0.021286419
000040 4b ba de 3b 5d 5b e0 39 97 69 17 bd 81 67 b4 3c
       0.00679711 0.0004279268 -0.036965933 0.02202201
000050 ab 52 da 3c 71 77 c8 bd e2 5a bf 3d dd 09 69 bd
       0.026650747 -0.09788407 0.093435064 -0.056894172
000060 b5 3e 1c bd 72 59 49 3d d6 dd c2 3d cf 67 5c 3c
       -0.03814574 0.049157567 0.09514968 0.013452484
000070 90 d1 7b bd 46 04 07 3d db 2a 76 bd fd 28 5b 3d
       -0.06147915 0.03296306 -0.060099464 0.053505886
000080 3b b8 5b 3c 8e de 18 bc 52 4c aa bd cb 9a fa 3c
       0.013410623 -0.009330405 -0.08315338 0.03059139
000090 26 ab 88 3d 67 88 61 bd 57 65 40 3d d7 7a c9 bc
       0.06673269 -0.055061724 0.046971645 -0.024594707
0000a0 97 fa 20 bc 84 c0 76 3d 5a e5 c5 bd 0d 50 0d bb
       -0.00982537 0.06024219 -0.09662886 -0.0021562607
0000b0 c3 a2 6e 3c 6f 2c d1 3c 71 55 31 bd 78 53 7f bd
       0.014565173 0.025533883 -0.043294374 -0.06233546
0000c0 ae 34 76 3b c1 7e c9 bd ad e6 d8 3c 9c 24 29 bd
       0.003756802 -0.098386295 0.026477182 -0.04129468
0000d0 32 f2 d9 bc 6c eb bf 3d 89 b8 af bd 0f 92 6c bd
       -0.026604746 0.09371075 -0.08580119 -0.05775648
0000e0 38 65 a3 bd bc b8 28 3d b0 c1 93 3d f0 82 2e bd
       -0.0797829 0.0411918 0.07214677 -0.04260534
0000f0 16 e5 8e 3d 6c 7f 2f 3d a8 8f ba bd da 0c 3d 3d
       0.069772884 0.04284613 -0.091094315 0.046154834
000100 e4 00 c4 3c 03 af e2 ba b8 1c 9c 3d 5b 9c 0d 3c
       0.023926206 -0.0017294589 0.07622665 0.008643235
000110 13 6a d6 bc 8b 7b 80 3d 58 fc bd bd b0 2f d4 bd
       -0.026173627 0.06273564 -0.092766464 -0.10360658
000120 26 6a 3f 3b 8d 93 d8 3c 35 33 10 bc 66 b9 41 bd
       0.0029207557 0.026437545 -0.008801271 -0.04729595
000130 0d 1d 62 3d 98 4f 91 bd a0 d5 c1 bc e0 eb bd bd
       0.055203486 -0.070952594 -0.023661435 -0.09273505
000140 18 21 d9 bd bf ef 0a 3d 3e 17 50 bd 02 d5 25 3d
       -0.10602015 0.033920046 -0.050803415 0.040486343
000150 46 f4 ce 3d 45 35 82 3c e5 6c 86 3d 6e 65 96 bd
       0.10105185 0.015894542 0.06563739 -0.07343565
000160 0a 3c 45 3d b5 9a 63 3d 3e fe 07 bd c8 fb ac bc
       0.04815296 0.055567462 -0.03320145 -0.021116152
000170 49 ec 86 bd 7e 84 d0 3c e1 73 8f bd 34 49 8d bd
       -0.065880366 0.025453802 -0.07004524 -0.06898728
000180 85 2f ba bd 6b e0 e4 bc d8 c6 0e 3c 5a 5d ad bd
       -0.09091095 -0.027939042 0.0087144 -0.08465071
000190 fa 1d 3f bd fe 98 14 3d ef 81 9c 3c d5 ed 04 3d
       -0.046659447 0.036278717 0.019104926 0.032453377
0001a0 58 17 52 bd 0d 4a 1f bd da 2c b6 bd 35 87 c9 3d
       -0.051291794 -0.03888898 -0.088952735 0.09840242
0001b0 0a 5c cc 3c 6f f7 c9 3c 92 22 15 3d d7 1c a7 3d
       0.024946231 0.024654118 0.036409922 0.08159798
0001c0 55 90 a0 bd 8b 6c e9 3c d4 c1 bd bd 9c be a5 3c
       -0.07840029 0.02849414 -0.092654854 0.020232491
0001d0 35 8c 7c bd 4d 36 99 3c 9e 32 43 bd 8c b1 3d 3d
       -0.06165715 0.01870265 -0.047655694 0.0463119
0001e0 aa a2 96 3d 89 23 74 3d ad eb b7 bd eb b4 5c 3d
       0.073552445 0.0596042 -0.089804985 0.053883474
0001f0 17 17 8c bd bc c1 be bd 22 1c 5f 3d 5a 67 79 3b
       -0.068403415 -0.09314296 0.05447019 0.0038055987
000200 c7 3b 3e bd be 9e b9 bd f2 4e eb 3b 45 4b 06 bd
       -0.046443727 -0.09063481 0.007181042 -0.032786626
000210 50 39 a6 bd af e8 bf bc ce d1 7e bd c9 60 70 3d
       -0.081164 -0.023426382 -0.062211804 0.05868605
000220 bb 65 8c bd 1c e3 3f bd 4f 16 ae bd 3d 73 ea bc
       -0.06855341 -0.046847448 -0.08500349 -0.028619403
000230 09 7b 48 bc 75 4f 0e 3d 08 5a 27 bc 89 23 62 3d
       -0.012236365 0.034743745 -0.010214336 0.05520967
000240 c6 d5 c4 3d 8b 50 2b 3b 09 a3 25 bd cb cc b0 bd
       0.096110865 0.0026140537 -0.040438686 -0.08632811
000250 ae 13 9b bd f7 1b 38 bd 53 7c 28 bd 64 f7 75 3d
       -0.07572113 -0.044948544 -0.04113419 0.060050383
000260 b7 82 d6 bc 59 47 28 3c 8d f0 82 3c e2 1d b9 bd
       -0.026185377 0.010270917 0.015983844 -0.09038903
000270 8c 2e 78 3d 28 fe 8c bc 48 76 9e bd 2f a9 13 3c
       0.060591266 -0.017211035 -0.07737404 0.0090125045
000280 15 0c 93 bd 6c af bf bb 46 05 96 bd 2c 94 0e bd
       -0.07180039 -0.0058497693 -0.073252246 -0.034809276
000290 2b 4d 2b bd e0 56 94 3d d3 fb ab 3d 51 49 ce 3d
       -0.04182164 0.072431326 0.08397641 0.10072578
0002a0 ba cd b7 3c 95 12 22 3d 7c 98 af bd 0f d8 3a bd
       0.022436965 0.039568502 -0.08574006 -0.045616206
0002b0 f7 87 f7 3c da 2b c4 3b 7a 57 8a 3c d1 32 1b 3d
       0.0302162 0.005986673 0.016887415 0.03789026
0002c0 25 16 2e 3d b1 5b c8 3c 76 dd 9a bc f8 69 73 bc
       0.042501587 0.024457784 -0.018904429 -0.014856808
0002d0 e7 27 26 3c 07 a0 af 3d 44 68 97 bc e6 24 20 bd
       0.010141349 0.08575445 -0.018482335 -0.03909769
0002e0 ee 3e 1e 3d b8 04 47 3d f3 02 bf b9 45 a2 4e bc
       0.038634233 0.048588485 -0.00036432556 -0.01261193
0002f0 a9 c9 9a bd 97 a3 f3 bb 1f be 51 3c 16 71 4c bd
       -0.07557995 -0.007435273 0.012801676 -0.049912535
000300 6e d1 a2 bd 0e 59 9a bd b9 2c af 3d 79 3b c3 3d
       -0.07950102 -0.07536517 0.08553452 0.09532828
000310 51 be 97 3d 2f a9 ba 3d e3 89 a4 bc 2c fd bf 3c
       0.07409347 0.091143005 -0.02008528 0.023436151
000320 eb 42 25 3d 4b 38 f2 bb e4 36 85 bd 5d 98 9e 3d
       0.04034702 -0.0073919646 -0.0650461 0.07743905
000330 e3 52 b7 bc ee 99 92 3c bf fa db bc e7 e4 82 bd
       -0.02237839 0.017895665 -0.026852963 -0.06391316
000340 c9 44 0b bd 22 55 5c 3c 1b 0f 1f 3d 45 37 37 3d
       -0.034001146 0.013448032 0.038832765 0.044730444
000350 5c b9 74 3b cc 03 9a 3d 27 85 6b bd 15 71 84 bb
       0.0037341928 0.075202554 -0.05750003 -0.0040418007
000360 2f 85 6a bd e0 09 af 3c 70 7a ac 3d 4e 77 b2 bd
       -0.05725592 0.021367013 0.084217906 -0.08714162
000370 62 f0 17 3c e6 ee 85 bd 7f 50 e8 bb 21 74 71 bd
       0.00927362 -0.06539707 -0.007089674 -0.05894864
000380 bc a8 5b bc ce 0c 9e bd f8 09 a1 3c bd 37 c4 bd
       -0.013406929 -0.07717286 0.019658074 -0.09580944
000390 b3 96 cd 3b d7 e6 4d bd f5 b2 1d bd 3b 5e ba 3d
       0.0062740683 -0.050268974 -0.038500745 0.09100004
0003a0 37 15 ad ba 12 e7 8f bd 92 a1 72 bd 6a 68 c7 bc
       -0.0013205175 -0.07026495 -0.059236117 -0.02434178
0003b0 d4 dd 1d bd c6 8a 8c bb 60 99 54 bc fc de a7 3d
       -0.03854163 -0.004289004 -0.012976021 0.08196828
0003c0 ac 49 59 bc 0b 75 37 bd 2c ca 7c 3d c7 64 eb 3b
       -0.013262194 -0.044789355 0.061716244 0.0071836445
0003d0 23 18 0e bd 90 f2 45 3d 24 28 b7 3d b0 fc 94 bd
       -0.034690987 0.04832703 0.08943203 -0.07274759
0003e0 ed 5c 85 bd 5b c3 3b bd f9 52 b9 bd b4 c8 d2 bc
       -0.06511865 -0.045840602 -0.09049029 -0.025730468
0003f0 31 cc b0 3c 13 4c ba bd 3b 7a b4 bd cc d7 b0 bd
       0.021581741 -0.09096541 -0.08812376 -0.0863491

fc2.bias f4 [256]
000000 c8 69 88 3d 0e ac 86 bd 14 10 68 bd 8e 3c 94 3c
       0.06660801 -0.065757856 -0.05665596 0.018095281
000010 06 93 fb ba 0b 23 ca bd ef d9 a5 3c 71 a2 93 3d
       -0.0019193597 -0.09869965 0.02024552 0.072087176
000020 4d d6 97 bd e5 14 89 bd 8e 3b 7a 3d f5 df 99 bd
       -0.074139215 -0.066934384 0.061091952 -0.075134195
000030 a3 0a b0 bc 13 60 2b 3c f4 e3 9d 3d c5 cc 76 bc
       -0.021489447 0.010459918 0.07709494 -0.015063469
000040 67 80 7d bd 9f 1e 7c 3d b4 70 85 bc 1d 86 7d bd
       -0.061890032 0.06155264 -0.016289093 -0.06189548
000050 3f 03 e3 3c 21 90 9e bb 08 bb bd 3d a8 7e d8 b7
       0.027711509 -0.004838959 0.09264189 -2.5808185e-05
000060 0c e5 fe bc 01 f8 f1 3b 9a 76 51 3b d0 b0 79 bc
       -0.031115077 0.0073843007 0.0031961561 -0.015239909
000070 3b 73 c0 bd 34 17 96 bb 63 9d 9a 3d a2 80 bf bc
       -0.093969785 -0.0045804027 0.075495504 -0.023376767
000080 71 f8 48 3d 66 7a 50 bd 24 ce 37 bc bd ac b1 3d
       0.049065057 -0.05089798 -0.011218581 0.08675525
000090 18 e7 c2 3d ea 6e a3 3d 92 06 b2 bd 3b 91 42 bd
       0.09516734 0.079801396 -0.086926594 -0.047501784
0000a0 81 0c af bb e7 1d 7f bd 34 9c 65 3d 21 04 34 3c
       -0.0053420668 -0.062284376 0.05605717 0.0109873125
0000b0 61 79 25 bd 0f 74 8f bd 4b 61 b3 3d fc aa 04 3d
       -0.04039896 -0.07004558 0.087587915 0.032389626
0000c0 df 11 12 bb f0 c0 ae bd b8 a5 82 3d f6 ee 67 3d
       -0.0022288484 -0.08532894 0.063792646 0.056624375
0000d0 04 a4 25 3d 35 5a a1 bb f2 15 89 bc d6 a1 d2 3c
       0.04043962 -0.0049240836 -0.016734097 0.025711935
0000e0 85 1f ec bc b0 aa ee bc 36 ef 10 3d 9e dd bd bc
       -0.028823623 -0.029134125 0.03538438 -0.023176964
0000f0 d8 8d 84 3d 35 92 c2 bd 0c 51 1b bd 7b ea 54 3c
       0.06472367 -0.09500543 -0.03791909 0.012995358
000100 20 c7 b6 bd d5 fb 01 3d 43 02 98 bd 7d 0a 68 bd
       -0.08924699 0.031734306 -0.074223064 -0.056650627
000110 2d 29 76 3c d7 29 cf 3c b3 4f 8b 3d fe d6 80 3d
       0.0150244655 0.025288505 0.06802311 0.062910065
000120 cf d6 1d bd df ac 66 bd 81 70 b7 3d 7a 18 e1 3c
       -0.038534936 -0.056317206 0.08957005 0.027477492
000130 59 77 cd bc fe 5d ad bd 97 54 64 b9 d6 e8 6c bd
       -0.025081323 -0.08465193 -0.00021775287 -0.057839237
000140 9e 2f 04 3d 33 69 b3 3c 91 b3 72 3d 9d 0a de bc
       0.032271974 0.021900749 0.05925328 -0.02710467
000150 34 41 09 3c c4 6b 35 bd b1 b9 89 3d 24 6d 9e bd
       0.008377362 -0.044292226 0.06724871 -0.07735661
000160 3f a0 c3 3c 51 98 16 bb 73 14 97 bd ec 79 d0 3d
       0.023880122 -0.0022978971 -0.07376947 0.10179505
000170 37 fc 76 3d 64 44 f7 3c 4c 5e 95 bd 1e 37 09 3d
       0.060299125 0.030183978 -0.07293376 0.03349983
000180 a3 68 bb bd e9 4b 91 3d d8 22 e9 3b d2 fd 9c bd
       -0.09150817 0.07094557 0.0071147494 -0.076656
000190 81 c7 ca bc 4c 06 8a 3d 3a c9 9a 3d 93 c4 cc bc
       -0.024753334 0.06739482 0.07557912 -0.024996078
0001a0 c2 19 9b 3c b9 3b 4b bd 26 6d 99 3d 53 15 7a bc
       0.01893318 -0.049617503 0.074915215 -0.015263873
0001b0 9f ad ec bc e4 65 1e bb da e8 4b 3b fc 8a 1c 3c
       -0.028891383 -0.0024169618 0.0031114132 0.009554621
0001c0 76 d3 47 3c 43 b5 2a bd 0e 31 2e 3d 43 b8 96 3c
       0.012196412 -0.04167677 0.04252725 0.01839841
0001d0 38 0c 32 3d 64 03 94 3c b6 d3 c3 3d 2c bb bc bd
       0.043468684 0.018068023 0.09561865 -0.09215388
0001e0 6c bf b0 3d db 5e d2 bb 4e a0 c1 bd e7 32 64 bb
       0.08630261 -0.006419999 -0.09454404 -0.003482038
0001f0 2a 4b 90 bd 95 b9 d4 3b 49 57 72 3d 96 56 80 bd
       -0.070455864 0.0064918497 0.059165273 -0.06266515
000200 72 ee 37 bd 28 38 ab 3d 10 cc bf 3c 54 77 57 3d
       -0.044905134 0.0836032 0.023412734 0.052604035
000210 f1 d6 3b bd 10 b9 c4 bc 80 b4 3d bd ba 1d 60 bc
       -0.04585928 -0.024014026 -0.046314716 -0.013678962
000220 94 91 4e bd 8d 0e 9c bd 95 a7 17 bc 2e a7 53 3d
       -0.050431803 -0.07619963 -0.009256263 0.051673107
000230 73 c8 8a 3d 5f 42 93 3d 8c 28 9b 3d d4 72 17 bd
       0.06776514 0.07190394 0.07576093 -0.036974743
000240 a8 14 35 bd 6c 1c cc 3d f2 d2 c9 bd c6 69 7c 3b
       -0.044209152 0.099663585 -0.09854688 0.0038515194
000250 81 e0 90 bc 8b e0 9e bc 0e e9 09 3d 73 db 82 bd
       -0.017685177 -0.01939418 0.033669524 -0.06389513
000260 e6 8d d8 bc 8f 4b 68 3d e9 d0 b6 3d b4 5f d5 bc
       -0.02643485 0.056712683 0.08926565 -0.026046611
000270 17 db 67 bd 27 f5 29 3c 17 85 bf bc a0 04 8e 3a
       -0.056605425 0.01037339 -0.023378892 0.0010835119
000280 9e c4 c9 b9 74 39 49 bd ba 23 a7 3d 5e 95 9b 3d
       -0.000384842 -0.049127057 0.08161111 0.07596849
000290 75 a9 8c bd 08 2e 22 3d 10 ca 63 bd 17 76 f1 bc
       -0.06868259 0.03959468 -0.055612624 -0.029475255
0002a0 ec ba 6a 3d 26 27 9b bd 41 00 b3 bd 83 56 75 3d
       0.05730717 -0.07575826 -0.08740283 0.059896957
0002b0 54 93 7c bc d8 e7 28 3d 07 97 22 3d f7 1f df 3c
       -0.015415985 0.04123673 0.039694812 0.027236922
0002c0 e3 26 51 bc ef a5 8f bd 54 9f 68 3d 77 7b 89 bd
       -0.012765619 -0.07014071 0.056792572 -0.06713002
0002d0 17 87 60 3d 94 f4 a4 3c 28 3e c9 bd 1a c0 03 bc
       0.05481633 0.020136155 -0.098263085 -0.008041406
0002e0 3c 3d 18 3d 28 75 60 3b 61 51 60 bd b4 57 33 bc
       0.037167773 0.0034249518 -0.05476511 -0.010946203
0002f0 4a 27 40 bc af 1f 82 bc 5b d5 38 bd e1 f0 14 bd
       -0.011728117 -0.015884249 -0.045125347 -0.036362533
000300 b6 c4 eb bc 5f cb 3a 3d 44 69 8e 3b c0 aa 6f bd
       -0.028780323 0.045604106 0.0043460447 -0.05851245
000310 2f 4d db bc 2e 33 8b 3d fe c8 db 3b 99 68 97 3d
       -0.026770202 0.06796871 0.0067073097 0.07392997
000320 34 dd 6e bd b7 d3 ca 3d 6e db 25 3c fb 17 6c 3d
       -0.058316424 0.09903663 0.010123117 0.057640057
000330 5a fa 12 3b 3c 32 50 3d 6a c9 82 3d d1 e3 db bc
       0.0022427053 0.050829157 0.06386073 -0.02684203
000340 68 ac 70 3c e5 1c 94 bd 3d 75 09 3d dc f1 eb 3c
       0.014689542 -0.07232074 0.033559073 0.028801851
000350 6d 40 24 bd df 9a 9c bd b8 a9 35 bb 97 2c 8b bd
       -0.040100504 -0.07646727 -0.0027719568 -0.06795614
000360 45 70 e8 3b 8b bd 86 3d d2 8b d1 3b 49 21 3b bc
       0.0070934617 0.06579121 0.0063948417 -0.01142151
000370 6b a1 75 3d bd 3a 83 bd 7c d5 39 3d 74 7d 0f bc
       0.059968393 -0.06407688 0.04536961 -0.008757938
000380 69 a6 6f 3d 73 f9 f7 bc 6b a8 52 bd 7c 20 a2 39
       0.05850831 -0.030270314 -0.051430147 0.0003092325
000390 56 e9 e8 ba c5 49 77 bc 20 5c 2f bd 41 2b 0d 3d
       -0.0017769735 -0.015093272 -0.042812467 0.03446508
0003a0 ae fe 8d 3d d6 01 c2 3b dc a0 f0 bc db 02 27 3d
       0.06933342 0.005920629 -0.029373579 0.040774208
0003b0 7a 49 0d bd 49 3f 88 3d 33 63 5a 3d f9 db 88 3b
       -0.0344939 0.06652696 0.05331726 0.0041766134
0003c0 b5 8e 2a bd bd 4a 87 3d b0 70 e0 bc 8e 41 ff 3c
       -0.041640002 0.06606052 -0.027397484 0.031159189
0003d0 15 0c 8c bd 47 9a 07 3d e3 40 b8 bd 9d 09 96 bd
       -0.06838242 0.033106115 -0.08996751 -0.07326052
0003e0 d8 22 af 3d 16 f7 fd 3c ba c2 8b 3d af d7 9e 3d
       0.08551568 0.031001609 0.068242505 0.07755982
0003f0 0f 17 f9 bc 97 e0 ea bc bd 3d a6 bd 0f ad 21 bd
       -0.030406503 -0.028671546 -0.081172444 -0.039471682

fc3.weight f4 [32, 256]
000000 72 fa ae bc c9 21 7d 3d db 37 4b 3c 6d 84 14 bd
       -0.021359656 0.0617998 0.012403454 -0.036259104
000010 58 06 1c bd d7 ee 13 3d 4c 3e 8c 3c 20 fa 8a 39
       -0.038091987 0.036116447 0.01711955 0.0002650777
000020 74 16 1a bd ec 80 c9 bc 16 29 31 3c 20 04 16 3d
       -0.03761907 -0.024597608 0.010813018 0.036625028
000030 f7 74 35 bc 3c 19 50 bb 38 03 8c bd 31 be 94 3c
       -0.01107525 -0.0031753322 -0.068365514 0.018157097
000040 f6 5b af 3c 05 73 78 3c ed 8a 64 3d 3f d6 67 3c
       0.021406155 0.015164142 0.055796552 0.014150201
000050 63 1d b7 3c 87 21 13 bd 9e 5f 05 3c 58 45 03 3c
       0.02235288 -0.035920646 0.008140473 0.008012138
000060 f8 4f 4d 3d c9 db 92 bb 2d d7 11 bd 68 57 06 bb
       0.050125092 -0.004481767 -0.0356056 -0.0020498876
000070 6e a0 24 bc 94 be 6b 3c 48 cd 1a bd 18 2b a5 bc
       -0.010048015 0.014388699 -0.037793428 -0.02016215
000080 c7 7b 6e 3d 4c a6 fd 3b 86 16 2a bd 1b a5 a1 ba
       0.058223512 0.0077407714 -0.041525386 -0.001233253
000090 9d 65 95 bc 04 53 84 bd 03 8f 52 3c a4 2e 2c bc
       -0.01823693 -0.064611465 0.012851479 -0.010509167
0000a0 db 29 56 bc 90 74 bf 3b 60 6f 9e bd 20 d6 c6 bc
       -0.013071503 0.0058427528 -0.07736087 -0.024272025
0000b0 25 55 65 bc d9 49 ec 3b f3 48 3a 3d 1b b1 46 bd
       -0.013997351 0.0072109518 0.045479726 -0.048508745
0000c0 50 ab 3b bd d4 4a 85 3d 30 a2 c6 3b 0a 56 0c bb
       -0.045817673 0.06508413 0.0060618147 -0.0021413588
0000d0 80 8f 1a 3c 80 2d 4a bd 5c 0e 7a bd 70 46 c5 3b
       0.009433627 -0.0493598 -0.06104885 0.0060203597
0000e0 4c 23 b2 3c 39 11 b0 3c a8 1d 52 3d 2c c0 1e bd
       0.021745346 0.021492587 0.051297814 -0.038757488
0000f0 18 58 b3 3c 91 44 cf 3c 73 8f 3d 3d 9d 73 19 bd
       0.021892592 0.02530125 0.046279382 -0.037463773
000100 f0 aa 6b 3b b2 e5 0d 3b e6 59 8f bc a4 32 d1 3c
       0.003596004 0.0021651802 -0.017498922 0.025536843
000110 ed c4 74 3c dc 29 16 3c 21 7f 33 bd a2 7e 79 bd
       0.014939529 0.0091652535 -0.04382241 -0.060911782
000120 63 87 ad 3c bf 6b 63 3d 9b 64 36 bd cd 14 80 bd
       0.021182721 0.055522677 -0.04452954 -0.062539674
000130 93 65 e3 bc 2a 2f 60 3d 48 d7 80 bc 15 8b 45 bd
       -0.027758395 0.05473248 -0.015727654 -0.048228342
000140 6c dc 30 3d 7e f4 aa bc 49 d0 7a bc fe 86 03 3d
       0.04317896 -0.020868536 -0.015308448 0.03211116
000150 c4 a2 d1 bb d0 3c 8f 3d 9f 95 5c bd 31 1c 31 3d
       -0.006397577 0.06994021 -0.053853627 0.043239776
000160 8f 0c 2e 3d 96 35 8a bd 08 d6 e0 bb dc 22 b3 3c
       0.042492446 -0.06748502 -0.006861452 0.021867208
000170 94 05 27 3d c3 03 27 3d c3 2f 42 bd d2 5a 43 3d
       0.040776804 0.04077507 -0.04740883 0.047694035
000180 a3 ea 81 3c 0a 55 13 3d 48 6b 38 3d d0 8b 23 3d
       0.015858954 0.03596977 0.045024186 0.039928257
000190 c7 14 5a bb bc 22 05 3d 97 d4 70 bc 59 b9 8d bc
       -0.0033276544 0.03250383 -0.014699123 -0.017300295
0001a0 c0 af c9 bc 48 31 f5 bc 87 a0 58 3d 35 82 59 3d
       -0.024619937 -0.029930726 0.052887466 0.05310269
0001b0 ee d8 ba bc 7f cb 6f bd 55 ef 40 3d 6b f4 76 3b
       -0.022808518 -0.05854368 0.047103245 0.0037682306
0001c0 2c bb a2 bb 8a a0 2d bd 2d 98 4c 3d 10 8f 55 bd
       -0.0049661603 -0.04238943 0.049949814 -0.05213839
0001d0 3c 74 26 3d 23 b0 3a bd 25 1a ea bc 9c 65 52 3d
       0.040638193 -0.045578133 -0.02857692 0.051366434
0001e0 b0 91 3c 3d 99 35 bb bc 93 af 39 3d f2 13 12 3d
       0.046037376 -0.022852706 0.045333456 0.035663553
0001f0 79 b3 2c bd 6f 2e 02 3c c6 f6 50 3d ed 85 3b bc
       -0.042163346 0.007945641 0.05101659 -0.011445505
000200 86 77 33 bd 0c a0 83 bd 7d 54 c7 3c 2a ef 86 bd
       -0.04381516 -0.06427011 0.02433228 -0.06588586
000210 45 96 2b bd 9f 99 0f 3d e8 3f 0c bd e5 4b 47 bd
       -0.041891355 0.035058614 -0.034240633 -0.048656363
000220 fb 3d 04 3d 06 cf bf 3b f1 4b 12 3d 9c 35 8f 3c
       0.03228567 0.0058535365 0.035716955 0.017481618
000230 e7 75 bd 3c c0 24 54 3d 05 37 5c 3d da 06 4e 38
       0.02312751 0.05179286 0.05376341 4.912061e-05
000240 2c 7d 60 bd c6 18 57 bd 97 4d bb 3c f5 75 c2 bc
       -0.054806873 -0.05251386 0.022864146 -0.023737887
000250 c5 a3 91 bd 3f ef 3b bd d8 84 4f 3d 04 5e 45 bc
       -0.07111315 -0.04588246 0.0506638 -0.012046341
000260 be 7b d9 bc 1a 4c 18 bd 8f 52 55 3d 7a 6e 1d 3d
       -0.026548263 -0.03718195 0.052080687 0.038435437
000270 dd ce 8f 3d 18 57 bb bb eb c2 95 bd 98 59 1c bc
       0.07021878 -0.0057171695 -0.07312568 -0.009542845
000280 1c 96 97 bc f2 d9 2c bd b8 5a 06 3d c7 82 dd b9
       -0.018504195 -0.042200036 0.03280136 -0.00042249841
000290 22 71 15 3d 41 04 40 3a 84 fd 53 3c 75 be 6c 3c
       0.036484845 0.00073248526 0.012938861 0.014449705
0002a0 56 35 c0 3b b9 28 d4 3c 80 ea 67 3d d9 53 78 bb
       0.005865733 0.025898324 0.05662012 -0.0037891774
0002b0 2f 64 5a 3a 32 a1 a7 bb eb aa 55 bd b0 be df bc
       0.00083309686 -0.0051156515 -0.052164953 -0.027312607
0002c0 01 7b af bc 20 c1 82 bd b6 14 b0 bc 1b 82 87 3c
       -0.021420958 -0.06384492 -0.02149425 0.016541531
0002d0 1b f0 53 3d 53 72 e1 3b 60 8b 6d 3d 06 38 53 3d
       0.051742654 0.0068800836 0.057994246 0.0515671
0002e0 f6 d3 30 3c 6a 55 77 bd f7 eb 31 3d ec 2c 1f bd
       0.010792723 -0.06038419 0.043437924 -0.0388612
0002f0 5e 23 19 bd 03 81 d9 3c c3 68 38 bc 8a 36 cb 3c
       -0.037387244 0.026550775 -0.011255446 0.02480628
000300 de f5 90 bd 53 93 0d 3d b6 22 e8 bb d0 8f 29 3d
       -0.070781454 0.034564327 -0.007084216 0.041396916
000310 c2 e5 cd 3c 5f 5d 6e 3b 39 7e 96 bd 5b ec af 3c
       0.025133971 0.0036371571 -0.07348294 0.021475008
000320 8b 9d 10 3d 5c 44 76 bd 6f 52 17 bd 3e 41 6d bd
       0.035306495 -0.060123786 -0.03694385 -0.057923548
000330 8c 54 46 bd dd f9 b9 bc 27 cb 13 3d d4 51 29 bd
       -0.048420474 -0.022702152 0.036082413 -0.041337803
000340 f3 77 58 bd 04 07 0d 3d db 10 39 3d ab 0b 91 3c
       -0.052848767 0.03443052 0.04518209 0.017705759
000350 72 f4 8b bd 23 85 90 3c 2d de 80 bc 41 b7 bd bc
       -0.068337336 0.01764161 -0.015730942 -0.023158671
000360 1b 0d 45 3d 38 ad ec 3c 00 3c 59 bd 6f 13 d3 bc
       0.0481082 0.02889119 -0.053035736 -0.025766103
000370 8f 4b 15 bd 75 5a 83 bb 04 24 83 3b b6 18 cd bc
       -0.03644901 -0.004008586 0.004002096 -0.025036197
000380 c2 c6 77 3d d6 cc 6a bd 3a 5f 61 3d 1c 53 3b bd
       0.060492285 -0.057324253 0.055022456 -0.045733556
000390 1b 5c f5 bb 86 b2 47 bd 95 a1 33 bd 42 ff 87 bd
       -0.0074877865 -0.048754238 -0.04385527 -0.066404834
0003a0 50 2f b5 3c d7 13 bf 3c 5c 7f 3e bd 4d 53 66 bc
       0.022117287 0.02332489 -0.046508178 -0.014057946
0003b0 4d c0 27 bd a2 93 54 bc 73 c0 04 3c 4b c6 d7 bc
       -0.040954877 -0.0129746515 0.008102524 -0.02633967
0003c0 34 ad 3b bd 20 68 87 bd f4 0b 21 bd 98 f8 a1 bc
       -0.045819476 -0.06611657 -0.03931804 -0.019771859
0003d0 b9 a1 aa 3c 61 14 0f 3c 88 9a 83 bb 35 be 25 3c
       0.020829068 0.008732886 -0.0040162243 0.01011615
0003e0 9d 2f 8a bd 44 fc 12 bc ca 59 0b bc 35 dc cb bc
       -0.06747363 -0.008971278 -0.008505294 -0.024885276
0003f0 b0 39 d8 bc 7a 7e 00 bc d4 96 66 3d ca 08 bd 3c
       -0.026394695 -0.007842654 0.056296185 0.02307548

fc3.bias f4 [32]
000000 ef 70 27 3b 94 bd fc 3c 0d 05 42 bd 45 5b 91 bc
       0.0025549491 0.030852117 -0.047368098 -0.017743716
000010 5d b8 63 bb cb 76 75 bd 71 19 c8 bc 66 e9 31 3d
       -0.003474734 -0.059927743 -0.024426194 0.043435477
000020 e1 48 55 3d 9c 47 b9 bc be 5e 43 bd 8d 68 3a 3d
       0.052071456 -0.022617154 -0.047697775 0.045509864
000030 41 f8 c2 bb 72 a7 30 bd 04 35 c6 3c 74 8d 0b bd
       -0.0059500043 -0.04312844 0.024195202 -0.034070447
000040 ed 89 6e 3d 9c 91 79 bc e0 8d 25 3d 8b bd 18 bd
       0.058237005 -0.01523247 0.040418506 -0.037290137
000050 a1 d6 07 3c 01 9e 36 bd ad 2f 34 3d 50 9f 6e bd
       0.008290918 -0.044584278 0.04399078 -0.0582574
000060 83 14 23 3d 30 b8 3c 3a 6b d2 07 bd 44 27 ab bc
       0.039814483 0.0007199077 -0.033159655 -0.020892747
000070 04 f8 c0 bc 15 0f 0b bd fc 6f 5c 3d 2b 95 68 3d
       -0.023555763 -0.03394993 0.053817734 0.056782883

output.weight f4 [1, 32]
000000 dd c3 38 3e 12 d9 3c be e2 e5 07 be cd f5 6e bc
       0.18043466 -0.18442181 -0.13271287 -0.014584971
000010 fe f0 a7 3d 81 fe c3 3d ac c3 3c be 96 44 ed bd
       0.082002625 0.09570027 -0.18434018 -0.11585347
000020 de ad 2c 3e 83 fa fd 3d 0d d9 28 be 6e 63 cc 3d
       0.168632 0.12401297 -0.16489048 0.09979902
000030 58 53 c5 3d bd 97 e0 3d ff d6 97 3d 28 71 e9 3c
       0.09635037 0.10966442 0.07414054 0.02849634
000040 75 57 98 bd fe 61 19 3e e5 9e 15 3e 0c 98 5a bd
       -0.07438556 0.14978787 0.14611395 -0.05336766
000050 cc d7 31 be a8 e1 41 be 89 fc 3f 3e fc 64 af 3d
       -0.17367476 -0.18933737 0.18748678 0.08564183
000060 bc 5e 11 3e 9e d8 22 bd 8e f9 2b 3e cd e3 a5 bd
       0.14196295 -0.039757363 0.16794416 -0.0810009
000070 72 2e 82 bd 79 5b 3b be ef 3d fe bd a6 2f 08 bd
       -0.06356515 -0.18296613 -0.12414157 -0.033248566
