result/occur/921/1000/Train_921_under_1000_128_256_32_0.0004_128_3_0.pth (torch, 175279 bytes, 7 tensors)

fc1.weight f4 [128, 13]
0	0x3e2022b8	0.15638244
1	0xbe0bb2ab	-0.13642375
2	0xbd8ae42e	-0.06781803
3	0x3e15854c	0.1460163
4	0xbe7c908b	-0.24664514
5	0x3e38672c	0.18008107
6	0xbcfdf7b6	-0.031001907
7	0x3e1fe43d	0.1561441
8	0x3d6d634b	0.05795602
9	0xbc9d2d02	-0.0191865
10	0x3dbbb63d	0.091656186
11	0x3c7e7cfe	0.01553273
12	0x3e040f2d	0.12896414
13	0xbdbade6c	-0.09124455
14	0xbd2ecb0c	-0.04267411
15	0xbd4ec1e8	-0.050477892
16	0x3d7759c1	0.06038833
17	0x3c8cda96	0.017194074
18	0x3e8338e1	0.25629333
19	0x3df4e380	0.11957455
20	0xbdad91b3	-0.084750555
21	0xbe125268	-0.14289248
22	0xbce52347	-0.027970923
23	0xbdcf2a36	-0.10115473
24	0xbdaf7a27	-0.085682206
25	0x3d4428e8	0.047890574
26	0x3e38f8f9	0.18063726
27	0x3e0779d0	0.13230062
28	0xbe94dbaf	-0.29073855
29	0x3e4209fe	0.18949124
30	0x3dbff661	0.09373165
31	0x3e8e1b64	0.27755272
32	0x3e58a7e2	0.21157792
33	0xbe70c052	-0.23510864
34	0xbe784c71	-0.2424791
35	0xbdefb379	-0.117041536
36	0x3e852a3d	0.26008788
37	0xbd37a48a	-0.04483465
38	0x3e174aa7	0.14774571
39	0xbe142b04	-0.14469534
40	0x3e867829	0.2626355
41	0xbde877d0	-0.113509774
42	0x3e43180f	0.19052146
43	0xbc59c8f8	-0.013292544
44	0xbe28da67	-0.16489564
45	0x3df7cf93	0.121001385
46	0xbe260d68	-0.16216052
47	0x3d7f4a56	0.06232675
48	0xbdc5a158	-0.096499145
49	0xbd40d3cd	-0.04707699
50	0xbe8ccbd4	-0.2749926
51	0xbe1e28fa	-0.15445319
52	0x3e29a163	0.1656547
53	0xbdafa587	-0.08576494
54	0x3e84ee44	0.25963032
55	0x3e75e15a	0.24011746
56	0x3b74ba4c	0.0037342487
57	0xbe2dca28	-0.16971648
58	0x3e483bcf	0.19554065
59	0x3dd2ff4f	0.103026025
60	0xbe222a53	-0.15836458
61	0x3e4930ad	0.19647475
62	0x3e3dceef	0.1853597
63	0x3e7fec40	0.24992466
64	0xbe035fed	-0.12829562
65	0xbd41c777	-0.047309365
66	0xbc378505	-0.011201148
67	0x3d011184	0.031510845
68	0xbe564899	-0.20926131
69	0xbe4a07cd	-0.19729538
70	0x3e17b0bf	0.14813517
71	0xbd52544b	-0.05134992
72	0x3e0afde0	0.13573408
73	0x3cb0e6bf	0.021594403
74	0x3dba362c	0.09092364
75	0x3d792190	0.060823023
76	0x3db1ed7e	0.08687876
77	0x3e1aa397	0.15101467
78	0xbe890816	-0.26763982
79	0x3e22832b	0.15870349
80	0xbe396881	-0.18106271
81	0xbe6375ac	-0.22212857
82	0x3baae9f1	0.0052158763
83	0xbd694386	-0.05694916
84	0x3e1020e7	0.14075051
85	0xbe31c556	-0.17360434
86	0xbe86bab5	-0.2631432
87	0x3e425770	0.18978667
88	0xbd595537	-0.053059783
89	0x3e226084	0.1585713
90	0x3d87cd0e	0.06630908
91	0xbe5d3322	-0.21601537
92	0x3d9df12a	0.07712014
93	0x3db10769	0.086439915
94	0xbe46a4c4	-0.1939879
95	0xbe0f28ea	-0.13980451
96	0x3dc144db	0.09436961
97	0x3cd9c680	0.02658391
98	0xbe082de7	-0.1329876
99	0xbdc19e41	-0.09454013
100	0x3e79975b	0.24374144
101	0xbd76141d	-0.060077775
102	0x3e2bc837	0.16775595
103	0x3dc5cb67	0.096579365
104	0xbe43ab31	-0.19108273
105	0xbe656e8e	-0.22405455
106	0x3e876595	0.26444688
107	0x3b1f2f4c	0.0024289666
108	0x3e367b93	0.17820577
109	0x3d3d5825	0.04622664
110	0x3d9b1ab9	0.07573456
111	0x3e47ab09	0.19498838
112	0x3e803330	0.25039053
113	0xbe48c2fd	-0.19605632
114	0x3cba054d	0.022707606
115	0x3e4a6716	0.19765887
116	0x3e3f642d	0.18690558
117	0x3e43c78c	0.1911909
118	0xbe65a32a	-0.22425523
119	0xbe5e031e	-0.21680877
120	0xbe160835	-0.14651568
121	0x3d60015f	0.054688808
122	0x3e971209	0.29505947
123	0xbe1743b6	-0.14771923
124	0x3e2b8e70	0.16753554
125	0xbe042ca3	-0.12907653
126	0xbe76a6e1	-0.24087097
127	0xbd1f340e	-0.038868003
128	0x3e2e277e	0.17007253
129	0x3e92bc9d	0.28659526
130	0xbe34e932	-0.17667082
131	0x3d9e630e	0.07733737
132	0x3e760732	0.24026182
133	0x3e34e7b8	0.17666519
134	0x3e2b5ec6	0.16735372
135	0x3e477a71	0.19480301
136	0x3e18635e	0.14881656
137	0x3d864ef3	0.06558027
138	0xbe4e034a	-0.20118442
139	0xbe74769a	-0.23873368
140	0xbe07f8ef	-0.13278554
141	0xbcb860c8	-0.022507086
142	0xbe491290	-0.19635987
143	0x3de766e5	0.112989224
144	0x3d962e4f	0.073330514
145	0xbdad94aa	-0.08475621
146	0x3df7b7d2	0.12095608
147	0x3dd19a18	0.10234469
148	0x3e3a70a2	0.18207029
149	0x3e5a4b7c	0.21317858
150	0xbda51007	-0.080596976
151	0x3e943cd1	0.2895265
152	0xbc9be75c	-0.01903122
153	0x3b62a10e	0.003458086
154	0xbe879158	-0.26478076
155	0xbe1b0ebb	-0.15142338
156	0xbe2e57c5	-0.17025669
157	0xbdd77f13	-0.10522284
158	0x3e4ea9f4	0.2018202
159	0xbdcee2ba	-0.101018384
160	0xbe5d8864	-0.2163406
161	0x3dd2cf57	0.10293453
162	0x3d8f4be3	0.06996896
163	0x3e2e5cb9	0.17027558
164	0xbe20fb33	-0.15720825
165	0x3d50414f	0.050843533
166	0xbde1cf1e	-0.110258326
167	0xbd7175b4	-0.05895014
168	0xbe76e59f	-0.24111031
169	0xbdeb4333	-0.114874266
170	0xbdd10aa5	-0.102071084
171	0x3dd43d57	0.10363262
172	0x3d843530	0.06455457
173	0x3da5ee3f	0.081020825
174	0x3e933521	0.28751472
175	0x3e96f7b7	0.29485866
176	0x3e4f9eb6	0.20275387
177	0x3cd8ac23	0.026449269
178	0xbe373333	-0.17890625
179	0x3e6b18a9	0.22958626
180	0xbd94a68b	-0.07258328
181	0x3b187c2d	0.0023267374
182	0xbe800109	-0.2500079
183	0xbd2fba12	-0.04290206
184	0xbe260dd9	-0.1621622
185	0x3e75935c	0.23981994
186	0xbe814f36	-0.25255746
187	0xbe6899c5	-0.22714908
188	0xbd153b98	-0.036433786
189	0xbe269423	-0.16267447
190	0x3da278af	0.07933175
191	0xbdf4e59b	-0.11957856
192	0xbe12e20a	-0.1434404
193	0x3ca3217a	0.019913424
194	0x3e31054e	0.1728718
195	0xbe43c985	-0.19119842
196	0x3dfee34f	0.124456994
197	0x3e2f39da	0.17111912
198	0x3e8e2f84	0.27770627
199	0xbe41bf19	-0.18920554
200	0x3d917ebe	0.07104252
201	0xbe405660	-0.1878295
202	0x3e77b072	0.24188402
203	0xbdc81c85	-0.09771065
204	0x3e306569	0.17226185
205	0x3c5c5143	0.013447109
206	0xbcf13f40	-0.029449105
207	0x3c0fd89d	0.008779672
208	0x3d4c1b03	0.049830448
209	0x3e10aea6	0.14129123
210	0x3d72d95f	0.059289332
211	0x3daaaa49	0.083332606
212	0xbe7e6335	-0.24842532
213	0x3e51e8bb	0.20498936
214	0x3e5c02ec	0.2148549
215	0x3e6c72bd	0.23090644
216	0x3e48cb06	0.19608697
217	0xbe4bc194	-0.19898063
218	0xbdd07ab2	-0.10179652
219	0x3e84526c	0.25844133
220	0xbe756f03	-0.23968129
221	0x3e86c9a3	0.26325712
222	0xbe72f932	-0.23727873
223	0xbe54fc90	-0.2079947
224	0x3e193cdb	0.14964621
225	0xbe3f20b8	-0.18664825
226	0xbd52da20	-0.05147755
227	0x3e65d02e	0.22442695
228	0x3e6ecc31	0.2332008
229	0x3e8f6a15	0.28010622
230	0xbd3147b5	-0.043281276
231	0xbe4f71c0	-0.20258236
232	0x3e8c5832	0.27411038
233	0xbd0fdad6	-0.035120808
234	0xbdcabcfb	-0.098993264
235	0x3d5314e0	0.05153358
236	0xbe5b8bc0	-0.21440029
237	0x3e4c2678	0.1993655
238	0x3e424ffe	0.18975827
239	0xbe4f4ec2	-0.20244887
240	0xbe4e2145	-0.20129879
241	0xbbe7ca44	-0.0070736725
242	0x3e0c0ad7	0.1367601
243	0x3c09d8f8	0.008413546
244	0xbdfea2e6	-0.12433414
245	0x3c4b4d36	0.012408545
246	0xbe6f2092	-0.23352268
247	0xbe38d84f	-0.18051265
248	0xbe50adb2	-0.2037876
249	0x3e58ceda	0.21172658
250	0x3e861f26	0.2619564
251	0xbd9f7d40	-0.077875614
252	0x3cdf25c4	0.027239688
253	0x3e1abea2	0.15111783
254	0x3d507579	0.05089328
255	0xbdf1b672	-0.11802377

fc1.bias f4 [128]
0	0x3c99a6ba	0.01875626
1	0x3d807bfc	0.06273648
2	0xbdedfb23	-0.11620166
3	0xbd024234	-0.031801417
4	0x3db745a2	0.08948828
5	0x3e674931	0.22586514
6	0xbe790ea6	-0.24321994
7	0xbc68fbdb	-0.014220203
8	0xbe7417d5	-0.23837216
9	0xbb4e10b9	-0.0031443073
10	0xbc719353	-0.0147445975
11	0xbdcedb80	-0.1010046
12	0x3e2351c4	0.1594916
13	0x3e515ff5	0.20446761
14	0xbdfbd9bc	-0.12297389
15	0xbd032061	-0.0320133
16	0xbdb1ed86	-0.08687882
17	0x3cb27df5	0.021788577
18	0x3ddea6cf	0.1087166
19	0x3e8c5cc0	0.27414513
20	0xbe778d2c	-0.24174947
21	0x3e01688e	0.1263754
22	0xbe3885e4	-0.18019825
23	0xbe772c35	-0.24137957
24	0x3e664246	0.22486219
25	0xbdba1ae0	-0.09087157
26	0xbe2e6a2e	-0.17032692
27	0x3dbc0d3e	0.09182213
28	0xbd209217	-0.039201822
29	0xbe811b7d	-0.25216284
30	0xbe18d9d0	-0.14926839
31	0xbdf9656c	-0.12177548
32	0xbc45c88d	-0.012071741
33	0xbe30e57b	-0.1727504
34	0xbe80a730	-0.25127554
35	0x3e2dd410	0.16975427
36	0xbe6d5103	-0.23175435
37	0xbcc74c7f	-0.024328468
38	0x3e609dca	0.21935192
39	0xbdf5a722	-0.11994769
40	0xbe40ea10	-0.18839288
41	0x3d9c4404	0.076301605
42	0x3e83763a	0.25676137
43	0xbd2567da	-0.040382244
44	0x3bf20719	0.0073861
45	0x3e16abf5	0.14714034
46	0x3d5237c7	0.051322725
47	0x3d58addf	0.05290019
48	0x3e25d976	0.16196236
49	0x3e13a63d	0.14418884
50	0xbe598e0f	-0.21245597
51	0xbe014ce9	-0.12626995
52	0x3e526be3	0.20548968
53	0x3d4382e2	0.04773224
54	0x3da1cdbe	0.0790057
55	0x3e90fa8a	0.28316146
56	0x3e27a69f	0.16372155
57	0x3e02812f	0.12744592
58	0x3e8c5331	0.2740722
59	0xbe7a47f9	-0.24441518
60	0x3d5891c9	0.052873407
61	0x3db85d8c	0.09002218
62	0xbd07b424	-0.03313078
63	0xbe09b6be	-0.13448617
64	0x3d8a23ed	0.067451335
65	0xbe722bc0	-0.23649502
66	0xbe085a90	-0.13315797
67	0x3e4535c8	0.19258797
68	0xbdb20be6	-0.08693676
69	0xbdc96da4	-0.098353654
70	0x3e116529	0.14198746
71	0xbd55314a	-0.05204896
72	0x3d05224a	0.032503404
73	0xbe8fe102	-0.28101355
74	0x3e34d46f	0.17659162
75	0xbe87dc89	-0.26535442
76	0x3d52a38b	0.051425498
77	0xbe840729	-0.25786713
78	0xbe824b84	-0.2544824
79	0x3e78a641	0.24282171
80	0xbe0fe696	-0.14052805
81	0xbbedd728	-0.0072583146
82	0x3c8c88a8	0.017155007
83	0x3e8b655c	0.2722577
84	0x3d8f97ab	0.0701135
85	0x3e1c41a0	0.15259409
86	0xbdd81525	-0.10550908
87	0xbda5a0db	-0.08087321
88	0x3e3dccd5	0.18535168
89	0x3dbb861b	0.09156438
90	0x3d46bd17	0.048520174
91	0xbe433abf	-0.19065379
92	0xbe5910a9	-0.21197762
93	0x3d3fd0c5	0.046829958
94	0xbe67c149	-0.22632326
95	0x3e5e5c5e	0.21714923
96	0x3e7f1896	0.24911723
97	0xbdc7371c	-0.09727308
98	0xbe1c9af9	-0.15293492
99	0x3e91ff7a	0.28515226
100	0xbe049b9f	-0.1294999
101	0xbe50941b	-0.20368998
102	0xbe5fc013	-0.21850614
103	0x3d149949	0.036278997
104	0x3d91da7d	0.071217515
105	0x3e4458a0	0.19174433
106	0x3e64f4a0	0.22358942
107	0x3dd09a16	0.101856396
108	0x3ce9f22b	0.028557857
109	0x3e85de21	0.26146033
110	0xbdd1dd4d	-0.10247288
111	0xbd8714fa	-0.06595798
112	0x3e819853	0.25311527
113	0xbdd2e4e3	-0.10297563
114	0x3e201aa6	0.15635166
115	0x3dadef28	0.08492881
116	0x3dedb53d	0.11606834
117	0xbd7db9e2	-0.06194485
118	0xbe81df4e	-0.2536568
119	0x3e5977f6	0.21237168
120	0x3e705a8c	0.23472041
121	0xbe717a63	-0.23581843
122	0xbde7870e	-0.113050565
123	0x3c418a31	0.011812733
124	0x3e1d612f	0.15369104
125	0xbd30aa95	-0.04313143
126	0xbde3f515	-0.1113073
127	0x3e69ca86	0.22831163

fc2.weight f4 [256, 128]
0	0xbd8118a0	-0.06303525
1	0x3d72c8cd	0.05927353
2	0xbc879430	-0.016550153
3	0x3d599e5c	0.05312954
4	0x3c148041	0.009063781
5	0x3a8225d2	0.0009929484
6	0x3da30e07	0.0796166
7	0x3c58be17	0.013228915
8	0x3d499044	0.049209848
9	0x3c0495db	0.008092369
10	0xbd39c99d	-0.04535829
11	0x3d20bf03	0.039244663
12	0xbd3b0dab	-0.04566733
13	0x3cf69070	0.03009817
14	0xbc1365aa	-0.008996407
15	0x3cc6f831	0.024288269
16	0x3c526cec	0.012843352
17	0xbaedbeee	-0.0018138567
18	0xbd1425f1	-0.036168996
19	0x3caff6bc	0.021479957
20	0x3cd082a8	0.025452927
21	0xbdcc1e63	-0.09966733
22	0x3dc19844	0.094528705
23	0xbd676e30	-0.056501567
24	0xbd2f2e4a	-0.042768754
25	0x3d4b2c42	0.049602754
26	0x3dc21951	0.09477485
27	0x3c500a02	0.012697699
28	0xbd81036e	-0.06299482
29	0x3d13668f	0.03598648
30	0xbd6b150f	-0.05739313
31	0x3d574455	0.0525554
32	0x3c29ef79	0.010372036
33	0xbc4ac742	-0.012376608
34	0xbdb1606a	-0.08660968
35	0x3cecf41d	0.028924996
36	0x3d830835	0.0639805
37	0xbd485952	-0.048913307
38	0x3d481a2a	0.048853077
39	0xbcc83c27	-0.024442745
40	0xbc226c12	-0.009913461
41	0x3d66fc2c	0.056392834
42	0xbdc6b0c7	-0.09701686
43	0xbac3285a	-0.0014889345
44	0x3c1270ea	0.008938054
45	0x3ccdc895	0.025120059
46	0xbd27bb85	-0.040950317
47	0xbd803bfa	-0.062614396
48	0x3b5345dc	0.0032237684
49	0xbdcfa2cf	-0.10138475
50	0x3cdf1673	0.027232384
51	0xbd274a96	-0.040842615
52	0xbcd4a789	-0.025958793
53	0x3dc1cf6b	0.0946339
54	0xbdaee723	-0.085401796
55	0xbd6c8229	-0.057741318
56	0xbda25fd5	-0.07928435
57	0x3d2f8889	0.04285482
58	0x3d9bc38c	0.07605657
59	0xbd2bfc13	-0.041988444
60	0x3d8f3dd0	0.06994212
61	0x3d304efe	0.043044083
62	0xbdbc6510	-0.09198964
63	0x3d48fe3d	0.049070586
64	0x3cab0d34	0.02088032
65	0xbac70f43	-0.0015187043
66	0x3da08f41	0.078398235
67	0x3c0a84d5	0.008454521
68	0xbcdc71f9	-0.026909815
69	0x3d7ecee7	0.062209036
70	0xbdbb964b	-0.091595255
71	0xbdd7f49a	-0.10544701
72	0x3ad6ccb5	0.0016387912
73	0x3d0083ee	0.031375818
74	0xbc28a49d	-0.010293153
75	0xbd51fe95	-0.05126818
76	0x3d60dd91	0.054898802
77	0xbd945ad2	-0.07243885
78	0xbcb9f782	-0.022701029
79	0xbdc6a63e	-0.09699677
80	0xbde15cc2	-0.1100402
81	0x3d074a29	0.03302971
82	0xbd564dbb	-0.052320223
83	0x3d268b4e	0.040660195
84	0x3dd107ab	0.10206541
85	0x3c8882b2	0.016663883
86	0x3d87e517	0.06635492
87	0xbd954678	-0.072888315
88	0x3d340439	0.04394934
89	0x3d6113fd	0.054950703
90	0xbd080573	-0.03320832
91	0xbcb3e37a	-0.021959055
92	0xbd888f4a	-0.06667955
93	0x3ce16f55	0.027518908
94	0xbd8f01dd	-0.06982777
95	0xbd98aa85	-0.07454399
96	0xbdbb5524	-0.09147099
97	0xbcf5d17c	-0.030007116
98	0x3b3de8c9	0.0028977862
99	0xbdac9a58	-0.08427876
100	0xbd46cee5	-0.048537154
101	0x3d0e19c4	0.03469254
102	0x3ca4540c	0.020059608
103	0x3d0ebc13	0.03484733
104	0xbd536d6a	-0.051618017
105	0xbd1c8b1e	-0.03821861
106	0xbdb38401	-0.08765412
107	0x3dcc60b8	0.09979385
108	0x3ccf7139	0.025322543
109	0x3cbd99cf	0.02314463
110	0x3d0f0a52	0.03492195
111	0x3da3d633	0.0799984
112	0xbda5fd44	-0.08104947
113	0x3cc8c1b3	0.024506425
114	0xbdc0bfa0	-0.094115496
115	0x3c6972d3	0.014248568
116	0xbd819c4c	-0.063286394
117	0x3c87531d	0.016519124
118	0xbd38ba81	-0.04509974
119	0x3d5262db	0.051363807
120	0x3d90efc8	0.07076985
121	0x3d73a29f	0.05948126
122	0xbdba5451	-0.09098113
123	0x3d740574	0.059575513
124	0xbd8a3304	-0.06748012
125	0xbdbfee67	-0.093716435
126	0x3d6d0462	0.057865508
127	0x3baf6750	0.005352892
128	0xbd47cbfb	-0.048778515
129	0xbdc90f5d	-0.098173834
130	0x3ba85b96	0.005137871
131	0xbd0d948a	-0.034565486
132	0xbda361ef	-0.07977664
133	0xbcc88c71	-0.02448103
134	0xbd7dd031	-0.061966125
135	0x3d77161d	0.060323823
136	0xbd8e2d54	-0.069422394
137	0xbd502d36	-0.050824367
138	0xbda45241	-0.08023501
139	0xbcffdec9	-0.031234162
140	0xbc21e09a	-0.009880209
141	0x3d0a09b2	0.033700652
142	0xbc4a9e69	-0.0123668695
143	0x3d718324	0.058962956
144	0x3dd37d67	0.10326653
145	0xb793a4d5	-1.7600521e-05
146	0xbd2142a8	-0.03937021
147	0xbdb1f858	-0.08689946
148	0xbd9dcb30	-0.077047706
149	0xbd4070ca	-0.046982564
150	0xbd23435e	-0.03985917
151	0x3d777797	0.060416784
152	0xbd0149bf	-0.03156447
153	0x3c2f4fa8	0.010700144
154	0x3c7b719f	0.015346914
155	0xbdbaceba	-0.09121461
156	0x3d71312d	0.05888479
157	0xbc5c683f	-0.013452589
158	0xbd978542	-0.07398464
159	0x3bfa8a3b	0.007645873
160	0xbd9aea27	-0.07564192
161	0xbc1bd255	-0.009510596
162	0xbd9e1f16	-0.07720773
163	0xbd16b9d4	-0.036798313
164	0xbd38f0ee	-0.045151643
165	0x3da26968	0.07930261
166	0x3db098c8	0.08622891
167	0x3dce63ff	0.100776665
168	0x3cb5c318	0.022187755
169	0x3d0f9041	0.03504968
170	0xbdb05317	-0.08609598
171	0xbd37de10	-0.04488951
172	0x3cc2427f	0.023713348
173	0x3bb72c25	0.0055899792
174	0x3ca30070	0.01989767
175	0x3d1a4b78	0.03766963
176	0x3d2bd511	0.041951243
177	0x3caa0eac	0.02075895
178	0xbc93d9b8	-0.018048152
179	0xbc6c2746	-0.01441366
180	0x3c35f40f	0.011105551
181	0x3db1d620	0.08683419
182	0xbc926f08	-0.01787521
183	0xbd1f77bb	-0.038932543
184	0x3d217eda	0.039427616
185	0x3d504939	0.05085108
186	0x3b8bd0ae	0.00426682
187	0xbc43e701	-0.011956931
188	0xbd9aa0cc	-0.07550201
189	0xbbe67e16	-0.0070340736
190	0x3c4206a2	0.011842402
191	0xbd3e70ea	-0.046494402
192	0xbdaa470d	-0.08314333
193	0xbd9a12c3	-0.0752311
194	0x3db489bd	0.08815334
195	0x3dc271c0	0.09494352
196	0x3d960d6d	0.073267795
197	0x3db90154	0.090334564
198	0xbc970572	-0.018435214
199	0x3cadef77	0.02123235
200	0x3d1f0b13	0.03882892
201	0xbadff95d	-0.0017087866
202	0xbd8907b3	-0.06690922
203	0x3d94aa2e	0.07259022
204	0xbcb930ff	-0.022606371
205	0x3c847db8	0.016173229
206	0xbcd2f02c	-0.025749288
207	0xbd8dee78	-0.0693025
208	0xbd1eb35b	-0.038745265
209	0x3c47f81b	0.012205149
210	0x3d1800e0	0.03711021
211	0x3d38b418	0.045093626
212	0x3b9fcc46	0.004876646
213	0x3d9c5b2d	0.07634578
214	0xbd673e71	-0.056456033
215	0xbb517603	-0.003196121
216	0xbd7f9d12	-0.062405653
217	0x3ca828b1	0.020527216
218	0x3dac606d	0.08416829
219	0xbdb47406	-0.08811192
220	0x3c09a194	0.00840034
221	0xbd80d847	-0.06291252
222	0xbbe41899	-0.00696094
223	0xbd85d759	-0.06535215
224	0xbc655620	-0.013997585
225	0xbda32a43	-0.07967045
226	0x3c4fbf65	0.012679909
227	0xbdc2eeab	-0.095181786
228	0x3b829d3d	0.0039860294
229	0xbd55bc7f	-0.052181717
230	0xbd193394	-0.037402704
231	0x3dc02fc9	0.09384114
232	0xbad61134	-0.0016332031
233	0xbd8dd7fd	-0.06925962
234	0xbd6b5a63	-0.057459246
235	0xbcba0e68	-0.022711948
236	0xbd1c82c7	-0.038210656
237	0xbbc6e987	-0.006070319
238	0xbc7246dc	-0.014787402
239	0x3da3fdbf	0.080073826
240	0xbc8684de	-0.016420778
241	0xbd4a3480	-0.049366474
242	0x3d75c5de	0.060003154
243	0x39b87019	0.00035178734
244	0xbd161f83	-0.036651146
245	0x3d3b727a	0.04576347
246	0x3dbdb58c	0.09263143
247	0xbd88e2c4	-0.06683877
248	0xbd8c5e7d	-0.0685396
249	0xbd3ce4cc	-0.046116635
250	0xbdbc3077	-0.091889314
251	0xbc9de96b	-0.019276341
252	0x3cbbd741	0.02292979
253	0xbdbb9c05	-0.09160618
254	0xbdacc980	-0.084368706
255	0xbdacb07e	-0.08432101

fc2.bias f4 [256]
0	0x3d872c4e	0.06600247
1	0xbd87fed2	-0.066404
2	0xbd65316d	-0.05595534
3	0x3c9cb917	0.019131226
4	0xbaa24914	-0.0012381398
5	0xbdcb9303	-0.0994015
6	0x3cab56b7	0.020915372
7	0x3d94c696	0.0726444
8	0xbd994049	-0.074829645
9	0xbd8a705e	-0.067597136
10	0x3d7cdd62	0.061734565
11	0xbd9b4264	-0.075810224
12	0xbcb14995	-0.021641532
13	0x3c215266	0.0098463055
14	0x3d9f37d2	0.07774319
15	0xbc7c9866	-0.015417194
16	0xbd7e5dba	-0.062101103
17	0x3d79e36f	0.061007913
18	0xbc8901ce	-0.016724493
19	0xbd761067	-0.060074236
20	0x3cde4b33	0.027135467
21	0xbb8709ed	-0.0041210563
22	0x3dbf037f	0.09326839
23	0x3a7cd910	0.0009645382
24	0xbcf8dcb2	-0.030378673
25	0x3c02d69a	0.007985735
26	0x3b48d5df	0.0030645055
27	0xbc82aac6	-0.015950572
28	0xbdc1b2a4	-0.09457901
29	0xbb735772	-0.003713098
30	0x3d9c02dc	0.07617733
31	0xbcb9b48f	-0.022669105
32	0x3d49c5ed	0.049261022
33	0xbd4d89ac	-0.050180122
34	0xbc40f2e5	-0.011776661
35	0x3db30f37	0.087431364
36	0x3dc45d97	0.09588163
37	0x3da4e784	0.080519706
38	0xbdb3248a	-0.08747204
39	0xbd3f6b3b	-0.046733122
40	0xbb9b4b53	-0.004739204
41	0xbd7cadd0	-0.061689198
42	0x3d6870d0	0.05674821
43	0x3c495bb6	0.012289932
44	0xbd227ae9	-0.039667998
45	0xbd90b89d	-0.07066462
46	0x3db4dfc9	0.08831746
47	0x3d04406c	0.032288
48	0xbad57aed	-0.0016287245
49	0xbdb063bc	-0.08612773
50	0x3d826945	0.06367735
51	0x3d686416	0.056736074
52	0x3d28d86c	0.04122202
53	0xbb8de2dd	-0.0043300227
54	0xbc832115	-0.016006986
55	0x3cd7b9ef	0.026333777
56	0xbcec4f98	-0.028846547
57	0xbcf4c17a	-0.029877413
58	0x3d13bb4b	0.03606729
59	0xbcb30da9	-0.0218571
60	0x3d85aa1d	0.06526587
61	0xbdc3124d	-0.09524975
62	0xbd180ccf	-0.03712159
63	0x3c51ff59	0.012817227
64	0xbdb74fbb	-0.08950754
65	0x3d053f2e	0.032530956
66	0xbd987c4c	-0.07445583
67	0xbd6540fc	-0.055970177
68	0x3c98a599	0.01863365
69	0x3cd41f38	0.025893793
70	0x3d8ccc8f	0.06874954
71	0x3d808ba9	0.06276638
72	0xbd20564b	-0.039144795
73	0xbd68ec27	-0.056865837
74	0x3db8a873	0.09016504
75	0x3ce72f2c	0.028220735
76	0xbccdd484	-0.02512575
77	0xbdae2ea1	-0.085049875
78	0x3a0db521	0.00054057135
79	0xbd70002e	-0.05859392
80	0x3d07372f	0.03301161
81	0x3cb96d43	0.022635108
82	0x3d759ef4	0.059966043
83	0xbcd7f00f	-0.026359586
84	0x3c15aaa2	0.00913492
85	0xbd381cb2	-0.04494924
86	0x3d8b1d52	0.06792702
87	0xbd9eeb29	-0.07759697
88	0x3cc24717	0.023715539
89	0xbb177f6d	-0.0023116723
90	0xbd980e26	-0.074245736
91	0x3dd1edd6	0.10250442
92	0x3d760a7c	0.060068592
93	0x3cfb75e3	0.030695861
94	0xbd96b089	-0.0735789
95	0x3d07e1cd	0.033174325
96	0xbdba4ebd	-0.090970494
97	0x3d9039e2	0.0704229
98	0x3be5f898	0.00701816
99	0xbd9d96bf	-0.07694768
100	0xbcc540c4	-0.024078734
101	0x3d89c2e0	0.067266226
102	0x3d9c1043	0.07620289
103	0xbcc7d2b3	-0.024392461
104	0x3ca1d921	0.019756855
105	0xbd4c9f23	-0.049956452
106	0x3d99b8f3	0.075059794
107	0xbc7d141a	-0.015446687
108	0xbce6cadb	-0.0281729
109	0xbaf3b84e	-0.0018594356
110	0x3b3c7ebf	0.002876207
111	0x3c27833c	0.01022416
112	0x3c54a427	0.01297859
113	0xbd295390	-0.041339457
114	0x3d2e88ac	0.04261081
115	0x3c9c0407	0.01904489
116	0x3d347cfd	0.04406451
117	0x3c8ee118	0.017441317
118	0x3dc50e67	0.09621888
119	0xbdbdabe0	-0.09261298
120	0x3db20961	0.08693195
121	0xbbd9dac7	-0.0066483947
122	0xbdc3086c	-0.09523091
123	0xbb32c166	-0.002727592
124	0xbd8b15f3	-0.06791296
125	0x3bc52f46	0.0060175983
126	0x3d7140dc	0.058899745
127	0xbd800a82	-0.06252004
128	0xbd3a9174	-0.04554887
129	0x3dabb742	0.08384563
130	0x3cc5f99e	0.024166878
131	0x3d59340d	0.053028155
132	0xbd38ae3f	-0.04508805
133	0xbcbb676a	-0.02287646
134	0xbd3ef500	-0.04662037
135	0xbc63418f	-0.013870611
136	0xbd518a52	-0.051157303
137	0xbd9d6589	-0.07685382
138	0xbc1ef60e	-0.009702219
139	0x3d52d1e3	0.051469695
140	0x3d8b22ba	0.06793733
141	0x3d91e211	0.07123197
142	0x3d9a4c97	0.075341396
143	0xbd1a4d96	-0.037671648
144	0xbd2e227c	-0.042513356
145	0x3dcd87c9	0.100356646
146	0xbdcb26e0	-0.09919524
147	0x3b6c4cd5	0.0036056538
148	0xbc8c34bf	-0.017114995
149	0xbc98444b	-0.018587252
150	0x3d0c7e99	0.03430042
151	0xbd81b4fa	-0.06333347
152	0xbcd3dc99	-0.025862025
153	0x3d65bd39	0.05608866
154	0x3db85b9e	0.090018496
155	0xbcd7d532	-0.026346777
156	0xbd691c9c	-0.05691205
157	0x3c333ba1	0.01093951
158	0xbcba5518	-0.022745654
159	0x3ac3114a	0.0014882472
160	0x39e69830	0.00043982407
161	0xbd460f34	-0.048354343
162	0x3da736f3	0.081647776
163	0x3d9ce0ef	0.0766009
164	0xbd8dc2bf	-0.069219105
165	0x3d220092	0.039551325
166	0xbd66b1f2	-0.056322046
167	0xbcec8c2c	-0.028875433
168	0x3d6976d4	0.05699809
169	0xbd9c42cd	-0.07629929
170	0xbdb42197	-0.08795469
171	0x3d784781	0.060615066
172	0xbc72488a	-0.0147878025
173	0x3d29306d	0.041305948
174	0x3d211f71	0.039336625
175	0x3ce58c63	0.028021043
176	0xbc449f55	-0.012000878
177	0xbd8e3a0d	-0.06944666
178	0x3d65b4b1	0.056080524
179	0xbd881df0	-0.06646335
180	0x3d5dca46	0.05414798
181	0x3c9f67f7	0.019458754
182	0xbdca8939	-0.098894544
183	0xbbfad016	-0.0076542003
184	0x3d1af7f6	0.03783413
185	0x3b89b4eb	0.0042024753
186	0xbd5e3aaf	-0.054255184
187	0xbc38729e	-0.011257796
188	0xbc40e996	-0.011774441
189	0xbc85e71b	-0.016345551
190	0xbd3af9f0	-0.045648515
191	0xbd120d36	-0.03565713
192	0xbce68838	-0.028141126
193	0x3d396487	0.045261886
194	0x3c07d84d	0.008291316
195	0xbd72e159	-0.05929694
196	0xbcde6ab7	-0.027150495
197	0x3d8c9d40	0.068659306
198	0x3bf526da	0.007481438
199	0x3d990087	0.07470804
200	0xbd6be342	-0.057589777
201	0x3dcc485a	0.099747375
202	0x3c3231c4	0.010876123
203	0x3d6b0d1d	0.057385553
204	0x3b3db889	0.0028949103
205	0x3d5006d3	0.050787758
206	0x3d841a63	0.06450345
207	0xbcd55199	-0.026039885
208	0x3c68c663	0.014207455
209	0xbd946999	-0.07246704
210	0x3d13c4aa	0.036076225
211	0x3cf1a49e	0.02949744
212	0xbd21d5c9	-0.039510522
213	0xbd9dfc0e	-0.07714091
214	0xbb0227c7	-0.0019860135
215	0xbd8751c2	-0.06607391
216	0x3bd33fb0	0.006446801
217	0x3d856c7c	0.065148324
218	0x3bcb3175	0.006200964
219	0xbc3098ef	-0.01077865
220	0x3d770fe1	0.060317878
221	0xbd84adfb	-0.06478497
222	0x3d3c523f	0.045976873
223	0xbc165f08	-0.009177931
224	0x3d707699	0.058706854
225	0xbcf1a106	-0.029495727
226	0xbd54e2b0	-0.051974
227	0xb97fc464	-0.00024391856
228	0xbb00da1b	-0.001966125
229	0xbc6c494b	-0.014421771
230	0xbd2c8d37	-0.04212686
231	0x3d0f8067	0.035034563
232	0x3d9316a5	0.071820535
233	0x3bd6228d	0.0065348805
234	0xbcea993d	-0.028637523
235	0x3d26b0f0	0.040696084
236	0xbd0a9d14	-0.033841208
237	0x3d89cda0	0.06728673
238	0x3d5dac18	0.0541192
239	0x3ba199e3	0.004931675
240	0xbd278aba	-0.040903784
241	0x3d88bf8b	0.06677159
242	0xbcd9c1d1	-0.026581677
243	0x3cf9f5db	0.03051274
244	0xbd8ada07	-0.06779867
245	0x3d0a938f	0.03383213
246	0xbdb9aaa1	-0.09065748
247	0xbd9763ab	-0.07392057
248	0x3db09e68	0.086239636
249	0x3d0197c9	0.031638894
250	0x3d8a96d3	0.06767049
251	0x3d9f587f	0.07780551
252	0xbcedf3c5	-0.029046902
253	0xbce4b56f	-0.027918546
254	0xbda76015	-0.08172623
255	0xbd1f2ce3	-0.038861167

fc3.weight f4 [32, 256]
0	0xbca7318c	-0.020409368
1	0x3d7f7130	0.062363803
2	0x3c45718b	0.012050997
3	0xbd254572	-0.04034943
4	0xbd22aa3f	-0.03971314
5	0x3d14e560	0.03635156
6	0x3c82a5f5	0.015948275
7	0xba89ebf4	-0.001052259
8	0xbd16fb81	-0.036860947
9	0xbcc49fec	-0.024002038
10	0x3c30cf11	0.010791556
11	0x3d177e38	0.036985606
12	0xbc3a68bf	-0.0113775125
13	0xbb07654c	-0.0020659743
14	0xbd8e7348	-0.06955582
15	0x3c98b220	0.018639624
16	0x3ca83a48	0.020535603
17	0x3c81607b	0.015793076
18	0x3d66b6de	0.05632674
19	0x3c841fdb	0.016128471
20	0x3cbeb2aa	0.023278553
21	0xbd15aa50	-0.036539376
22	0x3bea67fc	0.007153509
23	0x3bf21cfa	0.007388708
24	0x3d4cfefe	0.050047867
25	0xbba8a47f	-0.0051465626
26	0xbd0d4a3a	-0.034494616
27	0xbabe64ce	-0.0014525892
28	0xbc102fcb	-0.008800457
29	0x3c64a21b	0.013954665
30	0xbd209b31	-0.039210502
31	0xbcad4c5f	-0.02115458
32	0x3d75d1de	0.060014598
33	0x3bc2433b	0.0059284247
34	0xbd228e4e	-0.039686494
35	0xbafd2ae4	-0.001931515
36	0xbc98f82f	-0.01867303
37	0xbd867b5e	-0.06566499
38	0x3c5860ed	0.013206703
39	0xbc49b0ee	-0.01231025
40	0xbc629ff4	-0.013832081
41	0x3b966a52	0.004590311
42	0xbda1964d	-0.07889996
43	0xbcde7843	-0.027156955
44	0xbc6fe983	-0.014643076
45	0x3c002bb9	0.007822924
46	0x3d36b274	0.04460378
47	0xbd495c4e	-0.049160294
48	0xbd3a4d1c	-0.045483693
49	0x3d864a66	0.06557159
50	0x3baf92de	0.005358084
51	0xbb3d88d8	-0.0028920677
52	0x3be11bda	0.0068697752
53	0xbd4c4392	-0.049869128
54	0xbd82f843	-0.063950084
55	0x3bd2e783	0.0064362898
56	0x3cb53dba	0.02212416
57	0x3cb51ae0	0.022107542
58	0x3d4ff662	0.05077208
59	0xbd1767ee	-0.03696435
60	0x3cb0ec77	0.02159713
61	0x3cd11d49	0.02552666
62	0x3d385970	0.04500717
63	0xbd172883	-0.03690387
64	0x3b7f5172	0.0038958457
65	0x39e4eb63	0.00043662926
66	0xbc8d82e9	-0.017274337
67	0x3cc856bf	0.024455426
68	0x3c8a7796	0.016902726
69	0x3c07c51f	0.008286743
70	0xbd36dc71	-0.044643823
71	0xbd77f9ed	-0.060541082
72	0x3cb4f40e	0.02208903
73	0x3d6a2da2	0.057172425
74	0xbd3d9f2d	-0.04629438
75	0xbd819882	-0.06327917
76	0xbce7fd4f	-0.02831903
77	0x3d60a89a	0.05484829
78	0xbc8cbc35	-0.017179588
79	0xbd43bc74	-0.047787145
80	0x3d3095bc	0.043111548
81	0xbcb4d73e	-0.022075292
82	0xbc8ab00a	-0.016929645
83	0x3cdbdb1c	0.026837878
84	0xbbf4b36d	-0.0074676783
85	0x3d8f874a	0.07008226
86	0xbd5d1479	-0.053974602
87	0x3d376fda	0.044784404
88	0x3d2fc568	0.04291287
89	0xbd8abea0	-0.0677464
90	0xbbaabd97	-0.005210589
91	0x3ca2d52f	0.019877044
92	0x3d2998fc	0.041405663
93	0x3d136565	0.03598537
94	0xbd3df35f	-0.046374675
95	0x3d456c4b	0.04819898
96	0x3c7e8a0c	0.015535843
97	0x3d15e46b	0.03659479
98	0x3d3661e7	0.04452696
99	0x3d21ebd2	0.039531536
100	0xbb8324c5	-0.004002186
101	0x3d06dc3e	0.032924883
102	0xbc6fd619	-0.014638447
103	0xbc8f64ca	-0.017504115
104	0xbcd58254	-0.026063122
105	0xbced6e58	-0.02898328
106	0x3d583d29	0.052792702
107	0x3d5aba6a	0.053400435
108	0xbcc29dc7	-0.023756875
109	0xbd727bc9	-0.059200082
110	0x3d47f396	0.048816286
111	0x3b4d8b2e	0.0031363475
112	0xbc07df89	-0.008293041
113	0xbd2e5bfe	-0.0425682
114	0x3d4f1671	0.05055851
115	0xbd5b981c	-0.05361186
116	0x3d218750	0.039435685
117	0xbd39a26b	-0.04532091
118	0xbcf51946	-0.029919278
119	0x3d56860f	0.052373942
120	0x3d37d7cc	0.044883534
121	0xbcbf15e7	-0.023325874
122	0x3d3c56ea	0.045981325
123	0x3d02745c	0.03184925
124	0xbd116915	-0.035500605
125	0x3c05e6e8	0.008172728
126	0x3d509d12	0.050931044
127	0xbc3a4eee	-0.011371357
128	0xbd2fd3e2	-0.042926677
129	0xbd81b9de	-0.063342795
130	0x3cb5e25c	0.022202663
131	0xbd86a560	-0.065745115
132	0xbd31485b	-0.043281894
133	0x3d05bede	0.03265273
134	0xbd0cb790	-0.034354746
135	0xbd471d81	-0.04861212
136	0x3d054cd8	0.032543987
137	0x3bc77cc6	0.006087872
138	0x3d131cdf	0.035916205
139	0x3c8eae39	0.01741706
140	0x3cbca441	0.023027541
141	0x3d55c16b	0.05218641
142	0x3d5e6e8c	0.054304644
143	0x3a4c5c8f	0.0007795775
144	0xbd57ac53	-0.052654576
145	0xbd5bbda7	-0.053647663
146	0x3cc0ec95	0.023550311
147	0xbcc65050	-0.024208218
148	0xbd926945	-0.07148985
149	0xbd400738	-0.046881884
150	0x3d4e3b28	0.050349385
151	0xbc4f3e85	-0.012649183
152	0xbcdf35cb	-0.02724733
153	0xbd15f65c	-0.0366119
154	0x3d51d742	0.051230676
155	0x3d1ccee1	0.038283233
156	0x3d933c46	0.071892306
157	0xbbd6f50f	-0.006559975
158	0xbd97c3b2	-0.07410373
159	0xbc278ee7	-0.010226942
160	0xbca2795a	-0.019833256
161	0xbd2d34d7	-0.04228672
162	0x3d01a2d3	0.031649422
163	0xba9e71ab	-0.0012088319
164	0x3d1abdc0	0.037778616
165	0x3a39d61e	0.0007089096
166	0x3c5e53ac	0.013569754
167	0x3c5ee8c1	0.013605298
168	0x3bcbb35c	0.0062164497
169	0x3cd7b02e	0.026329126
170	0x3d6d896c	0.057992384
171	0xbb91fe89	-0.004455392
172	0x39a3983c	0.00031203206
173	0xbbc2d3cf	-0.0059456597
174	0xbd4d9a2e	-0.050195865
175	0xbce0f53b	-0.027460685
176	0xbcc2a20e	-0.023758914
177	0xbd845d40	-0.064630985
178	0xbcaaa8ba	-0.020832408
179	0x3c472abb	0.012156184
180	0x3d567dd8	0.052366108
181	0x3bd7a1ac	0.006580552
182	0x3d6fdd82	0.058560856
183	0x3d52153b	0.05128978
184	0x3c22cd4f	0.009936645
185	0xbd7b7146	-0.061387323
186	0x3d3030e0	0.04301536
187	0xbd1f4bd8	-0.03889069
188	0xbd1a1ae4	-0.0376233
189	0x3cda7f61	0.026672067
190	0xbc285f73	-0.010276663
191	0x3cc0a475	0.02351592
192	0xbd92c66b	-0.071667515
193	0x3d0e7c46	0.034786485
194	0xbc699a06	-0.014257913
195	0x3d2ac840	0.04169488
196	0x3cc7cf70	0.024390906
197	0x3af65494	0.0018793517
198	0xbd9a2d45	-0.07528166
199	0x3ca75502	0.020426277
200	0x3d10cea0	0.035353303
201	0xbd7c653e	-0.06161999
202	0xbd1e74d6	-0.038685642
203	0xbd6d511d	-0.057938684
204	0xbd4901ac	-0.04907386
205	0xbcbcd17c	-0.023049109
206	0x3d109c93	0.03530557
207	0xbd333154	-0.043748215
208	0xbd58b38a	-0.052905597
209	0x3d0b7903	0.034050953
210	0x3d40b6b3	0.047049236
211	0x3c81e5d9	0.01585667
212	0xbd8ec4da	-0.0697114
213	0x3c927e51	0.017882498
214	0xbc8e6c49	-0.017385619
215	0xbcb53564	-0.022120185
216	0x3d45ee37	0.048322883
217	0x3cf1772d	0.029475773
218	0xbd592f3d	-0.053023566
219	0xbcd887c7	-0.026431931
220	0xbd120aa6	-0.035654686
221	0xbb5368b1	-0.0032258446
222	0x3b6e5952	0.0036369157
223	0xbcd27560	-0.025690734
224	0x3d7ad3f4	0.06123729
225	0xbd71aa9c	-0.059000596
226	0x3d6433d3	0.055713486
227	0xbd388a9f	-0.045054074
228	0xbbfbaf8d	-0.0076808394
229	0xbd4a7df5	-0.04943653
230	0xbd2f8c6f	-0.042858537
231	0xbd889495	-0.06668965
232	0x3cc1879f	0.02362424
233	0x3cbfa33a	0.023393262
234	0xbd47525f	-0.04866254
235	0xbc61093d	-0.013735113
236	0xbd316482	-0.043308742
237	0xbc64092b	-0.013918201
238	0x3bd44aa2	0.0064786235
239	0xbcee678a	-0.029102106
240	0xbd44be62	-0.048033126
241	0xbd87bc6b	-0.06627735
242	0xbd23b642	-0.039968736
243	0xbc9b462e	-0.018954363
244	0x3ca2d07b	0.019874802
245	0x3bfcf9d3	0.007720211
246	0xbb6e7deb	-0.003639097
247	0x3c2f8cf3	0.010714757
248	0xbd8fbdd2	-0.07018627
249	0xbc186a4d	-0.009302688
250	0xbbf59e3d	-0.00749567
251	0xbcced7c2	-0.025249366
252	0xbcc10a03	-0.023564344
253	0xbc19eeaa	-0.009395281
254	0x3d6ebeb3	0.058287334
255	0x3cc101b8	0.02356039

fc3.bias f4 [32]
0	0x3b13a9d2	0.002253164
1	0x3d005152	0.031327553
2	0xbd4001fd	-0.046876896
3	0xbc8aa7cd	-0.016925717
4	0xbb7d5068	-0.0038652662
5	0xbd762f41	-0.06010366
6	0xbcc31f62	-0.023818675
7	0x3d34796b	0.044061106
8	0x3d5494a9	0.051899586
9	0xbcbd3d90	-0.023100644
10	0xbd4156e0	-0.04720199
11	0x3d39a444	0.04532267
12	0xbbd2124d	-0.006410873
13	0xbd31bf31	-0.043395225
14	0x3cc4a30d	0.02400353
15	0xbd0df35c	-0.034655914
16	0x3d70964b	0.05873708
17	0xbc80af67	-0.015708638
18	0x3d24baf1	0.040217344
19	0xbd160df2	-0.036634393
20	0x3c103bbd	0.008803305
21	0xbd34aa4d	-0.044107724
22	0x3d32b7d4	0.043632343
23	0xbd70139d	-0.058612455
24	0x3d22278f	0.039588507
25	0x3aa609b4	0.0012667687
26	0xbd09c7d1	-0.033637825
27	0xbca5e702	-0.020251755
28	0xbcbc1dcd	-0.022963429
29	0xbd08bfc8	-0.03338602
30	0x3d5e6bc2	0.054301985
31	0x3d6b0dab	0.05738608

output.weight f4 [1, 32]
0	0x3e3a2c71	0.18181016
1	0xbe3e1827	-0.18563901
2	0xbe09b128	-0.13446486
3	0xbc8b9363	-0.017038053
4	0x3daa6cee	0.08321558
5	0x3dcb31d1	0.09921611
6	0xbe3ea0dd	-0.18616052
7	0xbdf1c0f2	-0.118043795
8	0x3e2d42fd	0.16920085
9	0x3e0052cd	0.12531586
10	0xbe2a72f8	-0.1664542
11	0x3dcf39bf	0.10118436
12	0x3dc82e46	0.09774451
13	0x3de39b99	0.11113662
14	0x3d9a9b84	0.075491935
15	0x3cf429d6	0.029805105
16	0xbd9bb2a4	-0.07602432
17	0x3e1abe82	0.15111735
18	0x3e16be2f	0.14720987
19	0xbd62a6bd	-0.055334795
20	0xbe338a7d	-0.17533298
21	0xbe431daf	-0.19054292
22	0x3e413ed2	0.1887162
23	0x3db1ae97	0.086758785
24	0x3e13439c	0.1438126
25	0xbd293259	-0.04130778
26	0x3e2d6b14	0.16935378
27	0xbdab041d	-0.08350394
28	0xbd85e2f3	-0.06537428
29	0xbe3d3164	-0.18475872
30	0xbe00a0e2	-0.12561372
31	0xbd0db697	-0.03459796
