result/occur/921/1000/Train_921_under_1000_256_256_32_0.0004_128_2_0.pth (torch, 313519 bytes, 7 tensors)

fc1.weight f4 [256, 13]
0.1539741 -0.1392847 -0.06676832 0.14243199 -0.24954598 0.17600872 -0.040330335 0.1535199
0.052803982 -0.022123624 0.08868435 0.018063249 0.1195286 -0.10491088 -0.024039578 -0.027927019
0.04309718 0.0019447702 0.2455317 0.08985255 -0.09925895 -0.16471745 -0.043201882 -0.11655268
-0.08660339 0.01687692 0.17016153 0.14352427 -0.274556 0.17804554 0.0828665 0.26682824
0.19516061 -0.24648884 -0.2558742 -0.1281202 0.24909262 -0.050532956 0.13083896 -0.13206416
0.2707932 -0.11601045 0.20304015 -0.00071963645 -0.15180323 0.13395141 -0.14932525 0.07500186
-0.08382567 -0.03450489 -0.26255542 -0.14121497 0.15976642 -0.07586746 0.27091673 0.2331623
-0.0030482935 -0.1766624 0.18673658 0.09650078 -0.16619627 0.1903685 0.17850812 0.24498971
-0.13686402 -0.05335611 -0.006393707 0.036506884 -0.21761647 -0.20428787 0.14298303 -0.06960024
0.12827045 0.00995411 0.08364714 0.0535787 0.09148309 0.13374566 -0.26930386 0.14282878
-0.18233295 -0.2226866 0.003972547 -0.060424954 0.14539611 -0.17365041 -0.26109535 0.1886538
-0.054201584 0.14926979 0.07111611 -0.21431744 0.068731084 0.07248245 -0.19296393 -0.13833311
0.08890034 0.03679188 -0.1260716 -0.0930262 0.24692473 -0.058226652 0.15843919 0.10725605
-0.17491807 -0.2466914 0.26007158 0.019707076 0.19483559 0.059382115 0.101302154 0.21273087
0.26998606 -0.17899472 0.03953788 0.20256473 0.21253161 0.16990463 -0.20761357 -0.20677133
-0.16835897 0.03318613 0.27495974 -0.17162578 0.14627619 -0.15192516 -0.26232255 -0.060384642
0.15393405 0.26220086 -0.16122378 0.062081903 0.24580762 0.19467564 0.18383895 0.20762146
0.18306571 0.08123625 -0.17945366 -0.22193548 -0.11609491 -0.023570614 -0.16225177 0.10146564
0.0807295 -0.06992315 0.1091106 0.09070807 0.16861245 0.19886494 -0.09317903 0.27608886
-0.030855589 -0.00828747 -0.27344102 -0.16650526 -0.17296489 -0.10655586 0.20327197 -0.102663465
-0.21865818 0.09613596 0.071184784 0.1674804 -0.15740715 0.048462313 -0.1125232 -0.06509911
-0.2392914 -0.12301176 -0.092799805 0.10472926 0.05502832 0.072332 0.2787417 0.27886862
0.19440487 0.015194583 -0.1876193 0.2207374 -0.07399602 -0.012840971 -0.24823043 -0.043061074
-0.17152646 0.2446947 -0.24948217 -0.2238893 -0.022596782 -0.16060174 0.08802512 -0.11664175
-0.14012285 0.012698029 0.1868963 -0.19188973 0.1254536 0.17208081 0.27622083 -0.19017339
0.071639456 -0.19394998 0.2416263 -0.10027901 0.17141707 0.012445986 -0.026811203 0.0031145841
0.042561427 0.129979 0.050997727 0.078166686 -0.254876 0.19759154 0.22601321 0.22514027
0.196507 -0.20554042 -0.10824367 0.24679334 -0.22773607 0.2631327 -0.23465146 -0.21052577
0.14846084 -0.187195 -0.0515785 0.21992794 0.23237373 0.27709588 -0.043950774 -0.20328264
0.27860242 -0.03992523 -0.10533183 0.05878662 -0.20766944 0.1925158 0.1832411 -0.20781887
-0.20941232 -0.013866555 0.12872007 0.0018520382 -0.1309455 0.006105407 -0.24198337 -0.18501842
-0.19604607 0.22178392 0.25647116 -0.08279542 0.02310533 0.1407109 0.0451912 -0.12527367
00000000: 63ab 1d3e a6a0 0ebe d4bd 88bd b1d9 113e
00000010: fb88 7fbe a13b 343e 6c31 25bd 5234 1d3e
00000020: fd48 583d 9a3c b5bc 24a0 b53d 61f9 933c
00000030: 69cb f43d 84db d6bd a6ee c4bc 34c7 e4bc
00000040: ab86 303d a9e7 fe3a a96c 7b3e 9d04 b83d
00000050: 4748 cbbd b1ab 28be 75f4 30bd 2cb3 eebd
00000060: 1e5d b1bd 7741 8a3c d33e 2e3e 07f8 123e
00000070: 9b92 8cbe 9251 363e e9b5 a93d b69d 883e
00000080: 2fd8 473e 9267 7cbe f101 83be f131 03be
00000090: 2312 7f3e a5fb 4ebd a6fa 053e d43b 07be
000000a0: 68a5 8a3e e396 edbd c2e9 4f3e fca5 3cba
000000b0: 4e72 1bbe 8f2a 093e b8e8 18be 939a 993d
000000c0: cbac abbd 0055 0dbd aa6d 86be a89a 10be
000000d0: cf99 233e 6660 9bbd 99b5 8a3e 19c2 6e3e
000000e0: e1c5 47bb fde6 34be e037 3f3e 33a2 c53d
000000f0: 5b2f 2abe f6ef 423e d5ca 363e 95de 7a3e
00000100: 1526 0cbe f08b 5abd 4d82 d1bb 3e88 153d
00000110: dad6 5ebe d730 51be 256a 123e 928a 8ebd
00000120: 5459 033e 9016 233c 314f ab3d 5775 5b3d
00000130: 7c5b bb3d 9ff4 083e 32e2 89be b541 123e
00000140: 7db5 3abe f507 64be 242c 823b 2880 77bd
00000150: b8e2 143e 6ad1 31be 4aae 85be 762e 413e
00000160: 7b02 5ebd 2eda 183e 53a5 913d 0876 5bbe
00000170: e2c2 8c3d ae71 943d 5698 45be 32a7 0dbe
00000180: 6211 b63d 15b3 163d ea18 01be 8584 bebd
00000190: d6d9 7c3e 127f 6ebd e23d 223e 0fa9 db3d
000001a0: b91d 33be ac9c 7cbe 1a28 853e bc70 a13c
000001b0: fb82 473e a93a 733d 8177 cf3d 1fd6 593e
000001c0: 9d3b 8a3e 644a 37be 79f2 213d 216d 4f3e
000001d0: e3a1 593e 7bfb 2d3e a798 54be ddbb 53be
000001e0: 4b66 2cbe 2eee 073d 86c7 8c3e abbe 2fbe
000001f0: 6dc9 153e 4592 1bbe 244f 86be e355 77bd
00000200: e3a0 1d3e 313f 863e d917 25be 9849 7e3d
00000210: feb4 7b3e 0d59 473e 4740 3c3e b89a 543e
00000220: 9475 3b3e 315f a63d b3c2 37be 0e43 63be
00000230: 2bc3 edbd 2917 c1bc 5425 26be 38cd cf3d
00000240: 8255 a53d de33 8fbd 6175 df3d 27c5 b93d
00000250: bea8 2c3e 40a3 4b3e a6d4 bebd 855b 8d3e
00000260: dcc4 fcbc 2bc8 07bc 7600 8cbe 5b80 2abe
00000270: b51d 31be f539 dabd 8726 503e 3941 d2bd
00000280: eee7 5fbe eee2 c43d 54c9 913d fb7f 2b3e
00000290: 572f 21be 6b80 463d 9072 e6bd af52 85bd
000002a0: ce08 75be 97ed fbbd d30d bebd 4b7c d63d
000002b0: 6065 613d cd22 943d 3bb7 8e3e dec7 8e3e
000002c0: 1212 473e b3f2 783c 461f 40be fc08 623e
000002d0: 3a8b 97bd f062 52bc 1e30 7ebe cf60 30bd
000002e0: a2a4 2fbe 3f91 7a3e 4178 7fbe 3d43 65be
000002f0: e31c b9bc c874 24be 8446 b43d dfe1 eebd
00000300: 5d7c 0fbe 650b 503c be61 3f3e be7e 44be
00000310: e976 003e f435 303e d16c 8d3e d0bc 42be
00000320: b5b7 923d d39a 46be e36c 773e 155f cdbd
00000330: f587 2f3e 40ea 4b3c 2ba3 dbbc 0d1e 4c3b
00000340: e454 2e3d 3719 053e fee2 503d db15 a03d
00000350: 1b7f 82be 7055 4a3e 0270 673e 2c8b 663e
00000360: 2239 493e 3079 52be dbae ddbd 65b7 7c3e
00000370: a533 69be 54b9 863e 7948 70be 1194 57be
00000380: 1e06 183e 0cb0 3fbe fa43 53bd ca34 613e
00000390: 61f3 6d3e 83df 8d3e ba05 34bd 5329 50be
000003a0: faa4 8e3e a388 23bd 37b8 d7bd 3dca 703d
000003b0: 4ca7 54be dd22 453e 8ea3 3b3e 78ce 54be
000003c0: 2f70 56be 8c30 63bc 32cf 033e 17c0 f23a
000003d0: 9416 06be de0f c83b 7dca 77be 7875 3dbe
000003e0: 4dc0 48be 531b 633e 3050 833e a590 a9bd
000003f0: 6447 bd3c 8516 103e 681a 393d be47 00be

fc1.bias f4 [256]
-0.10978518 0.028942429 -0.23296565 -0.123931065 0.234992 0.10845636 -0.018442376 -0.11966353
-0.20753792 0.13882309 -0.11171057 -0.006614462 -0.17822716 -0.09659184 0.00088174007 -0.036838543
-0.026414057 -0.040350065 0.118557654 0.06573536 0.26052803 0.030985113 -0.26147515 -0.0038032276
0.2134646 -0.11018043 -0.0041051907 0.027368328 -0.2019071 0.27621284 -0.06752182 -0.21272817
-0.20964544 -0.15408939 -0.25714162 0.21852292 0.26019475 -0.23166838 -0.1526737 0.12284082
-0.08690459 0.2627391 -0.13142446 -0.117962144 -0.23317365 -0.07415112 0.19918846 -0.032849424
-0.24306622 0.16685413 -0.16687125 0.08311074 0.27871183 0.12531294 0.24154502 -0.20460513
-0.19883186 -0.2743957 0.19378783 -0.056629196 0.10579985 -0.1734685 0.031537313 0.2636023
0.024199689 0.23410739 -0.198316 0.018162375 -0.063231185 -0.25938228 -0.1302417 -0.014934122
-0.27798352 0.20891438 -0.157045 0.00010237633 0.0065499875 -0.25553748 -0.13691068 0.033070106
-0.07043351 0.15246621 0.08555609 0.11441956 0.14507324 0.044768438 -0.23437735 0.1293794
-0.08270483 0.055111464 0.08264571 0.085243136 0.20893285 0.2544958 -0.20247042 -0.1410524
0.12621832 -0.0010173924 0.078736566 -0.24212994 -0.10155505 0.0077694263 0.2380532 -0.21472453
0.07224596 0.046563838 -0.11918008 0.10811509 0.23592158 0.23814385 -0.05150676 -0.019860147
-0.002702021 0.16575381 -0.15034327 0.08423622 0.17161882 0.16288207 -0.093985476 0.15377858
-0.22640851 -0.07476129 0.22210707 -0.11307112 0.021379277 0.27373752 0.043553095 0.0033895047
0.08082511 -0.20698108 -0.2843853 0.14303654 -0.017846946 0.1220384 -0.015141414 0.1897328
-0.20311095 -0.13611487 -0.2439014 -0.22128029 0.22672302 -0.04563984 -0.13113044 -0.09196403
-0.011653173 -0.07439619 -0.25862175 0.19801664 0.0004592318 -0.21237868 0.073676765 -0.08376795
-0.07700923 -0.22637852 -0.27025485 0.06961137 -0.25476924 0.18861218 -0.24249463 -0.02830156
-0.22749084 -0.18075368 -0.24066256 -0.16185848 0.009253832 0.04388519 -0.14023738 0.1731544
-0.106035165 -0.026214585 0.15756185 0.26682532 0.24684887 -0.2724601 -0.18480498 0.035616625
0.007559704 0.21018821 0.16427214 -0.19967163 0.27021143 0.09100264 0.14673036 -0.0405277
0.21451212 -0.20083192 0.11527337 0.28108764 0.08738871 -0.091000766 0.0037016664 0.20861615
-0.16480987 -0.14825478 0.035475444 -0.13294928 -0.08226186 -0.10888583 0.16358814 -0.24691601
-0.240738 0.21680579 -0.028489701 -0.24812907 0.14680083 -0.1775643 -0.00527754 0.17816894
-0.14876363 -0.2005815 0.050701257 -0.122558996 -0.077108234 0.21746883 0.059576996 0.08304363
-0.25906783 -0.18045862 -0.20423654 0.28244284 -0.115668125 0.278982 0.2856622 -0.16822089
0.13358109 -0.10142218 0.27830434 0.19070852 0.081317514 0.1364209 -0.040686313 -0.047224693
-0.02353829 -0.11648645 -0.24482046 -0.026636839 -0.09337282 0.2390997 0.25826627 -0.24842241
-0.21410546 -0.14287868 -0.27915278 -0.015991662 0.08822315 -0.040781442 0.07912709 -0.039819043
-0.26873663 -0.14308272 -0.26981238 -0.16904148 -0.1497328 0.2159828 -0.108195975 -0.06806254
00000000: 0dd7 e0bd ac18 ed3c 8c8e 6ebe 92cf fdbd
00000010: bea1 703e 5e1e de3d 7714 97bc 2712 f5bd
00000020: d284 54be a427 0e3e 83c8 e4bd 21be d8bb
00000030: 2e81 36be f1d1 c5bd 9324 673a 03e4 16bd
00000040: 4b62 d8bc 1c46 25bd 5bce f23d 43a0 863d
00000050: ee63 853e 7ed4 fd3c 12e0 85be 923f 79bb
00000060: 7796 5a3e 47a6 e1bd d684 86bb 8b33 e03c
00000070: bcc0 4ebe c56b 8d3e e148 8abd 6ad5 59be
00000080: 4bad 56be 9cc9 1dbe 11a8 83be 79c4 5f3e
00000090: 3f38 853e 7a3a 6dbe 7f56 1cbe f893 fb3d
000000a0: 09fb b1bd bd85 863e 2294 06be 2396 f1bd
000000b0: 13c5 6ebe 8bdc 97bd 0ff8 4b3e 1e8d 06bd
000000c0: 5ae6 78be cfdb 2a3e 4ce0 2abe f735 aa3d
000000d0: 51b3 8e3e 0952 003e 9457 773e 0284 51be
000000e0: 949a 4bbe 987d 8cbe 5170 463e 04f4 67bd
000000f0: 97ad d83d baa1 31be 452d 013d e1f6 863e
00000100: 6d3e c63c d9b9 6f3e 5913 4bbe 43c9 943c
00000110: 5a7f 81bd c1cd 84be 155e 05be 3fae 74bc
00000120: db53 8ebe a7ed 553e 68d0 20be e0b2 d638
00000130: 47a1 d63b cfd5 82be 5032 0cbe 8574 073d
00000140: 723f 90bd 1a20 1c3e 0838 af3d cd54 ea3d
00000150: 148e 143e 1c5f 373d 9e00 70be 097c 043e
00000160: 2661 a9bd 8fbc 613d 2742 a93d f493 ae3d
00000170: 7ef2 553e 464d 823e 6854 4fbe 0a70 10be
00000180: 603f 013e 065a 85ba a340 a13d e9f0 77be
00000190: 18fc cfbd ac96 fe3b 38c4 733e bfe0 5bbe
000001a0: b1f5 933d b9b9 3e3d b014 f4bd 726b dd3d
000001b0: 6d95 713e fbdb 733e c1f8 52bd bfb1 a2bc
000001c0: 6414 31bb 5ebb 293e 96f3 19be 0a84 ac3d
000001d0: d8bc 2f3e 8fca 263e 757b c0bd 2278 1d3e
000001e0: a2d7 67be 721c 99bd 0970 633e d591 e7bd
000001f0: 9823 af3c 5327 8c3e bb64 323d 7422 5e3b
00000200: a387 a53d d9f2 53be f39a 91be 2c78 123e
00000210: c233 92bc 45ef f93d b113 78bc 5149 423e
00000220: 51fc 4fbe b261 0bbe 4ac1 79be 4d97 62be
00000230: 142a 683e d7f0 3abd 0f47 06be a357 bcbd
00000240: f3ec 3ebc 085d 98bd 126a 84be e0c4 4a3e
00000250: 0cc5 f039 cc79 59be d8e3 963d 888e abbd
00000260: 04b7 9dbd c5cf 67be d85e 8abe 6890 8e3d
00000270: 1d71 82be 8d23 413e 8350 78be acd8 e7bc
00000280: 5cf3 68be 7e17 39be 3f70 76be 3bbe 25be
00000290: 629d 173c f5c0 333d 639a 0fbe 634f 313e
000002a0: f728 d9bd f8bf d6bc e557 213e 549d 883e
000002b0: f3c5 7c3e e47f 8bbe 843d 3dbe bde2 113d
000002c0: 65b7 f73b 943b 573e f536 283e b876 4cbe
000002d0: 2759 8a3e 985f ba3d 7c40 163e 6000 26bd
000002e0: 11a9 5b3e e2a6 4dbe 7214 ec3d b8ea 8f3e
000002f0: daf8 b23d 9c5e babd a897 723b 799f 553e
00000300: ebc3 28be 1ad0 17be b34e 113d db23 08be
00000310: e878 a8bd 89ff debd a683 273e 8dd7 7cbe
00000320: 0684 76be 5602 5e3e 3c63 e9bc 8c15 7ebe
00000330: f552 163e 6ad3 35be 37ef acbb eb71 363e
00000340: 7e55 18be 3d65 4dbe 1fac 4f3d 3600 fbbd
00000350: ecea 9dbd 26b0 5e3e 0207 743d c712 aa3d
00000360: 8aa4 84be 25ca 38be 6223 51be 599c 903e
00000370: 69e3 ecbd bbd6 8e3e 5142 923e 1942 2cbe
00000380: 7bc9 083e 6fb6 cfbd e87d 8e3e 1849 433e
00000390: cc89 a63d ecb1 0b3e b1a6 26bd ae6e 41bd
000003a0: 5fd3 c0bc 7390 eebd 37b2 7abe 8035 dabc
000003b0: 403a bfbd 8dd6 743e 7a3b 843e 7262 7ebe
000003c0: 763e 5bbe ca4e 12be 1ded 8ebe f200 83bc
000003d0: 57ae b43d 710a 27bd 620d a23d 4b19 23bd
000003e0: d997 89be 4784 12be d924 8abe 3619 2dbe
000003f0: 8e53 19be 982a 5d3e da95 ddbd 5f64 8bbd

fc2.weight f4 [256, 256]
-0.033654258 -0.0094992025 0.021123024 0.007467304 0.06611562 0.03187833 -0.015609168 0.033569377
-0.025677409 0.008415936 0.004813196 0.029933056 -0.033164877 0.018891614 0.020303346 -0.0006726612
-0.02828702 -0.042825583 -0.030469486 -0.050980575 -0.00062209024 -0.03756486 -0.040490117 0.06364731
-0.06644612 0.030832725 -0.01124459 -0.022110771 0.04716371 0.061175022 -0.028414793 -0.0069535016
-0.036100343 -0.043053314 0.04449959 0.047337547 0.0667815 -0.052464 -0.029580817 0.022298811
-0.04513441 0.06940997 0.0014516185 -0.00048396038 0.013986444 0.04855362 0.023250138 -0.02570463
0.06451957 -0.01222338 -0.00405202 -0.06746793 -0.018279385 0.033807825 0.017428696 0.002204892
-0.025596566 -0.06748637 0.044593908 -0.053776506 0.034229968 -0.027563605 0.06208012 0.008077098
-0.031173587 0.056131613 0.036920786 -0.044343438 -0.024503622 -0.027107688 0.0023624569 0.05638788
-0.049169127 0.039782196 0.058713652 0.037839416 -0.01447234 0.07178699 -0.035373844 0.005020914
-0.02864265 0.025954016 -0.048993845 0.03195133 -0.05711555 -0.051431984 -0.017789923 0.05556844
0.021484451 -0.058247928 0.02951214 -0.004319422 -0.018179726 -0.07048015 -0.03361614 0.047901887
-0.027049487 0.05666697 -0.005823041 -0.0605307 -0.024121568 0.034077574 0.03753935 -2.3213575e-05
0.026115159 -0.012585565 -0.0017034024 0.0039112987 -0.01892824 0.062115204 0.067022555 0.052902468
0.053861015 -0.04451058 -0.008547258 0.05581887 0.05364322 0.019306807 -0.00018104471 0.004863625
-0.0010843575 -0.01278538 0.006367851 0.019344034 0.065937564 -0.003972074 0.048172347 0.06470028
0.029096868 0.03937111 0.021727137 -0.04153814 -0.026126062 0.010384465 -0.014413575 -0.024588868
-0.011896021 -0.037187453 -0.010033378 0.011144063 0.002626524 -0.025302999 -0.027650181 0.039901137
0.06518443 -0.036458887 -0.05855792 -0.02532241 -0.021748906 -0.07200154 -0.03492214 0.06090123
-0.021134678 0.037096296 0.02045846 -0.013879444 -0.013676652 0.055665508 -0.002644993 -0.027583437
0.012155948 -0.014684076 0.019690678 0.004968403 -0.06709095 -0.019597834 0.0111895 0.01755433
0.003085701 -0.01852008 -0.003806037 0.0031014339 0.04202305 -0.03725982 -0.016559677 0.046067666
0.072868735 0.0571248 0.06613804 -0.053575613 -0.0023044187 -0.040647168 -0.022926364 0.040601637
0.06806852 -0.06331224 0.03347913 -0.014384593 0.04644172 0.008027046 -0.051749527 0.05608153
-0.051551487 -0.039180964 -0.04109458 0.019728763 0.032655243 -0.04186264 -0.02287828 -0.003366165
0.014799889 0.044370446 -0.044586685 0.009646606 -0.041568886 -0.029119128 0.0045617027 -0.046455197
0.048641823 -0.033303116 0.021772299 -0.017211057 0.017887568 0.031942926 0.014366936 -0.009643029
-0.038567893 -0.035878386 0.03410144 0.027315322 -0.039237455 -0.018641183 0.00096533686 -0.036858425
-0.009581578 0.07192275 -0.021591192 0.05051849 0.063833155 -0.050101437 0.042939976 -0.068677716
0.019264022 -0.045299422 -0.04602633 0.024276841 0.019569434 -0.0013439482 -0.0074697626 0.009047751
-0.070146956 -0.0032895373 -0.04848329 -0.0061928486 0.07059052 -0.02606867 -0.018190859 -0.050344538
0.052517366 0.03563667 -0.058849342 -0.025777588 0.06382729 -0.045852207 -0.0068941186 -0.056602936
00000000: 0cd9 09bd 8ba2 1bbc 310a ad3c 49b0 f43b
00000010: a067 873d da92 023d 99bd 7fbc 0b80 093d
00000020: 6e59 d2bc fee2 093c 04b8 9d3b 2b36 f53c
00000030: e5d7 07bd 96c2 9a3c 3453 a63c 8755 30ba
00000040: 2eba e7bc e169 2fbd 259b f9bc 02d1 50bd
00000050: c513 23ba 9cdd 19bd f7d8 25bd 8559 823d
00000060: e714 88bd e994 fc3c 3b3b 38bc a621 b5bc
00000070: bc2e 413d a992 7a3d 24c6 e8bc 33da e3bb
00000080: f4dd 13bd ac58 30bd 3445 363d 04e5 413d
00000090: bdc4 883d 7ee4 56bd 7853 f2bc ffab b63c
000000a0: dcde 38bd d026 8e3d 3c44 be3a 10bc fdb9
000000b0: 6627 653c 29e0 463d 1377 be3c 8492 d2bc
000000c0: d622 843d 9244 48bc cfc6 84bb a02c 8abd
000000d0: a6be 95bc 137a 0a3d a0c6 8e3c f37f 103b
000000e0: e4af d1bc 4b36 8abd 1aa8 363d c144 5cbd
000000f0: b934 0c3d 12cd e1bc b947 7e3d ce55 043c
00000100: c05f ffbc 43ea 653d 403a 173d 77a1 35bd
00000110: d2bb c8bc f110 debc 73d3 1a3b faf6 663d
00000120: 9165 49bd a8f2 223d ba7d 703d 81fd 1a3d
00000130: 651d 6dbc 0f05 933d 2ae4 10bd 7b86 a43b
00000140: fea3 eabc 849d d43c c5ad 48bd 66df 023d
00000150: fff1 69bd 58aa 52bd 2cbc 91bc bc9b 633d
00000160: 2900 b03c 6195 6ebd 72c3 f13c f089 8dbb
00000170: a6ed 94bc e657 90bd 14b1 09bd c534 443d
00000180: e396 ddbc a01b 683d 35cf bebb 0aef 77bd
00000190: 989a c5bc ed94 0b3d ddc2 193d c6ba c2b7
000001a0: 75ef d53c b033 4ebc b344 dfba 5a2a 803b
000001b0: 650f 9bbc 836c 7e3d 1f43 893d 42b0 583d
000001c0: 5e9d 5c3d ba50 36bd cc09 0cbc 54a2 643d
000001d0: feb8 5b3d 4f29 9e3c d2d6 3db9 0b5f 9f3b
000001e0: 0021 8eba c579 51bc 68a9 d03b 6177 9e3c
000001f0: 460a 873d 2c28 82bb 5e50 453d 9581 843d
00000200: 8e5c ee3c 9a43 213d 1cfd b13c e623 2abd
00000210: 5306 d6bc 9a23 2a3c ea26 6cbc 986e c9bc
00000220: 87e7 42bc df51 18bd 0a63 24bc 9795 363c
00000230: c321 2c3b 3c48 cfbc a282 e2bc 606f 233d
00000240: 6a7f 853d ea55 15bd 6eda 6fbd f170 cfbc
00000250: c32a b2bc 8b75 93bd 850a 0fbd 9173 793d
00000260: a222 adbc 49f2 173d 8098 a73c 9c66 63bc
00000270: 0914 60bc 8401 643d 9e57 2dbb a9f6 e1bc
00000280: be29 473c 7b95 70bc 584e a13c fccd a23b
00000290: fb66 89bd a38b a0bc 2a54 373c 19ce 8f3c
000002a0: 7939 4a3b 6cb7 97bc b46e 79bb 6d41 4b3b
000002b0: 5d20 2c3d c19d 18bd 29a8 87bc 73b1 3c3d
000002c0: 343c 953d b2fb 693d 6173 873d 1a72 5bbd
000002d0: bb05 17bb a57d 26bd 12d0 bbbc e74d 263d
000002e0: 8267 8b3d d9a9 81bd 6a21 093d 5bad 6bbc
000002f0: ac39 3e3d df83 033c 50f7 53bd bfb5 653d
00000300: a727 53bd 387c 20bd ca52 28bd 379e a13c
00000310: 81c1 053d 2978 2bbd 3b6b bbbc e19a 5cbb
00000320: 3c7b 723c c9bd 353d 87a0 36bd cc0c 1e3c
00000330: 2344 2abd 3d8b eebc 567a 953b ce47 3ebd
00000340: a63c 473d d968 08bd d25b b23c 34fe 8cbc
00000350: f388 923c 96d6 023d 4c63 6b3c ccfd 1dbc
00000360: 5ef9 1dbd 37f5 12bd f4ad 0b3d 62c4 df3c
00000370: 74b7 20bd 65b5 98bc a90e 7d3a dcf8 16bd
00000380: 0dfc 1cbc 3c4c 933d 03e0 b0bc 7aec 4e3d
00000390: f5ba 823d 2a37 4dbd d4e1 2f3d e7a6 8cbd
000003a0: 95cf 9d3c e38b 39bd 1b86 3cbd 3ae0 c63c
000003b0: 1450 a03c 6b27 b0ba e9c4 f4bb 053d 143c
000003c0: 35a9 8fbd 4795 57bb 6a96 46bd 61ed cabb
000003d0: c391 903d f78d d5bc ff04 95bc 1336 4ebd
000003e0: 731c 573d c2f7 113d 020c 71bd 852b d3bc
000003f0: e2b7 823d 86cf 3bbd 0fe8 e1bb 7bd8 67bd

fc2.bias f4 [256]
-0.05039063 -0.007851641 0.030941984 -0.034319233 -0.06620399 -0.0033617753 0.03887187 0.032419957
-0.017702173 0.053594623 -0.038750265 0.052695874 0.03863485 0.03331965 0.04905208 -0.016854007
0.04226728 0.027574042 -0.013350618 -0.034113675 -0.006592713 0.045514975 0.022978926 -0.07074279
-0.05012323 0.033745352 -0.04437337 -0.0031909712 -0.021448422 0.027899055 0.005171377 0.013564098
0.024026271 -0.03128914 0.0009202189 0.032155007 0.039248735 -0.0072161136 0.049550377 0.029585412
0.046826568 0.023412783 -0.004533992 -0.027457153 -0.04182124 -0.047971472 0.01288173 0.042863514
-0.052648608 -0.073661886 0.03426566 -0.00064181443 0.05685403 0.024311023 0.048806768 0.03352558
0.04756331 0.03898933 0.052098483 0.007936652 -0.023498869 -0.0063012023 0.052934345 0.055882387
0.038325273 -0.044834495 -0.046400126 0.04612174 -0.054252937 0.0038912774 0.045706835 -0.04240703
-0.010180271 -0.03380247 0.023731675 0.049244627 0.032708064 0.019450884 -0.04614989 0.03761558
-0.010991652 0.05999542 0.033790503 -0.04081848 0.03496725 0.032471027 -0.038322687 -0.04648232
-0.006859368 -0.030478561 -0.0077104564 -0.029620977 -0.0146071855 -0.05841464 -0.051023167 -0.026221085
-0.028380768 -0.05468344 0.041653387 -0.023129508 -0.0433568 -0.04313457 0.022323139 -0.0042462633
-0.024362706 0.0070336014 0.014947072 -0.0032901687 0.025505684 -0.012839245 -0.037729863 0.049654465
-0.060512006 0.05818904 -0.0497358 0.009326376 -0.029654456 -0.019352857 0.008733661 -0.038523555
0.038143124 0.05202014 -0.0053901467 0.033499002 -0.018430185 -0.01633111 -0.022632053 0.0733791
0.053552393 -0.046861753 0.042434722 0.057339244 0.061844535 0.00321253 -0.06533053 -0.029953944
0.011982782 -0.026962902 -0.04711154 0.058578722 -0.05045555 -0.038046103 0.06614391 0.01686436
-0.041085675 0.03217893 0.025126109 0.0027289044 -0.02541834 -0.05807125 -0.04950743 -0.037162054
0.0015787269 0.0072184424 0.0060734577 0.0443382 0.032637287 0.03098236 0.043137867 -0.036834154
0.03232695 -0.04562804 -0.026561914 0.023254005 0.024033416 -0.018160935 -0.019040229 0.024761345
-0.008901072 0.04940333 -0.023197472 -0.07137415 0.020668523 0.041943226 -0.027337773 -0.0030678106
0.015880825 -0.055033993 0.026757915 -0.026674125 -0.02750482 0.06798222 -0.06853637 -0.06751913
0.022265466 0.041670263 0.022797951 -0.04147173 0.0006328468 0.043082844 -0.032283396 0.016299335
0.0017521675 -0.0032717688 -0.039335363 -0.061424173 0.012303681 -0.022587271 0.0040308763 0.010319331
0.017453188 0.059431165 -0.022672797 0.030241616 0.007963856 -0.027386362 0.030751148 -0.022751728
0.01960002 0.032091357 -0.04370298 0.0492208 -0.034246586 -0.044654705 0.03967114 0.04407778
-0.018245852 0.031847782 0.05301376 0.012998443 0.06651364 0.01613997 -0.031661782 0.019351592
-0.05374368 0.033833046 -0.03751629 -0.05035152 -0.01811338 -0.00072546507 -0.026803948 0.02219715
0.006973595 -0.006765107 -0.049293157 -0.0047233794 0.014161792 -0.038350567 -0.050102793 -0.017907945
0.012560967 -0.027250873 0.059194166 0.018304797 0.022681251 -0.0064663254 0.03862608 -0.007715484
0.050187774 0.012240945 0.014839237 0.024685867 -0.040567905 -0.02560006 0.055547006 0.04169039
00000000: 6866 4ebd 2ba4 00bc 0b7a fd3c 5392 0cbd
00000010: f595 87bd 3b51 5cbb 1c38 1f3d caca 043d
00000020: 2604 91bc 0986 5b3d 99b8 1ebd a1d7 573d
00000030: 943f 1e3d 2f7a 083d d5ea 483d 6a11 8abc
00000040: 7520 2d3d f5e2 e13c 8dbc 5abc c8ba 0bbd
00000050: af07 d8bb e96d 3a3d 4d3e bc3c 99e1 90bd
00000060: 044e 4dbd 9138 0a3d dac0 35bd 9d1f 51bb
00000070: 9ab4 afbc 8f8c e43c a874 a93b f33b 5e3c
00000080: bed2 c43c 0b29 00bd d83a 713a f8b4 033d
00000090: 48c3 203d 2675 ecbb 56f5 4a3d 1b5d f23c
000000a0: 37cd 3f3d 2acc bf3c e291 94bb d3ed e0bc
000000b0: c04c 2bbd bc7d 44bd e40d 533c a791 2f3d
000000c0: 11a6 57bd 0bdc 96bd 265a 0c3d 703f 28ba
000000d0: c5df 683d e927 c73c 9be9 473d 1e52 093d
000000e0: bfd1 423d 47b3 1f3d 3865 553d bb08 023c
000000f0: b380 c0bc 517a cebb afd1 583d eee4 643d
00000100: f6fa 1c3d 60a4 37bd 0f0e 3ebd 26ea 3c3d
00000110: 5438 5ebd cd04 7f3b 1737 3b3d feb2 2dbd
00000120: 27cb 26bc 7574 0abd ee68 c23c bcb4 493d
00000130: e4f8 053d 7657 9f3c ab07 3dbd cb12 1a3d
00000140: 5416 34bc c2bd 753d e967 0a3d 4731 27bd
00000150: d239 0f3d 5700 053d 40f8 1cbd 3f64 3ebd
00000160: 8dc4 e0bb 2dae f9bc ffa7 fcbb b1a7 f2bc
00000170: fa52 6fbc 3144 6fbd abfd 50bd 9acd d6bc
00000180: c97e e8bc befb 5fbd be9c 2a3d 187a bdbc
00000190: e696 31bd e0ad 30bd 04df b63c 3d24 8bbb
000001a0: 4c94 c7bc 207a e63b 90e4 743c df9f 57bb
000001b0: 4cf1 d03c b25b 52bc a18a 1abd 7b62 4b3d
000001c0: 70db 77bd a157 6e3d c4b7 4bbd a8cd 183c
000001d0: e7ed f2bc e289 9ebc a117 0f3c e0ca 1dbd
000001e0: f73b 1c3d 1213 553d d49f b0bb 4036 093d
000001f0: e6fa 96bc d2c8 85bc db66 b9bc c847 963d
00000200: c159 5b3d 1cf2 3fbd 08d0 2d3d 8edc 6a3d
00000210: b250 7d3d 4f89 523b 03cc 85bd f961 f5bc
00000220: 6e53 443c 4ee1 dcbc 08f8 40bd 3ef0 6f3d
00000230: 7baa 4ebd 3bd6 1bbd 7576 873d 2027 8a3c
00000240: 7449 28bd 0ece 033d 45d5 cd3c 6bd7 323b
00000250: 1f3a d0bc 1edc 6dbd 4ec8 4abd 3d37 18bd
00000260: 49ed ce3a af88 ec3b db03 c73b f99b 353d
00000270: adae 053d b8ce fd3c 55b1 303d 69df 16bd
00000280: 4469 043d 78e4 3abd 5f98 d9bc 2f7f be3c
00000290: bae1 c43c 3ec6 94bc 41fa 9bbc 4ed8 ca3c
000002a0: cdd5 11bc 255b 4a3d a008 bebc 9c2c 92bd
000002b0: 0951 a93c a9cc 2b3d 77f3 dfbc 520d 49bb
000002c0: 8118 823c 536b 61bd 6a33 db3c b283 dabc
000002d0: ca51 e1bc 433a 8b3d cc5c 8cbd 7847 8abd
000002e0: 1166 b63c 70ae 2a3d c5c2 ba3c 43de 29bd
000002f0: a1e5 253a a377 303d 983b 04bd 2f86 853c
00000300: fca8 e53a 2c6b 56bb 1e1e 21bd ea97 7bbd
00000310: 6195 493c f108 b9bc 7115 843b 6912 293c
00000320: fdf9 8e3c 186e 733d 4dbc b9bc 44bd f73c
00000330: d57a 023c 5d59 e0bc d5e9 fb3c d561 babc
00000340: 3990 a03c 3a72 033d e501 33bd c09b 493d
00000350: 2646 0cbd dae7 36bd 357e 223d e78a 343d
00000360: 5378 95bc d272 023d f524 593d 6cf7 543c
00000370: 4e38 883d f837 843c c9af 01bd 3b87 9e3c
00000380: 5522 5cbd 8594 0a3d aeaa 19bd 653d 4ebd
00000390: 8362 94bc 232d 3eba f493 dbbc ccd6 b53c
000003a0: c182 e43b d5ad ddbb 9fe7 49bd 94c6 9abb
000003b0: dc06 683c 7c15 1dbd 9638 4dbd afb3 92bc
000003c0: 84cc 4d3c 393d dfbc 9575 723d f1f3 953c
000003d0: 08ce b93c 78e3 d3bb 6136 1e3d 2cd2 fcbb
000003e0: b291 4d3d 3f8e 483c 4520 733c 043a ca3c
000003f0: 882a 26bd 38b7 d1bc 4285 633d 8bc3 2a3d

fc3.weight f4 [32, 256]
-0.020577384 -0.033153687 -0.052508503 0.024020487 -0.029322287 -0.057800196 -0.024364147 -0.039150104
-0.069980256 -0.032266773 0.024038553 0.03163884 -0.03851439 0.0037842253 -0.017994963 -0.004720055
0.0031325542 -0.0058360007 0.03841792 -0.028376263 -0.01462371 -0.026111944 -0.012512349 -0.006518036
-0.027715132 0.02144897 0.02356688 0.041669335 0.03485649 0.052857652 0.010581982 0.06275877
-0.008811007 0.0069559338 -0.07174844 0.011375944 0.005788121 -0.03645795 -0.019978954 0.005547578
-0.035411518 -0.029589439 -0.035288922 0.0026597243 0.041094173 -0.06217875 -0.04390353 0.014666916
0.03700311 0.05564245 -0.046838418 0.0104652345 -0.044482872 0.031717166 -0.006964446 0.022725074
-0.06969107 -0.026528526 0.05067969 0.048725158 -0.023543332 0.02490687 0.0059579364 -0.05790534
0.019745722 0.018932573 0.030517874 0.023564205 0.0069016498 0.071165085 -0.014715004 -0.03538444
-0.03944365 0.025206428 0.034670886 0.027380705 0.014468852 0.009968978 0.0028759954 -0.04284023
-0.006258947 -0.012548642 -0.057366658 0.053332914 0.047816977 0.00048825346 -0.062628016 0.00096472754
-0.031852875 -0.040864907 -0.044542618 0.043696836 -0.053203214 -0.017534181 0.055858582 -0.028480984
-0.052078236 0.064100154 0.0130002815 0.027558483 0.0307273 0.06426536 0.024796741 0.023183873
-0.047399998 -0.061277993 -0.048833676 -0.04606569 0.0022768232 -0.023613993 0.045848433 -0.04351973
-0.042873196 0.04190232 -0.023174865 0.042789172 0.05442103 0.0410323 0.06465857 0.06865448
-0.020830603 -0.05852982 -0.059988566 -0.06710916 -0.031237774 0.043652516 -0.0586949 -0.042353217
-0.057642564 -0.025627654 -0.009161266 -0.04636319 -0.05426002 0.034659717 0.027447352 0.047518454
0.05061437 0.012659169 0.009043727 -0.012644715 -0.07083918 -0.0027991955 -0.056524694 0.0046691904
-0.006935453 0.0066747563 -0.0014715891 0.0052154497 0.062129542 0.037829667 0.009897942 0.004608153
-0.03535362 0.04029547 -0.03870856 -0.00031461593 0.052457955 -0.07415051 0.0064944616 -0.022927051
0.067913815 -0.01935758 0.021944385 0.035170734 -0.068337284 0.03672845 0.026582392 0.03786303
-0.012015671 -0.0045455713 0.053151608 0.010356238 0.03035602 -0.035418745 0.0401872 0.052842304
-0.06516809 -0.04140295 -0.008354016 0.05007224 -0.008280802 0.0018077185 -0.013059984 -0.04545111
0.0024033317 -0.00018449756 -0.025855497 0.068242945 0.0047781095 -0.027552139 0.0456284 0.036823086
0.00011024081 -0.06442772 0.018997071 0.024450114 0.03834539 -0.06986993 -0.006246983 0.011342349
0.05204655 -0.045052417 0.06849285 -0.01311907 -0.03753008 0.018621769 -0.024050895 -0.036351997
0.0068349685 -0.008026477 -0.04659818 0.0054695015 -0.0015226335 0.00778177 0.045368128 -0.008509365
-0.0062625213 -0.06647131 -0.061486393 0.0011299007 0.039037112 0.025451763 -0.028257169 0.020771312
-0.021471672 0.0014125298 -0.020463742 0.014434903 -0.033251647 0.05851625 -0.01875015 -0.01815415
-0.021599663 -0.019735955 -0.022725336 0.055142406 -0.0073377104 -0.060283195 0.04056974 0.0038750153
0.0024424177 0.038159408 0.0333182 0.013760343 0.045743063 0.027540268 0.064248666 0.05030907
-0.041675303 -0.022682304 0.0027252967 0.021535689 0.05165558 0.036738288 -0.009250249 0.021663375
00000000: e791 a8bc 29cc 07bd 2813 57bd 9dc6 c43c
00000010: 4b35 f0bc e6bf 6cbd 5297 c7bc dc5b 20bd
00000020: cf51 8fbd 2a2a 04bd 80ec c43c ba97 013d
00000030: 44c1 1dbd c400 783b 2c6a 93bc b1aa 9abb
00000040: 8a4b 4d3b ec3b bfbb 1c5c 1d3d 5675 e8bc
00000050: 4998 6fbc b7e8 d5bc 9800 4dbc 4095 d5bb
00000060: d80a e3bc c0b5 af3c 540f c13c 77ad 2a3d
00000070: aec5 0e3d 4481 583d 0d60 2d3c ac87 803d
00000080: 0b5c 10bc 9aee e33b d9f0 92bd 2b62 3a3c
00000090: 47aa bd3b ee54 15bd e7aa a3bc 75c8 b53b
000000a0: ab0b 11bd 8d65 f2bc 1e8b 10bd c54e 2e3b
000000b0: 5d52 283d 25af 7ebd 30d4 33bd 814d 703c
000000c0: 9390 173d 56e9 633d a4d9 3fbd 6076 2b3c
000000d0: ac33 36bd dce9 013d 0236 e4bb ef29 ba3c
000000e0: 31ba 8ebd 5a52 d9bc 8295 4f3d 0894 473d
000000f0: f2dd c0bc 7e09 cc3c cb3a c33b 262e 6dbd
00000100: c8c1 a13c 7c18 9b3c 9f00 fa3c b809 c13c
00000110: 3c27 e23b 00bf 913d 3317 71bc 46ef 10bd
00000120: aa8f 21bd b67d ce3c 0f03 0e3d 804d e03c
00000130: c40e 6d3c ed54 233c 327b 3c3b 3d79 2fbd
00000140: da17 cdbb d298 4dbc 4df9 6abd 9d73 5a3d
00000150: bcdb 433d 45fc ff39 1e43 80bd c5e5 7c3a
00000160: 2978 02bd f661 27bd 5272 36bd 74fb 323d
00000170: 9deb 59bd d8a3 8fbc f8cb 643d f450 e9bc
00000180: fd4f 55bd f146 833d 22ff 543c 54c2 e13c
00000190: d2b7 fb3c 8f9d 833d 8922 cb3c 1bec bd3c
000001a0: 8026 42bd a2fe 7abd d205 48bd 61af 3cbd
000001b0: c136 153b 2272 c1bc 91cb 3b3d bf41 32bd
000001c0: ce9b 2fbd c4a1 2b3d 37d9 bdbc b343 2f3d
000001d0: 96e8 5e3d 7c11 283d b66b 843d b89a 8c3d
000001e0: f1a4 aabc f7bc 6fbd 92b6 75bd 8770 89bd
000001f0: 5ce6 ffbc fbcc 323d 106a 70bd 917a 2dbd
00000200: 9c1a 6cbd 16f1 d1bc 2219 16bc 54e7 3dbd
00000210: c13f 5ebd 59f7 0d3d 45d9 e03c b6a2 423d
00000220: 0351 4f3d 6768 4f3c 242c 143c c72b 4fbc
00000230: 2214 91bd b572 37bb 7086 67bd 0200 993b
00000240: cc42 e3bb eab7 da3b 56e2 c0ba 5de6 aa3b
00000250: 8c7b 7e3d 48f3 1a3d fa2a 223c fdff 963b
00000260: f5ce 10bd dd0c 253d de8c 1ebd 09f3 a4b9
00000270: 27de 563d 39dc 97bd 7ecf d43b 83d1 bbbc
00000280: 6616 8b3d ca93 9ebc b6c4 b33c 300f 103d
00000290: 6bf4 8bbd 9270 163d 51c3 d93c 4416 1b3d
000002a0: 60dd 44bc 04f3 94bb 80b5 593d 36ad 293c
000002b0: 30ad f83c 3f13 11bd 559b 243d 2c71 583d
000002c0: d976 85bd 2496 29bd 48df 08bc 8d18 4d3d
000002d0: 33ac 07bc f8f0 ec3a 8bf9 55bc f12a 3abd
000002e0: 3781 1d3b b075 41b9 e8ce d3bc f5c2 8b3d
000002f0: b091 9c3b 06b5 e1bc d8e4 3a3d ced3 163d
00000300: 1631 e738 aef2 83bd bf9f 9b3c 9b4b c83c
00000310: 0e10 1d3d f717 8fbd 7eb3 ccbb 43d5 393c
00000320: c32e 553d e288 38bd fb45 8c3d 5ef1 56bc
00000330: 24b9 19bd ae8c 983c 6206 c5bc d5e5 14bd
00000340: dff7 df3b 7c81 03bc bcdd 3ebd 8139 b33b
00000350: 1a93 c7ba 38fe fe3b eed3 393d dd6a 0bbc
00000360: d635 cdbb 1c22 88bd 28d9 7bbd 2d19 943a
00000370: 61e5 1f3d 3780 d03c 947b e7bc 9928 aa3c
00000380: 5ce5 afbc a324 b93a 94a3 a7bc 5f80 6c3c
00000390: e132 08bd bcae 6f3d ea99 99bc 03b8 94bc
000003a0: c7f1 b0bc 4cad a1bc 7c2a babc 01dd 613d
000003b0: 2d71 f0bb 83eb 76bd 752c 263d f8f3 7d3b
000003c0: f810 203b 0a4d 1c3d aa78 083d 1073 613c
000003d0: 145d 3b3d 219c e13c ce94 833d e210 4e3d
000003e0: b9b3 2abd 3dd0 b9bc e49a 323b 9d6b b03c
000003f0: cd94 533d e37a 163d 5b8e 17bc 6477 b13c

fc3.bias f4 [32]
0.010571258 -0.031938937 0.04178197 0.04077171 0.052645314 -0.02751768 -0.04236303 0.06665011
0.039361227 -0.031957395 -0.06518588 -0.046922456 0.015041671 0.021588072 0.0595048 0.039207507
-0.03386352 -0.069003224 0.03808187 0.0080532925 0.039025187 0.019702934 0.004946437 0.0019781534
-0.002091143 -0.00047232484 0.046483055 0.059459347 -0.023659255 0.00998224 0.012057785 -0.025035812
00000000: 1233 2d3c 67d2 02bd 9223 2b3d 3d00 273d
00000010: 9da2 573d c26c e1bc db84 2dbd da7f 883d
00000020: 3d39 213d c2e5 02bd 2d80 85bd c331 40bd
00000030: 5771 763c 78d9 b03c 4ebb 733d 0d98 203d
00000040: 79b4 0abd 9051 8dbd bcfb 1b3d f5f1 033c
00000050: e0d8 1f3d 0c68 a13c b915 a23b e8a3 013b
00000060: 8f0b 09bb 5ea2 f7b9 0465 3e3d a58b 733d
00000070: 0ed1 c1bc 8d8c 233c 048e 453c e717 cdbc

output.weight f4 [1, 32]
0.05821034 0.076726265 -0.055919234 -0.15882121 -0.15323663 -0.17042097 0.10446329 -0.037195563
0.064683296 -0.09029583 0.18916231 -0.0018656091 0.12508813 -0.18608434 -0.18266717 -0.15800604
0.1031955 0.06272849 0.06028217 -0.097280174 0.059200432 -0.114892274 0.036590435 -0.10744913
0.17589356 0.022669364 0.061178196 -0.14948352 0.15250081 -0.055759154 -0.16496655 -0.043013602
00000000: f76d 6e3d a922 9d3d 910b 65bd 07a2 22be
00000010: 10ea 1cbe d682 2ebe d9f0 d53d 605a 18bd
00000020: ad78 843d 05ed b8bd c4b3 413e 7487 f4ba
00000030: 1a17 003e e58c 3ebe 1a0d 3bbe 56cc 21be
00000040: 2a58 d33d cb77 803d 70ea 763d d43a c7bd
00000050: 277c 723d a44c ebbd dadf 153d 4a0e dcbd
00000060: 711d 343e 1ab5 b93c fd95 7a3d 3512 19be
00000070: 2c29 1c3e b663 64bd feec 28be 082f 30bd
