result/occur/921/1000/Train_921_under_1000_256_256_32_0.0004_128_3_0.pth (torch, 313519 bytes, 7 tensors)

fc1.weight f4 [256, 13]
0	0x3e19732f	0.14985345
1	0xbe14c262	-0.14527276
2	0xbd966d91	-0.07345117
3	0x3e0f2643	0.1397944
4	0xbe819446	-0.25308436
5	0x3e2f22bb	0.17103092
6	0xbd102d74	-0.035199597
7	0x3e1a09fa	0.15042868
8	0x3d58a005	0.05288698
9	0xbcd11c1d	-0.0255261
10	0x3daea8bc	0.08528277
11	0x3c2b305e	0.010448543
12	0x3e00df71	0.12585236
13	0xbddb018b	-0.10693654
14	0xbcebe90f	-0.028797654
15	0xbd08bd57	-0.033383694
16	0x3d3478dc	0.044060573
17	0x3a9e256c	0.0012065596
18	0x3e7cbd70	0.2468164
19	0x3dcc8b1e	0.09987472
20	0xbdce2ffd	-0.10067747
21	0xbe239128	-0.15973341
22	0xbd343aff	-0.044001576
23	0xbdef98ed	-0.1169909
24	0xbdc0086c	-0.09376606
25	0x3ce99d29	0.028517323
26	0x3e2a2b1b	0.16618006
27	0x3e0cead6	0.13761458
28	0xbe8ed92f	-0.27900073
29	0x3e33fedf	0.17577694
30	0x3da3003b	0.07959028
31	0x3e85e093	0.261479
32	0x3e4ff007	0.20306407
33	0xbe7f4e21	-0.24932148
34	0xbe82c81c	-0.25543296
35	0xbe0665c4	-0.13124758
36	0x3e7bcce4	0.24589878
37	0xbd76f84f	-0.0602954
38	0x3e0e3002	0.13885501
39	0xbe050db2	-0.12993506
40	0x3e8b2b7b	0.2718161
41	0xbde84294	-0.11340824
42	0x3e50343b	0.20332424
43	0x3a1a8df2	0.0005895785
44	0xbe1b11cb	-0.15143506
45	0x3e031c8c	0.12803859
46	0xbe1543ee	-0.14576694
47	0x3d969c74	0.0735406
48	0xbda86913	-0.08223166
49	0xbd080a2d	-0.03321283
50	0xbe82b653	-0.25529727
51	0xbe16df70	-0.14733672
52	0x3e1ee05b	0.15515272
53	0xbda79a16	-0.081836864
54	0x3e87af60	0.26500988
55	0x3e6b31d8	0.22968233
56	0xbbec3592	-0.0072085345
57	0xbe3a19a8	-0.1817385
58	0x3e446fc8	0.19183266
59	0x3dbedc3c	0.0931935
60	0xbe2b6fdb	-0.16741888
61	0x3e3ee731	0.1864288
62	0x3e329d9d	0.17442937
63	0x3e7155d4	0.23567897
64	0xbe06fcc0	-0.13182354
65	0xbd602b45	-0.054728765
66	0xbc22cf60	-0.009937137
67	0x3d084e0f	0.033277567
68	0xbe604bb4	-0.21903878
69	0xbe529d6f	-0.20567869
70	0x3e100e7b	0.14068024
71	0xbd8e5ce4	-0.06951311
72	0x3e029bbb	0.12754719
73	0x3c1278d2	0.008939939
74	0x3da8bfc7	0.082397036
75	0x3d55cfa4	0.052199975
76	0x3db57fd0	0.08862269
77	0x3e097757	0.13424431
78	0xbe8884e9	-0.26663902
79	0x3e154a21	0.14579059
80	0xbe34b833	-0.17648391
81	0xbe62d791	-0.22152545
82	0x3bc4d57a	0.0060068937
83	0xbd6f8f41	-0.058486227
84	0x3e0f43a4	0.13990647
85	0xbe2f43fa	-0.17115775
86	0xbe85f2f0	-0.2616191
87	0x3e4325ec	0.19057435
88	0xbd563791	-0.052299086
89	0x3e1f5caf	0.155627
90	0x3d86d561	0.065836675
91	0xbe55e398	-0.20887601
92	0x3d9a2424	0.075264245
93	0x3da1e6e3	0.07905366
94	0xbe418f54	-0.18902332
95	0xbe08af78	-0.13348186
96	0x3dc14a5d	0.09438012
97	0x3cf02724	0.029315539
98	0xbdf9d6fb	-0.121992074
99	0xbdbc66fd	-0.09199331
100	0x3e80cb1c	0.2515496
101	0xbd5b14c7	-0.05348661
102	0x3e2cae4a	0.16863361
103	0x3dcc8d9b	0.099879466
104	0xbe377989	-0.17917456
105	0xbe8124d2	-0.25223404
106	0x3e81695c	0.25275695
107	0x3c860813	0.016361272
108	0x3e438559	0.19093837
109	0x3d5b8cf6	0.053601228
110	0x3ddd289a	0.1079876
111	0x3e5697c3	0.2095633
112	0x3e8999ae	0.2687506
113	0xbe3b155b	-0.18269865
114	0x3d12256a	0.035680212
115	0x3e45a843	0.19302468
116	0x3e5feeb3	0.218684
117	0x3e2859bf	0.16440485
118	0xbe5a7f7a	-0.21337691
119	0xbe5ceb4d	-0.21574135
120	0xbe2f5a33	-0.17124252
121	0x3ceb21b3	0.028702592
122	0x3e8a9d87	0.2707331
123	0xbe273bca	-0.16331401
124	0x3e107e3f	0.14110659
125	0xbe1a9eff	-0.15099715
126	0xbe88a5ea	-0.26689082
127	0xbd8477d9	-0.064681716
128	0x3e156769	0.14590229
129	0x3e8af44f	0.27139518
130	0xbe1ccb51	-0.15311934
131	0x3d8f5e7b	0.070004426
132	0x3e81b040	0.2532978
133	0x3e4e3e22	0.2014089
134	0x3e440136	0.19141087
135	0x3e5dda20	0.2166524
136	0x3e2f0443	0.1709147
137	0x3db651a8	0.089022934
138	0xbe334b37	-0.17509161
139	0xbe5b8adb	-0.21439688
140	0xbdde402b	-0.10852083
141	0xbc3b7123	-0.011440548
142	0xbe31eb90	-0.17375016
143	0x3dc0be9e	0.09411357
144	0x3d962ad1	0.07332385
145	0xbd9f301d	-0.07772849
146	0x3dd3ecb4	0.10347882
147	0x3dac1745	0.08402876
148	0x3e254226	0.16138515
149	0x3e53f3af	0.20698427
150	0xbdcc12e6	-0.09964542
151	0x3e8c2a1e	0.27375883
152	0xbd197390	-0.037463725
153	0xbc744d32	-0.014910983
154	0xbe91d9c0	-0.28486443
155	0xbe221c40	-0.15831089
156	0xbe2c8e35	-0.16851123
157	0xbdcd919c	-0.100375384
158	0x3e56897f	0.20950888
159	0xbdcb9017	-0.09939592
160	0xbe5bd3ea	-0.21467558
161	0x3dced3d7	0.10098999
162	0x3d854734	0.065077215
163	0x3e2ecb8a	0.17069831
164	0xbe203710	-0.15646005
165	0x3d55e428	0.05221954
166	0xbdde7950	-0.10862982
167	0xbd640217	-0.055666056
168	0xbe7b37e5	-0.24533041
169	0xbe026104	-0.12732321
170	0xbdc6dfba	-0.09710641
171	0x3dc83284	0.0977526
172	0x3d56f741	0.052481893
173	0x3d8cbc72	0.068718806
174	0x3e8bb483	0.27286157
175	0x3e93aac5	0.28841224
176	0x3e4318d2	0.19052437
177	0x3c7c5824	0.015401874
178	0xbe43c3ff	-0.19117735
179	0x3e5e6734	0.21719056
180	0xbdaa6042	-0.08319141
181	0xbb5b5293	-0.0033465966
182	0xbe7c43dc	-0.24635261
183	0xbd225c67	-0.039638903
184	0xbe2bd2af	-0.16779588
185	0x3e7bc4bc	0.24586767
186	0xbe7dd93e	-0.24789903
187	0xbe627f41	-0.22118856
188	0xbcc8cc0c	-0.02451136
189	0xbe234208	-0.15943158
190	0x3db442ba	0.088017896
191	0xbdebb6e5	-0.11509494
192	0xbe0deaa9	-0.13859047
193	0x3c90e9c0	0.017689586
194	0x3e3d4d24	0.18486458
195	0xbe4467d0	-0.19180226
196	0x3dfddf5d	0.12396119
197	0x3e2f4755	0.17117055
198	0x3e8d4297	0.27589867
199	0xbe42d13b	-0.19025128
200	0x3d932c06	0.07186131
201	0xbe48aaff	-0.1959648
202	0x3e786550	0.24257398
203	0xbdce2c40	-0.10067034
204	0x3e2f9558	0.17146814
205	0x3c4abbee	0.0123739075
206	0xbcd8b6ef	-0.026454417
207	0x3ac5b733	0.0015084505
208	0x3d50b180	0.050950527
209	0x3e0bc78e	0.13650343
210	0x3d6c8ecd	0.057753373
211	0x3dadfd81	0.08495618
212	0xbe7d0a82	-0.2471104
213	0x3e52e96f	0.2059686
214	0x3e5e41a1	0.21704723
215	0x3e6f8c71	0.23393418
216	0x3e4dd926	0.20102367
217	0xbe4a70a9	-0.19769539
218	0xbdcdba65	-0.100453176
219	0x3e8450cd	0.25842896
220	0xbe72cf97	-0.23712002
221	0x3e842dc9	0.2581618
222	0xbe76cbc4	-0.24101168
223	0xbe5e7208	-0.21723187
224	0x3e14c13c	0.14526838
225	0xbe4412d8	-0.19147813
226	0xbd653375	-0.055957276
227	0x3e67eca7	0.2264887
228	0x3e6a33a5	0.22871263
229	0x3e8dd056	0.2769801
230	0xbd44ab11	-0.048014704
231	0xbe545589	-0.20735754
232	0x3e8a5ba8	0.27023053
233	0xbd04291d	-0.03226577
234	0xbddf6461	-0.10907818
235	0x3d5a83c6	0.053348325
236	0xbe5950a0	-0.21222162
237	0x3e425159	0.18976344
238	0x3e383726	0.17989787
239	0xbe56cdbd	-0.2097692
240	0xbe51048f	-0.20411895
241	0xbc8133ad	-0.015771711
242	0x3e0318d5	0.12802441
243	0xba971736	-0.0011527303
244	0xbe09584e	-0.13412592
245	0xba89f6cf	-0.0010525825
246	0xbe73035f	-0.23731755
247	0xbe41015a	-0.18848172
248	0xbe4df32e	-0.20112297
249	0x3e5cd731	0.21566464
250	0x3e820f44	0.25402272
251	0xbdafd4de	-0.08585523
252	0x3c9becf3	0.019033885
253	0x3e157024	0.1459356
254	0x3d2f0ed2	0.042738743
255	0xbe00d1ad	-0.12579985

fc1.bias f4 [256]
0	0xbde5e266	-0.11224823
1	0x3cf7789f	0.030208884
2	0xbe70b321	-0.23505832
3	0xbdfd8198	-0.12378234
4	0x3e6d3d49	0.2316791
5	0x3ddb4d4c	0.107081026
6	0xbc8ee73f	-0.017444251
7	0xbded6a54	-0.11592546
8	0xbe57bf64	-0.21069103
9	0x3e0b6e56	0.13616309
10	0xbdd75248	-0.10513741
11	0xbc44ea99	-0.012018823
12	0xbe3354ec	-0.17512864
13	0xbdcaa310	-0.09894383
14	0x3b01d541	0.0019810947
15	0xbd18565e	-0.03719174
16	0xbca25af3	-0.019818759
17	0xbd31a6c8	-0.043371946
18	0x3ded78d7	0.11595314
19	0x3d81e02a	0.06341584
20	0x3e83d92a	0.2575162
21	0x3ce5bb3b	0.02804338
22	0xbe842ceb	-0.2581552
23	0xbba8457b	-0.005135236
24	0x3e5b5f5b	0.21423094
25	0xbdd83ab5	-0.105580725
26	0xbab6ebd1	-0.0013955777
27	0x3cc78edf	0.024360118
28	0xbe4a0661	-0.19728996
29	0x3e8c3f13	0.27391872
30	0xbd8ef3a0	-0.069800615
31	0xbe561e46	-0.20909986
32	0xbe53abd2	-0.20671013
33	0xbe1e5e6d	-0.15465708
34	0xbe85554c	-0.2604164
35	0x3e5c46a0	0.21511316
36	0x3e837fdc	0.25683486
37	0xbe6413d0	-0.22273183
38	0xbe17da19	-0.14829291
39	0x3e00718f	0.12543319
40	0xbdabe366	-0.08392982
41	0x3e87bbbf	0.26510426
42	0xbe06a835	-0.13150103
43	0xbde8d4df	-0.11368727
44	0xbe6bdd1d	-0.23033567
45	0xbd9e31b6	-0.07724325
46	0x3e49533a	0.19660655
47	0xbd178c7f	-0.036999222
48	0xbe7aed85	-0.24504669
49	0x3e277fb3	0.16357307
50	0xbe27c007	-0.16381846
51	0x3dafce39	0.08584256
52	0x3e8c8513	0.27445278
53	0x3e069bba	0.13145342
54	0x3e74aac8	0.23893273
55	0xbe4eafb5	-0.20184214
56	0xbe4d0b5f	-0.20023869
57	0xbe890041	-0.26758006
58	0x3e47c175	0.19507392
59	0xbd58a25a	-0.052889206
60	0x3de210df	0.11038374
61	0xbe343bba	-0.17600909
62	0x3cd9fd14	0.026609935
63	0x3e84c02b	0.25927863
64	0x3cb495e6	0.022044133
65	0x3e709d8c	0.234976
66	0xbe46bf1a	-0.19408837
67	0x3cb48581	0.022036316
68	0xbd8aed89	-0.067835875
69	0xbe8352d5	-0.25649133
70	0xbe0555e9	-0.13021053
71	0xbc93f7d2	-0.018062506
72	0xbe8cedd8	-0.2752521
73	0x3e533c58	0.20628488
74	0xbe22ee50	-0.15911222
75	0x39990ca3	0.0002919185
76	0x3b15dcec	0.0022867275
77	0xbe8504fb	-0.25980362
78	0xbe095861	-0.1341262
79	0x3d0c5850	0.03426391
80	0xbd958d57	-0.07302349
81	0x3e1ea5a6	0.15492877
82	0x3da35250	0.07974684
83	0x3de3cadb	0.11122676
84	0x3e177efa	0.14794531
85	0x3d2ae52a	0.041722454
86	0xbe72e0bd	-0.23718543
87	0x3e0140e2	0.12622407
88	0xbda4bcbf	-0.08043813
89	0x3d634a71	0.055490915
90	0x3da9a58e	0.0828353
91	0x3da5c36e	0.08093916
92	0x3e52d947	0.20590697
93	0x3e859b05	0.26094833
94	0xbe4e6345	-0.20155056
95	0xbe0d90ad	-0.1382472
96	0x3df9b05d	0.12191842
97	0xbbaa69c0	-0.0052005947
98	0x3da68cb5	0.081323065
99	0xbe7192f8	-0.2359122
100	0xbdd323ed	-0.10309587
101	0x3b9430df	0.0045224275
102	0x3e6f0a90	0.23343873
103	0xbe585ba3	-0.21128707
104	0x3d8e4507	0.0694676
105	0x3d3412d2	0.04396326
106	0xbde4a305	-0.11163906
107	0x3de5e22b	0.11224779
108	0x3e750da8	0.2393099
109	0x3e6f24ed	0.2335393
110	0xbd5df205	-0.054185886
111	0xbcb36077	-0.021896584
112	0xba4ad053	-0.0007736731
113	0x3e27f96f	0.16403745
114	0xbe1bf7f9	-0.15231313
115	0x3db0fe86	0.086422965
116	0x3e2c53b3	0.16828804
117	0x3e24bb4e	0.16087076
118	0xbdab70ab	-0.08371099
119	0x3e248961	0.16068031
120	0xbe660255	-0.22461827
121	0xbd9e7b18	-0.07738322
122	0x3e5f0e04	0.2178269
123	0xbdcf12d0	-0.1011101
124	0x3c9b951f	0.018992005
125	0x3e8ac0e9	0.27100304
126	0x3d2393b6	0.03993579
127	0x3b2160ea	0.0024624416
128	0x3da0412c	0.078249305
129	0xbe500e09	-0.20317854
130	0xbe8fb49d	-0.28067484
131	0x3e0ea262	0.13929132
132	0xbcab885e	-0.020939048
133	0x3e0125a4	0.12612015
134	0xbc9ca421	-0.019121232
135	0x3e427453	0.18989687
136	0xbe50426f	-0.20337842
137	0xbe0afcf8	-0.13573062
138	0xbe708f61	-0.23492195
139	0xbe5e3594	-0.21700126
140	0x3e64193f	0.22275256
141	0xbd3d2d1a	-0.04618559
142	0xbe067151	-0.13129164
143	0xbdb40f76	-0.087920114
144	0xbc737983	-0.014860514
145	0xbd9758a8	-0.07389957
146	0xbe7f6965	-0.24942549
147	0x3e551589	0.20808996
148	0x3b552ea2	0.0032529016
149	0xbe553540	-0.20821095
150	0x3d91c812	0.071182385
151	0xbdb0aa97	-0.086262874
152	0xbd90db16	-0.07073037
153	0xbe6517f7	-0.22372423
154	0xbe8b1ef1	-0.27172044
155	0x3d9123cc	0.07086906
156	0xbe818efc	-0.253044
157	0x3e3add39	0.18248452
158	0xbe7b9b6a	-0.24571005
159	0xbd011235	-0.031511504
160	0xbe66199b	-0.22470705
161	0xbe39f698	-0.18160474
162	0xbe747cb1	-0.23875691
163	0xbe21a5a7	-0.15785848
164	0x3c7293a0	0.014805704
165	0x3d28f376	0.041247807
166	0xbe0f80f5	-0.14014037
167	0x3e31c318	0.17359579
168	0xbdd1696c	-0.10225186
169	0xbc80e929	-0.01573618
170	0x3e1e7401	0.1547394
171	0x3e86ea44	0.26350605
172	0x3e799737	0.2437409
173	0xbe8a1022	-0.26965433
174	0xbe3faf23	-0.18719153
175	0x3d2164b7	0.03940269
176	0x3bf206fe	0.0073860874
177	0x3e548cd1	0.20756842
178	0x3e252cd9	0.1613039
179	0xbe4786b9	-0.19484986
180	0x3e8a1c8c	0.26974905
181	0x3db5d28c	0.08878049
182	0x3e13e939	0.14444436
183	0xbd3185e5	-0.043340582
184	0x3e588dd8	0.21147859
185	0xbe4e24d1	-0.20131232
186	0x3df5f2c5	0.12009195
187	0x3e8eafa3	0.27868375
188	0x3dbc2a75	0.091877855
189	0xbdb9125f	-0.09036707
190	0x3bff9bb2	0.0078005427
191	0x3e537817	0.2065128
192	0xbe1f0aa5	-0.15531404
193	0xbe126b6f	-0.14298795
194	0x3d1c2134	0.038117602
195	0xbe04b3b5	-0.12959178
196	0xbdb354e5	-0.08756427
197	0xbdd9de79	-0.106381364
198	0x3e2472f2	0.16059473
199	0xbe77c5b4	-0.24196512
200	0xbe6bdc6c	-0.23033303
201	0x3e593a60	0.21213675
202	0xbcfee4c9	-0.031114953
203	0xbe7a659f	-0.24452828
204	0x3e15d9b9	0.14633836
205	0xbe2d6faa	-0.16937128
206	0xbc1412b7	-0.009037665
207	0x3e322888	0.17398274
208	0xbe1b68bc	-0.15176672
209	0xbe502983	-0.20328335
210	0x3d4204ed	0.04736798
211	0xbdfdaa97	-0.12386053
212	0xbd96dec4	-0.07366708
213	0x3e5f33a1	0.21797039
214	0x3d8d0236	0.06885187
215	0x3db6120e	0.088901624
216	0xbe83304b	-0.25622782
217	0xbe333653	-0.17501192
218	0xbe4e1f30	-0.20129085
219	0x3e8efd12	0.27927452
220	0xbde75ecf	-0.1129738
221	0x3e8d5d47	0.27610227
222	0x3e917309	0.28408077
223	0xbe2683aa	-0.16261163
224	0x3e096c58	0.13420236
225	0xbdd75807	-0.10514837
226	0x3e8c7408	0.27432275
227	0x3e464521	0.19362308
228	0x3dadec05	0.08492283
229	0x3e0f4e0f	0.1399462
230	0xbd215b39	-0.039393637
231	0xbd2fc40a	-0.042911567
232	0xbcc89bc0	-0.02448833
233	0xbde97fc2	-0.11401321
234	0xbe7a1828	-0.24423277
235	0xbcee7857	-0.029110117
236	0xbdba39d1	-0.09093059
237	0x3e73115d	0.23737092
238	0x3e843ad6	0.25826138
239	0xbe79b186	-0.24384126
240	0xbe57dc96	-0.2108024
241	0xbe0ab1e5	-0.13544424
242	0xbe907d6c	-0.2822069
243	0xbc77d2ee	-0.015125973
244	0x3db7afc2	0.0896907
245	0xbd23cd00	-0.039990425
246	0x3d9d2853	0.07673707
247	0xbd22a01b	-0.03970347
248	0xbe88845f	-0.2666349
249	0xbe12896b	-0.14310233
250	0xbe882d90	-0.2659726
251	0xbe29cc4a	-0.16581836
252	0xbe1c48e9	-0.15262188
253	0x3e5caece	0.21551058
254	0xbdd7cb8b	-0.105368696
255	0xbd85c8d3	-0.06532445

fc2.weight f4 [256, 256]
0	0xbd057a5d	-0.032587398
1	0xbb15d1b7	-0.0022860595
2	0x3cadcf35	0.021216968
3	0x3c310f09	0.010806807
4	0x3d80247e	0.0625696
5	0x3cf03f96	0.029327195
6	0xbc51daba	-0.012808496
7	0x3d0dc7af	0.03461426
8	0xbcde2890	-0.027118951
9	0x3c253a0f	0.010084643
10	0xbb1ac09c	-0.002361334
11	0x3cf4df47	0.029891623
12	0xbd0397bf	-0.03212714
13	0x3c90cae1	0.017674865
14	0x3cd83e74	0.026396967
15	0xbbd6581d	-0.0065412656
16	0xbd195f62	-0.03744448
17	0xbd2ab150	-0.041673005
18	0xbd0bf5c3	-0.034169924
19	0xbd58e354	-0.052951172
20	0xbb1700a6	-0.0023041158
21	0xbd11e825	-0.03562178
22	0xbd209f69	-0.039214525
23	0x3d85eb9e	0.06539081
24	0xbd7c455e	-0.06158959
25	0x3d06e11e	0.032929532
26	0xbbfcaf00	-0.0077112913
27	0xbcc63876	-0.024196845
28	0x3d42bbc4	0.04754235
29	0x3d6ba700	0.05753231
30	0xbd0711ac	-0.032975838
31	0xbb7687b3	-0.0037617504
32	0xbd07c0f3	-0.033142995
33	0xbd29ff33	-0.041503143
34	0x3d3bb875	0.04583021
35	0x3d4113d3	0.047138046
36	0x3d889ed8	0.06670922
37	0xbd617d74	-0.055051282
38	0xbcee96c6	-0.029124629
39	0x3ccf83c7	0.025331391
40	0xbd2c6524	-0.042088643
41	0x3d9305b9	0.07178826
42	0x38242b1c	3.9140796e-05
43	0x3a912eed	0.0011076607
44	0x3c8f380d	0.017482782
45	0x3d3d764c	0.046255395
46	0x3c995847	0.018718852
47	0xbce79782	-0.028270487
48	0x3d812ae9	0.063070126
49	0xbc263bf7	-0.010146133
50	0xbb27450a	-0.0025523328
51	0xbd8a4503	-0.06751444
52	0xbcb0e2c3	-0.021592503
53	0x3d0d5173	0.034501504
54	0x3c6fc73e	0.014634905
55	0xbbabb039	-0.0052395132
56	0xbcdf7a6b	-0.027280053
57	0xbd9df547	-0.077127986
58	0x3d1d227a	0.038362958
59	0xbd5333fc	-0.051563248
60	0x3d158d08	0.03651145
61	0xbd01187f	-0.031517502
62	0x3d773f85	0.06036331
63	0x3b8a501b	0.004220975
64	0xbce77f02	-0.028258804
65	0x3d79934a	0.06093148
66	0x3d150eb9	0.036390994
67	0xbd2a76cc	-0.0416172
68	0xbcd302ee	-0.025758233
69	0xbcc336c0	-0.023829818
70	0xbb7e5c1d	-0.0038812228
71	0x3d66e645	0.056371946
72	0xbd3fb0d2	-0.04679949
73	0x3d149589	0.03627542
74	0x3d81d6f3	0.063398264
75	0x3d2b0432	0.041752048
76	0xbc83e82a	-0.016101915
77	0x3d9213d5	0.07132689
78	0xbd0b51db	-0.03401361
79	0x3c288f7f	0.010288118
80	0xbcd85e53	-0.026412165
81	0x3d08cb8f	0.033397254
82	0xbd4b58a6	-0.04964509
83	0x3cea801b	0.028625539
84	0xbd64934d	-0.05580454
85	0xbd620c2c	-0.05518739
86	0xbcb5864f	-0.02215877
87	0x3d55a6e8	0.052161127
88	0x3cd5f403	0.02611733
89	0xbd62f9f7	-0.055414166
90	0x3d046bde	0.032329433
91	0xbbc73bda	-0.006080133
92	0xbca78729	-0.020450192
93	0xbd9fc066	-0.07800369
94	0xbce6c326	-0.028169226
95	0x3d4dbd92	0.050229616
96	0xbceb339d	-0.028711135
97	0x3d678127	0.056519654
98	0xbb0cce99	-0.0021485446
99	0xbd8f1a60	-0.069874525
100	0xbcc15aba	-0.023602832
101	0x3d065e28	0.03280464
102	0x3d17d886	0.037071727
103	0x393c649d	0.00017966559
104	0x3cbd2ffc	0.02309417
105	0xbc87cea7	-0.016578032
106	0xbbf9418f	-0.007606692
107	0x3b9eab99	0.0048422334
108	0xbc87c9a3	-0.01657564
109	0x3d7c0cb3	0.06153555
110	0x3d87d480	0.06632328
111	0x3d6f9508	0.058491737
112	0x3d71289d	0.058876622
113	0xbd29a411	-0.04141623
114	0xbb9f5e5d	-0.004863544
115	0x3d7cd5fb	0.061727505
116	0x3d591adb	0.053004127
117	0x3c9cd6a6	0.019145321
118	0xbc429c49	-0.011878082
119	0xbb3e9831	-0.0029082412
120	0x3ac38700	0.0014917552
121	0xbc5d9138	-0.013523392
122	0x3badf5e0	0.0053088516
123	0x3becb90d	0.007224208
124	0x3d794178	0.06085345
125	0xbbcf9a9b	-0.006335569
126	0x3d31917b	0.04335163
127	0x3d707900	0.058709145
128	0x3cf1bf1d	0.029510075
129	0x3d278ef6	0.040907823
130	0x3cc778a1	0.024349513
131	0xbd2c3036	-0.042038165
132	0xbce08b91	-0.0274103
133	0x3c169dfe	0.009192942
134	0xbc862baf	-0.016378252
135	0xbc9b6d69	-0.01897307
136	0xbc877397	-0.01653461
137	0xbd08bae2	-0.03338135
138	0xbc9eeafe	-0.019399162
139	0x3b48bd8b	0.0030630555
140	0x3b002bbe	0.0019557322
141	0xbcc11202	-0.023568157
142	0xbcd06b91	-0.025441917
143	0x3d27ae18	0.040937513
144	0x3d8289f1	0.063739665
145	0xbd0526c2	-0.032507665
146	0xbd8bd35c	-0.06827423
147	0xbd0c6da0	-0.034284234
148	0xbc9081d6	-0.017640036
149	0xbd8ef542	-0.06980373
150	0xbd11594b	-0.035485547
151	0x3d684d15	0.056714136
152	0xbcbedeff	-0.023299692
153	0x3d2532b4	0.040331557
154	0x3cc0c939	0.02353345
155	0xbc29ca3b	-0.010363157
156	0xbc2540b6	-0.010086229
157	0x3d63e91b	0.05564223
158	0xbb4c39ad	-0.0031162307
159	0xbcdd22bb	-0.0269941
160	0x3c63d677	0.013906113
161	0xbc69df2a	-0.014274398
162	0x3cbcd6fe	0.023051735
163	0x3bdbbaae	0.0067056036
164	0xbd885c5f	-0.066582434
165	0xbcb78d15	-0.02240614
166	0x3c8e9e13	0.01740936
167	0x3ca707f2	0.02038953
168	0x3beb86fa	0.0071877213
169	0xbcbc52c2	-0.02298868
170	0xbbd2f81c	-0.0064382683
171	0x3b082f19	0.0020780026
172	0x3d251e5d	0.04031216
173	0xbd12cde2	-0.035840876
174	0xbcb32ac0	-0.02187097
175	0x3d472585	0.048619766
176	0x3d978c26	0.07399778
177	0x3d68c16d	0.05682509
178	0x3d854eda	0.0650918
179	0xbd588456	-0.05286058
180	0xba17876a	-0.0005780371
181	0xbd3ab167	-0.04557934
182	0xbccfdcfb	-0.025373926
183	0x3d2899ba	0.04116223
184	0x3d8452cf	0.06461107
185	0xbd6d88d7	-0.05799183
186	0x3cd0ad34	0.025473215
187	0xbc664b40	-0.014056027
188	0x3d23ef52	0.040023156
189	0x3c57d434	0.013173152
190	0xbd4f5c0d	-0.050624896
191	0x3d6d412a	0.057923473
192	0xbd524c7b	-0.05134247
193	0xbd220410	-0.039554656
194	0xbd191a01	-0.037378315
195	0x3cc52a35	0.024067977
196	0x3d0cb4d6	0.034352146
197	0xbd1bdb62	-0.038051017
198	0xbcb3bf74	-0.021941878
199	0xbb78ce01	-0.0037964585
200	0x3babb52a	0.0052401023
201	0x3d39ea46	0.045389436
202	0xbd459c75	-0.048244912
203	0x3c344582	0.0110029
204	0xbd23d71a	-0.04000006
205	0xbd14c5e1	-0.036321525
206	0x3b23b76d	0.0024981156
207	0xbd48c081	-0.04901171
208	0x3d4ba61a	0.049718954
209	0xbcfc1ee6	-0.030776452
210	0x3c9a654b	0.018847128
211	0xbc851097	-0.016243262
212	0x3c9eaa20	0.019368231
213	0x3d0abc92	0.03387124
214	0x3c3ced41	0.011531175
215	0xbc722737	-0.014779857
216	0xbd1253af	-0.03572434
217	0xbd0f1221	-0.0349294
218	0x3d13a0fd	0.036042202
219	0x3cd74c7e	0.026281592
220	0xbd16beb6	-0.03680297
221	0xbc9de257	-0.019272966
222	0x3b612b2e	0.0034358012
223	0xbd20bc13	-0.03924186
224	0xbb3806d5	-0.0028080244
225	0x3d937a23	0.0720103
226	0xbcc03120	-0.023460925
227	0x3d577ef4	0.052611306
228	0x3d8f743b	0.07004591
229	0xbd4b99ca	-0.04970721
230	0x3d3d19c6	0.046167158
231	0xbd89220d	-0.06695948
232	0x3cb4133c	0.021981828
233	0xbd20c971	-0.03925461
234	0xbd28d425	-0.04121794
235	0x3ca39d79	0.01997255
236	0x3c8dfe6e	0.017333236
237	0xb96dc797	-0.00022676434
238	0xbc58e4df	-0.013238161
239	0x3c16e7b7	0.009210519
240	0xbd8a8612	-0.06763853
241	0xbc2ff912	-0.010740535
242	0xbd4885a8	-0.04895559
243	0xbb7cf81e	-0.0038600038
244	0x3d995ce8	0.074884236
245	0xbc9b9348	-0.018991128
246	0xbcb4c145	-0.022064814
247	0xbd354b48	-0.044261247
248	0x3d6740f9	0.056458447
249	0x3d1ce8f5	0.038308103
250	0xbd67178f	-0.05641895
251	0xbcc0e84c	-0.023548268
252	0x3d82719a	0.06369324
253	0xbd33ec59	-0.04392657
254	0xbbb79075	-0.0056019374
255	0xbd5ce8d5	-0.053932983

fc2.bias f4 [256]
0	0xbd55a574	-0.05215974
1	0xbbcf79ed	-0.0063316734
2	0x3ceb640b	0.028734228
3	0xbd06bdd0	-0.032895863
4	0xbd87fa4c	-0.06639537
5	0xbbd82924	-0.006596701
6	0x3d20a54a	0.039220132
7	0x3cfd6a8f	0.0309346
8	0xbc9dc703	-0.019259935
9	0x3d5dd57c	0.054158673
10	0xbd2924b8	-0.041294783
11	0x3d526cb3	0.051373195
12	0x3d180b35	0.037120063
13	0x3d02d752	0.031943627
14	0x3d421154	0.047379807
15	0xbc7d72d2	-0.01546927
16	0x3d256be2	0.04038609
17	0x3cf38c95	0.02973012
18	0xbc5c0865	-0.013429736
19	0xbd13a0f3	-0.036042165
20	0xbc1b12ac	-0.009464901
21	0x3d3978dd	0.04528128
22	0x3ca870de	0.020561632
23	0xbd90d72c	-0.07072291
24	0xbd4ce946	-0.050027154
25	0x3d09b751	0.03362209
26	0xbd32b5d4	-0.043630436
27	0xbaffdf60	-0.0019521527
28	0xbc8b2ac6	-0.01698817
29	0x3cd78d7c	0.026312582
30	0x3bb88e63	0.005632208
31	0x3c818159	0.015808748
32	0x3cd5648b	0.02604892
33	0xbcf4807f	-0.029846428
34	0xba48b6c2	-0.00076566276
35	0x3cfac255	0.030610243
36	0x3d186b5b	0.037211757
37	0xbc13f8a7	-0.009031451
38	0x3d4c3fdf	0.0498656
39	0x3ce510b5	0.027962068
40	0x3d365825	0.044517655
41	0x3cb036aa	0.02151044
42	0xbbf546cf	-0.0074852477
43	0xbcf2858a	-0.029604692
44	0xbd2a0531	-0.041508857
45	0xbd4bb339	-0.049731467
46	0x3c2d82b3	0.010590243
47	0x3d2f2d06	0.042767547
48	0xbd545b3c	-0.05184482
49	0xbd93bdb5	-0.07213918
50	0x3d04bd54	0.03240712
51	0x3a90c848	0.0011046017
52	0x3d6152df	0.055010673
53	0x3cc77aa2	0.024350468
54	0x3d39c524	0.045354024
55	0x3cf8846b	0.03033658
56	0x3d3c0f6a	0.045913137
57	0x3d186683	0.037207138
58	0x3d5a5a30	0.053308666
59	0x3c27b1a2	0.010235222
60	0xbcd4eb0f	-0.02599099
61	0xbb805bcd	-0.0039171935
62	0x3d593e0e	0.053037696
63	0x3d5ef979	0.054437134
64	0x3d1562ce	0.03647118
65	0xbd42f8f7	-0.047600713
66	0xbd389d32	-0.045071788
67	0x3d36446f	0.044498857
68	0xbd5696d4	-0.052389935
69	0x3baac2f0	0.0052112266
70	0x3d309ace	0.043116383
71	0xbd3807a9	-0.04492918
72	0xbbecfea9	-0.0072325063
73	0xbd14a476	-0.036289655
74	0x3cb84c5c	0.022497348
75	0x3d58f035	0.052963454
76	0x3cfc0671	0.03076479
77	0x3ca8e467	0.020616723
78	0xbd256641	-0.04038072
79	0x3d1dd80f	0.038536128
80	0xbc22839d	-0.009919074
81	0x3d652c2c	0.05595033
82	0x3d01838e	0.0316196
83	0xbd1e62c7	-0.03866842
84	0x3d085ae0	0.03328979
85	0x3cff46ce	0.031161692
86	0xbd28251c	-0.041051015
87	0xbd4aeb79	-0.04954097
88	0xbbcf1953	-0.0063201576
89	0xbd03d14f	-0.032182034
90	0xbc0bbc18	-0.008528732
91	0xbcfc043b	-0.030763736
92	0xbc8f0265	-0.017457196
93	0xbd44d14f	-0.048051175
94	0xbd4d4e9e	-0.050123803
95	0xbcc52c7f	-0.024069069
96	0xbcf7d43f	-0.030252574
97	0xbd53cedb	-0.051710945
98	0x3d24d258	0.040239662
99	0xbcbe684f	-0.023243098
100	0xbd37432c	-0.044741794
101	0xbd30c2b4	-0.043154433
102	0x3ca79f79	0.020461785
103	0xbb61aade	-0.003443412
104	0xbcdb5fb7	-0.026779039
105	0x3bb55ee2	0.0055349926
106	0x3c819179	0.015816437
107	0xbbb9bc1d	-0.005668177
108	0x3cc08c1a	0.023504306
109	0xbc524625	-0.012834107
110	0xbd160446	-0.03662517
111	0x3d4b4a33	0.04963131
112	0xbd72c6ad	-0.059271503
113	0x3d6973a8	0.056995064
114	0xbd587cef	-0.05285352
115	0x3be9431f	0.007118597
116	0xbced63a6	-0.02897818
117	0xbc98a30b	-0.018632432
118	0x3c595b65	0.013266419
119	0xbd15a43f	-0.03653359
120	0x3d152bbb	0.036418658
121	0x3d4b162b	0.049581688
122	0xbb02e6b9	-0.0019973947
123	0x3d028c2e	0.031871967
124	0xbc87a084	-0.016556032
125	0xbc940529	-0.018068867
126	0xbcb75541	-0.02237952
127	0x3d92b6fd	0.071638085
128	0x3d52eeef	0.051497396
129	0xbd36f42a	-0.044666447
130	0x3d26f63f	0.040762182
131	0x3d641c2f	0.05569094
132	0x3d7ae3ed	0.061252523
133	0x3abc5290	0.0014367867
134	0xbd8041dd	-0.062625624
135	0xbcf292b8	-0.029610977
136	0x3c9cba4d	0.019131804
137	0xbcd7d36b	-0.02634593
138	0xbd46df7b	-0.04855297
139	0x3d6724fb	0.05643175
140	0xbd57fe9c	-0.05273305
141	0xbd1e18f5	-0.03859802
142	0x3d83ddc9	0.064387865
143	0x3c7d0c8b	0.015444885
144	0xbd2deecb	-0.04246406
145	0x3ceba3c9	0.028764622
146	0x3caef563	0.021357244
147	0x3a9d310a	0.0011992764
148	0xbcaa89b8	-0.020817623
149	0xbd652603	-0.055944454
150	0xbd334486	-0.04376652
151	0xbd1e33cd	-0.03862362
152	0x3b31aa00	0.0027109385
153	0x3c0e6bec	0.008692723
154	0x3c1dfd92	0.009642975
155	0x3d2d796f	0.042352136
156	0x3d063bc5	0.032771844
157	0x3cecf974	0.028927542
158	0x3d27eb88	0.040996104
159	0xbd1be9f9	-0.03806493
160	0x3d1353b9	0.035968516
161	0xbd3802cb	-0.04492454
162	0xbce78bc3	-0.028264886
163	0x3cb1bfa5	0.021697829
164	0x3cce47bf	0.025180696
165	0xbc8d7813	-0.01726917
166	0xbc9b821b	-0.018982938
167	0x3cb39d20	0.021925509
168	0xbb9a126b	-0.0047019026
169	0x3d4d4e82	0.0501237
170	0xbcaf7f95	-0.02142314
171	0xbd8f2fda	-0.06991549
172	0x3c99c27e	0.018769499
173	0x3d394c95	0.04523905
174	0xbcdc60cd	-0.026901627
175	0xbb3ca2e4	-0.0028783614
176	0x3c610d7e	0.013736127
177	0xbd56dc8d	-0.052456427
178	0x3cf20a39	0.02954589
179	0xbcdbce1a	-0.026831675
180	0xbcd35b6f	-0.025800435
181	0x3d874af5	0.06606094
182	0xbd86ec0c	-0.06587991
183	0xbd8730c4	-0.06601098
184	0x3cab690f	0.02092412
185	0x3d2c11ae	0.04200905
186	0x3cad5b53	0.02116171
187	0xbd1e5690	-0.03865677
188	0xbab8e482	-0.0014106187
189	0x3d31b456	0.043384872
190	0xbcff8abf	-0.031194089
191	0x3c5f264b	0.01361997
192	0x3b1bbd39	0.0023763909
193	0xbbbb1185	-0.0057088756
194	0xbd26f8f4	-0.040764764
195	0xbd5dc321	-0.054141168
196	0x3c5f3bb1	0.013625071
197	0xbcc86fcd	-0.024467373
198	0x3b9b78e8	0.0047446378
199	0x3bf53828	0.007483501
200	0x3c9b1e87	0.018935455
201	0x3d685f1a	0.05673132
202	0xbcae84d8	-0.02130358
203	0x3d09afdc	0.03361498
204	0x3c1e608d	0.009666574
205	0xbcecdd26	-0.028914046
206	0x3cf0c1d8	0.029389307
207	0xbccc0c9b	-0.024908355
208	0x3c90cc9d	0.017675692
209	0x3cfa8058	0.030578777
210	0xbd2aaa15	-0.04166611
211	0x3d4046a8	0.046942383
212	0xbd0c8519	-0.03430662
213	0xbd31aa30	-0.043375194
214	0x3d19c30c	0.037539527
215	0x3d2e3b70	0.042537153
216	0xbca85b9b	-0.020551493
217	0x3cf52222	0.029923502
218	0x3d53322e	0.051561527
219	0x3c58db21	0.013235838
220	0x3d816ce7	0.063195996
221	0x3c730eeb	0.0148351
222	0xbd0ee9b5	-0.03489085
223	0x3ca9a4de	0.020708498
224	0xbd6808cd	-0.056649018
225	0x3d049fce	0.032378964
226	0xbd22e3ed	-0.03976815
227	0xbd46d023	-0.04853834
228	0xbc8e3e68	-0.017363742
229	0x3a60eefc	0.00085805333
230	0xbccee6a7	-0.025256468
231	0x3cbf3749	0.023341792
232	0x3bea248a	0.007145469
233	0xbbdbb1d0	-0.0067045465
234	0xbd3f5493	-0.046711516
235	0xbb13acfa	-0.0022533522
236	0x3c517056	0.012783131
237	0xbd2337eb	-0.03984825
238	0xbd547a8a	-0.051874675
239	0xbca1f789	-0.019771354
240	0x3c518d4d	0.012790036
241	0xbceb8ee0	-0.028754652
242	0x3d69e8f6	0.057106934
243	0x3c86c8db	0.016453197
244	0x3cc9d393	0.02463702
245	0xbc015d73	-0.007895815
246	0x3d27f095	0.04100092
247	0xbbcaab94	-0.0061850045
248	0x3d4732e8	0.048632532
249	0x3c2ca3c2	0.01053709
250	0x3c5a44f4	0.013322104
251	0x3cb728c3	0.022358304
252	0xbd19b930	-0.037530124
253	0xbccc0613	-0.02490524
254	0x3d6b33cc	0.057422444
255	0x3d237ac1	0.03991199

fc3.weight f4 [32, 256]
0	0xbc9dc413	-0.019258535
1	0xbd11207d	-0.035431374
2	0xbd57e850	-0.052711785
3	0x3cb52d10	0.022116214
4	0xbcf194e4	-0.029489942
5	0xbd67b2eb	-0.056567114
6	0xbcc7d1a7	-0.024391962
7	0xbd1780c2	-0.036988027
8	0xbd8f5962	-0.0699947
9	0xbd06bc47	-0.0328944
10	0x3cc795cd	0.024363423
11	0x3d0547a0	0.03253901
12	0xbd1c1aaa	-0.038111366
13	0x3b8e4469	0.004341651
14	0xbc945c7f	-0.018110512
15	0xbbb3b8eb	-0.0054846904
16	0x3b532751	0.003221948
17	0xbb99f72e	-0.0046986556
18	0x3d1c1d07	0.03811362
19	0xbcf242ae	-0.029572811
20	0xbc7e3d91	-0.015517608
21	0xbcd62233	-0.026139354
22	0xbc4fa1e2	-0.012672873
23	0xbbd6adfe	-0.006551503
24	0xbce52a93	-0.027974403
25	0x3cae61a6	0.021286797
26	0x3cc147c3	0.023593789
27	0x3d2658f6	0.040612184
28	0x3d0e9263	0.034807574
29	0x3d5fa68f	0.054602202
30	0x3c25ebca	0.010127017
31	0x3d7b3ecc	0.061339185
32	0xbc19a902	-0.0093786735
33	0x3be74f10	0.0070589855
34	0xbd90ef68	-0.07076913
35	0x3c3deb45	0.011591737
36	0x3be48531	0.0069738855
37	0xbd11f384	-0.035632625
38	0xbca45aad	-0.020062769
39	0x3baae675	0.005215461
40	0xbd0f09d6	-0.03492149
41	0xbcec600c	-0.028854392
42	0xbd0edfee	-0.034881525
43	0x3b76e46d	0.0037672773
44	0x3d297a87	0.041376617
45	0xbd805208	-0.06265646
46	0xbd38c64e	-0.045110993
47	0x3c703fde	0.014663665
48	0x3d124a0a	0.03571514
49	0x3d5e13f7	0.05421826
50	0xbd3943a2	-0.045230515
51	0x3c31b314	0.010845918
52	0xbd3b2c46	-0.04569652
53	0x3d0018a5	0.031273503
54	0xbbdaff2b	-0.0066832504
55	0x3cbd0850	0.023075253
56	0xbd8e0fbe	-0.06936596
57	0xbcd847ed	-0.026401484
58	0x3d4dd5df	0.05025279
59	0x3d43ef98	0.047835916
60	0xbcc02246	-0.023453843
61	0x3c9e7eb5	0.019347528
62	0x3bb4378a	0.005499785
63	0xbd6b9bc2	-0.05752159
64	0x3cafa7bc	0.021442287
65	0x3c99f55e	0.018793758
66	0x3cf5fb4f	0.03002706
67	0x3cca53c9	0.024698155
68	0x3bc14389	0.0058979434
69	0x3d901bbb	0.07036539
70	0xbc6804fc	-0.014161345
71	0xbd11668f	-0.035498198
72	0xbd21e56a	-0.039525427
73	0x3cd1c9de	0.025608953
74	0x3d0fbdbc	0.035093054
75	0x3ceb6dc2	0.02873886
76	0x3c860a91	0.01636246
77	0x3c30de06	0.010795122
78	0x3c2ecbed	0.010668737
79	0xbd2cd41a	-0.042194463
80	0xbbd4a690	-0.0064895824
81	0xbc571d73	-0.01312958
82	0xbd69abab	-0.05704848
83	0x3d58a9c9	0.052896295
84	0x3d46e121	0.048554543
85	0x3a9d3344	0.0011993428
86	0xbd83162f	-0.064007156
87	0x380fad8c	3.4255485e-05
88	0xbd0376c8	-0.0320957
89	0xbd252b01	-0.040324215
90	0xbd46c5cf	-0.04852849
91	0x3d26674b	0.04062585
92	0xbd546ec9	-0.051863465
93	0xbc48f4e9	-0.012265422
94	0x3d61cd7f	0.055127617
95	0xbce91605	-0.028452883
96	0xbd56d52e	-0.052449398
97	0x3d815370	0.063147426
98	0x3c69945f	0.014256566
99	0x3ce1fbf2	0.027585957
100	0x3d0147d1	0.03156263
101	0x3d7f80ed	0.062378813
102	0x3cce4989	0.025181549
103	0x3cba67e1	0.022754611
104	0xbd3f4a9b	-0.04670201
105	0xbd748d35	-0.059704978
106	0xbd4a89e4	-0.04944791
107	0xbd445737	-0.047934737
108	0x3b76fd13	0.0037687465
109	0xbccca82e	-0.024982538
110	0x3d386e2c	0.045026943
111	0xbd3452b9	-0.044024203
112	0xbd3311c5	-0.04371812
113	0x3d21593e	0.03939175
114	0xbcc29b32	-0.023755644
115	0x3d3260c3	0.04354931
116	0x3d5b8852	0.053596802
117	0x3d23bc48	0.03997448
118	0x3d85eda3	0.06539466
119	0x3d8ce151	0.06878913
120	0xbc9be154	-0.019028343
121	0xbd72a9f5	-0.059244115
122	0xbd68ad49	-0.056805883
123	0xbd877647	-0.066143565
124	0xbd034313	-0.03204639
125	0x3d370b4f	0.04468852
126	0xbd7109d9	-0.058847282
127	0xbd287354	-0.04112561
128	0xbd6f069c	-0.058355913
129	0xbcd312ef	-0.025765864
130	0xbc0439e6	-0.008070445
131	0xbd3bd27d	-0.045855034
132	0xbd756073	-0.059906434
133	0x3d076cfe	0.033062927
134	0x3cda8c64	0.026678272
135	0x3d40c4c7	0.04706266
136	0x3d7a730d	0.061144877
137	0x3c4f58ea	0.012655476
138	0x3bd50d4c	0.0065018293
139	0xbc456eff	-0.012050389
140	0xbd90cb0a	-0.07069977
141	0xbbc32148	-0.005954895
142	0xbd666682	-0.056250103
143	0x3b8ccb9c	0.004296733
144	0xbbeb1fd3	-0.0071754246
145	0x3be1af5a	0.0068873586
146	0xba64578b	-0.00087105547
147	0x3bc3231d	0.0059551136
148	0x3d8677bf	0.065658085
149	0x3d1594d7	0.036518898
150	0x3c719a57	0.01474627
151	0x3bb833fb	0.005621431
152	0xbd198467	-0.037479784
153	0x3d203330	0.039111316
154	0xbd1b5218	-0.037920088
155	0xb915d45a	-0.00014288854
156	0x3d557dfb	0.052122097
157	0xbd9a65cd	-0.07538948
158	0x3c099b2d	0.008398813
159	0xbcb29e5f	-0.021804033
160	0x3d8e5c61	0.06951214
161	0xbca0a4ae	-0.019609775
162	0x3c9fe2e0	0.019517362
163	0x3d1b0c67	0.037853625
164	0xbd973501	-0.073831566
165	0x3d177aa8	0.03698221
166	0x3caa95c0	0.02082336
167	0x3d21dd97	0.039517965
168	0xbc3ea1f6	-0.011635294
169	0xbba1aa48	-0.004933629
170	0x3d58914c	0.05287294
171	0x3c262b4e	0.010142161
172	0x3cf2599d	0.029583747
173	0xbd0e6f97	-0.03477439
174	0x3d209ccc	0.039212033
175	0x3d574057	0.052551594
176	0xbd85de02	-0.06536485
177	0xbd2ce6f2	-0.042212434
178	0xbc044fd2	-0.008075671
179	0x3d4c6abe	0.049906485
180	0xbc53aacf	-0.012919142
181	0x3ae43bb9	0.0017412818
182	0xbc6719ff	-0.014105319
183	0xbd3e4ab8	-0.046457976
184	0x3b4e1764	0.0031447047
185	0xba17cfac	-0.00057911384
186	0xbcd2d6bc	-0.025737159
187	0x3d8a3a4e	0.06749402
188	0x3b8ac538	0.004234936
189	0xbcdfa8bc	-0.027302139
190	0x3d30ed74	0.043195203
191	0x3d1a9062	0.03773535
192	0xbae115e6	-0.0017172664
193	0xbd8188b7	-0.063249044
194	0x3ca50f47	0.020148886
195	0x3cd13abd	0.025540704
196	0x3d1b164b	0.037863057
197	0xbd8e9f9a	-0.06964035
198	0xbbf5f6a9	-0.007506211
199	0x3c4113de	0.011784522
200	0x3d509f65	0.05093326
201	0xbd360f10	-0.04444796
202	0x3d8ae0c4	0.06781152
203	0xbc5a61e2	-0.013329001
204	0xbd1c9f4d	-0.03823786
205	0x3cbaa4d8	0.022783682
206	0xbcbd6bda	-0.023122717
207	0xbd101158	-0.03517279
208	0x3bf8ee81	0.0075967913
209	0xbbefe79e	-0.007321312
210	0xbd3ff7fb	-0.046867352
211	0x3b962609	0.004582171
212	0xbadda60b	-0.0016910447
213	0x3be0d9fe	0.006861924
214	0x3d3eaea4	0.04655327
215	0xbc107a13	-0.008818167
216	0xbba49b20	-0.005023375
217	0xbd835a8d	-0.064137556
218	0xbd828009	-0.06372077
219	0x3add529a	0.0016885579
220	0x3d207dbf	0.03918242
221	0x3cd1d577	0.025614483
222	0xbce9c319	-0.028535413
223	0x3ca54c51	0.020177992
224	0xbcab7d01	-0.02093363
225	0x3b0e66d9	0.0021728782
226	0xbcad79bf	-0.021176217
227	0x3c5b3e19	0.013381504
228	0xbd088039	-0.033325408
229	0x3d6cec21	0.057842378
230	0xbc9d7e20	-0.01922518
231	0xbc961c3d	-0.018324012
232	0xbcb44745	-0.02200664
233	0xbca3c495	-0.019991199
234	0xbcbf582b	-0.023357471
235	0x3d5d3f56	0.05401548
236	0xbc105b4a	-0.0088108275
237	0xbd735877	-0.05941054
238	0x3d2a364f	0.0415557
239	0x3b312e5b	0.0027035687
240	0x3b16daf1	0.0023018683
241	0x3d1e77c5	0.03868844
242	0x3d0d8ce8	0.034558207
243	0x3c4456ef	0.011983617
244	0x3d399bf7	0.045314755
245	0x3cd161bc	0.025559299
246	0x3d8704dd	0.065927245
247	0x3d499b93	0.049220633
248	0xbd2ab8fc	-0.04168032
249	0xbcbaa745	-0.022784838
250	0x3b4b554d	0.0031026185
251	0x3cb55ce0	0.022139013
252	0x3d52b4cd	0.051441956
253	0x3d11ca99	0.035593603
254	0xbc08fd77	-0.008361212
255	0x3cb94574	0.022616126

fc3.bias f4 [32]
0	0x3c37b536	0.011212638
1	0xbd0125e3	-0.031530272
2	0x3d235442	0.039875276
3	0x3d23907e	0.03993272
4	0x3d540211	0.051759783
5	0xbce87f92	-0.028381143
6	0xbd29d4b7	-0.041462626
7	0x3d862d87	0.065516524
8	0x3d22400c	0.03961186
9	0xbd068aca	-0.032847203
10	0xbd83cd8b	-0.064356886
11	0xbd443b54	-0.047908142
12	0x3c7d3809	0.015455254
13	0x3caa0e86	0.020758878
14	0x3d6ff9aa	0.058587708
15	0x3d1d2401	0.038364414
16	0xbd073565	-0.033009905
17	0xbd8bd6a9	-0.068280526
18	0x3d1d65a3	0.038427006
19	0x3be937bf	0.007117241
20	0x3d21988e	0.039452128
21	0x3c9a4c2b	0.018835148
22	0x3bc7253a	0.006077436
23	0x3a84873e	0.0010111106
24	0xbaa3cfe9	-0.0012497875
25	0x3a7a4279	0.00095466484
26	0x3d425192	0.047441073
27	0x3d700494	0.058598116
28	0xbcbe99e5	-0.023266742
29	0x3c12ca35	0.008959343
30	0x3c37dd01	0.011222125
31	0xbcd73b22	-0.026273314

output.weight f4 [1, 32]
0	0x3d6b79f3	0.057489347
1	0x3d9abc71	0.075554736
2	0xbd623878	-0.055229634
3	0xbe21b65a	-0.15792218
4	0xbe1bc6f8	-0.1521262
5	0xbe2dae55	-0.16961034
6	0x3dd46e76	0.10372631
7	0xbd132681	-0.035925392
8	0x3d82c0a8	0.063844025
9	0xbdb6d101	-0.08926583
10	0x3e410944	0.18851191
11	0xbb6c68bd	-0.003607317
12	0x3dfe1341	0.12406016
13	0xbe3d97ec	-0.18514985
14	0xbe3a29f9	-0.18180074
15	0xbe2160e6	-0.1575962
16	0x3dd1ef5b	0.102507316
17	0x3d77f2c8	0.06053427
18	0x3d76a994	0.060220316
19	0xbdc5ffed	-0.096679546
20	0x3d6ffa6f	0.05858844
21	0xbdea6a78	-0.114460886
22	0x3d137af8	0.036005944
23	0xbddaf834	-0.10691872
24	0x3e338751	0.17532088
25	0x3cb21b6a	0.021741588
26	0x3d77a8ba	0.060463645
27	0xbe1835ba	-0.14864245
28	0x3e1b7772	0.15182284
29	0xbd61b7db	-0.05510698
30	0xbe282d0f	-0.16423438
31	0xbd2e9494	-0.042622164
