result/occur/921/1000/Train_921_under_1000_256_256_32_0.0004_128_4_0.pth (torch, 313519 bytes, 7 tensors)

fc1.weight f4 [256, 13]
0	0x3e138d95	0.14409478
1	0xbe153ca3	-0.14573912
2	0xbda3d9fc	-0.080005616
3	0x3e0c425e	0.13697192
4	0xbe83f464	-0.25772393
5	0x3e2a7267	0.16645204
6	0xbce0ad86	-0.027426492
7	0x3e139181	0.14410974
8	0x3d5ce3e4	0.05392827
9	0xbcf974b9	-0.030451166
10	0x3da581ce	0.08081399
11	0x3b58bee4	0.0033072764
12	0x3e0b0c31	0.1357887
13	0xbddf07b7	-0.10890143
14	0xbced5d85	-0.028975258
15	0xbd0afb44	-0.03393103
16	0x3d3ef15a	0.04661689
17	0x3aa4df4f	0.0012578758
18	0x3e7ef641	0.24898626
19	0x3de72ab8	0.11287445
20	0xbdd6bcfd	-0.104852654
21	0xbe1c618c	-0.15271586
22	0xbd35c35a	-0.044375755
23	0xbdeeb7df	-0.116561644
24	0xbdcceb0c	-0.10005769
25	0x3d38ab5f	0.045085307
26	0x3e28c5b0	0.16481662
27	0x3e0f5f44	0.14001185
28	0xbe8d7825	-0.27630726
29	0x3e3590eb	0.17731063
30	0x3da2b24c	0.07944164
31	0x3e849e93	0.25902233
32	0x3e5c73dd	0.21528573
33	0xbe813f61	-0.25243667
34	0xbe808b4a	-0.2510627
35	0xbe06ddea	-0.13170591
36	0x3e7bb565	0.24580915
37	0xbd881f6d	-0.06646619
38	0x3e1ba6bf	0.15200327
39	0xbe055503	-0.1302071
40	0x3e8b4b95	0.27206102
41	0xbde869b5	-0.11348287
42	0x3e4fd402	0.20295718
43	0x398e0bf6	0.00027093262
44	0xbe1a73be	-0.15083215
45	0x3e033299	0.1281227
46	0xbe15cf28	-0.14629805
47	0x3d956219	0.07294101
48	0xbda916af	-0.0825628
49	0xbd095cf1	-0.0335359
50	0xbe8268b5	-0.2547051
51	0xbe178250	-0.14795804
52	0x3e1b8f9c	0.15191501
53	0xbda96bdf	-0.08272528
54	0x3e867f13	0.26268825
55	0x3e6957c2	0.22787383
56	0xbc21d3d3	-0.009877163
57	0xbe3d443e	-0.18483064
58	0x3e497c1d	0.19676252
59	0x3db795cc	0.08964118
60	0xbe2b880b	-0.16751115
61	0x3e3c130d	0.18366642
62	0x3e2fec05	0.17179878
63	0x3e6ba668	0.23012698
64	0xbe0193c6	-0.12654027
65	0xbd4ad362	-0.049517997
66	0xbbdb0a7e	-0.0066846004
67	0x3d20fa12	0.039300986
68	0xbe5c843b	-0.21534817
69	0xbe4de508	-0.201069
70	0x3e156f95	0.14593346
71	0xbd9415e5	-0.072307386
72	0x3e085d99	0.13316955
73	0x3c23aa7e	0.009989379
74	0x3db2bc63	0.08727338
75	0x3d68e4aa	0.056858696
76	0x3dc2babd	0.09508274
77	0x3e042b8a	0.12907234
78	0xbe883c75	-0.26608625
79	0x3e1128ba	0.14175692
80	0xbe322612	-0.17397335
81	0xbe647be8	-0.22312891
82	0x3bb94f5f	0.0056552137
83	0xbd72b029	-0.05925003
84	0x3e0897fd	0.13339229
85	0xbe2ceea4	-0.16887909
86	0xbe878b3a	-0.2647341
87	0x3e430827	0.19046079
88	0xbd582a2a	-0.052774586
89	0x3e2141b4	0.1574772
90	0x3d7178e7	0.058953192
91	0xbe51c3ec	-0.20484895
92	0x3d994a23	0.074848436
93	0x3da60ee8	0.08108312
94	0xbe40245c	-0.1876387
95	0xbe05a29a	-0.13050309
96	0x3dc7c08a	0.09753521
97	0x3c9b884a	0.018985886
98	0xbdef359c	-0.11680147
99	0xbdbf8f46	-0.09353499
100	0x3e827490	0.25479555
101	0xbd4f385b	-0.050590854
102	0x3e33d616	0.17562136
103	0x3db5ca9a	0.08876534
104	0xbe3c3692	-0.18380192
105	0xbe80cddf	-0.25157067
106	0x3e7e4602	0.24831393
107	0x3c65e77c	0.014032241
108	0x3e3fb591	0.18721606
109	0x3d49ba7f	0.049250122
110	0x3dedfa52	0.116200104
111	0x3e50905b	0.20367567
112	0x3e89d56d	0.26920643
113	0xbe3f5538	-0.18684852
114	0x3d02e93f	0.031960722
115	0x3e3e10c8	0.18561089
116	0x3e690845	0.22757061
117	0x3e203dd7	0.1564859
118	0xbe5bf92d	-0.21481772
119	0xbe66ac15	-0.22526582
120	0xbe33f8ff	-0.17575453
121	0x3cb48d14	0.022039928
122	0x3e87ab84	0.26498044
123	0xbe1c9977	-0.15292917
124	0x3e079770	0.13241363
125	0xbe1a3eca	-0.15063015
126	0xbe8c464d	-0.27397385
127	0xbd91dbf4	-0.07122031
128	0x3e0c24ea	0.13685957
129	0x3e91c2ae	0.2846884
130	0xbe1625df	-0.14662884
131	0x3d8b7441	0.06809283
132	0x3e82d104	0.2555009
133	0x3e51928d	0.20466061
134	0x3e495700	0.19662094
135	0x3e64a671	0.22329117
136	0x3e1fbf03	0.15600209
137	0x3dc8df88	0.0980826
138	0xbe333906	-0.17502221
139	0xbe55956e	-0.20857784
140	0xbdd39163	-0.10330465
141	0xbaf1a4e7	-0.0018435986
142	0xbe42fb2e	-0.1904113
143	0x3db51285	0.08841423
144	0x3d94fa83	0.07274344
145	0xbda54243	-0.08069279
146	0x3dcdcc82	0.100487724
147	0x3da29d75	0.07940189
148	0x3e207148	0.15668213
149	0x3e5f35a9	0.21797813
150	0xbddafcc0	-0.106927395
151	0x3e8c5334	0.2740723
152	0xbd2e2009	-0.04251102
153	0xbca01542	-0.019541387
154	0xbe962b12	-0.29329735
155	0xbe158f4f	-0.14605449
156	0xbe28b24b	-0.16474263
157	0xbdcf7aae	-0.10130821
158	0x3e5850c4	0.2112456
159	0xbdc9431d	-0.09827254
160	0xbe590ceb	-0.21196334
161	0x3dd52962	0.10408284
162	0x3d61fca3	0.055172574
163	0x3e33f19f	0.1757264
164	0xbe21ed29	-0.15813126
165	0x3d622d8e	0.055219226
166	0xbdd91325	-0.10599355
167	0xbd473b17	-0.048640337
168	0xbe83148b	-0.2560161
169	0xbe042b16	-0.12907061
170	0xbdbc7321	-0.092016466
171	0x3dc57370	0.096411586
172	0x3d5c8a7b	0.053843003
173	0x3d8bbedf	0.06823515
174	0x3e8a014d	0.26954117
175	0x3e99ed08	0.30063653
176	0x3e3e952b	0.1861159
177	0x3ca05bc1	0.019575002
178	0xbe44d275	-0.19220908
179	0x3e5dec94	0.21672279
180	0xbdb51c33	-0.08843269
181	0x3c24ca9d	0.010058072
182	0xbe7d6ffa	-0.24749747
183	0xbd154f2a	-0.03645245
184	0xbe2c0fe6	-0.1680294
185	0x3e7d1520	0.2471509
186	0xbe7df615	-0.24800904
187	0xbe6327e1	-0.22183181
188	0xbc8d7a63	-0.017270273
189	0xbe266e0d	-0.16252919
190	0x3dba2003	0.09088137
191	0xbdecd815	-0.11564652
192	0xbe0df4bd	-0.13862891
193	0x3c68456b	0.014176707
194	0x3e44dfa9	0.19225945
195	0xbe3eeeb2	-0.18645743
196	0x3df6bf93	0.12048259
197	0x3e302e06	0.17205057
198	0x3e8e00a3	0.2773486
199	0xbe3ef60e	-0.1864855
200	0x3d9ae16a	0.075625256
201	0xbe564b4d	-0.20927162
202	0x3e807365	0.2508804
203	0xbdd1fbcc	-0.102531046
204	0x3e3407d9	0.17581119
205	0x3c835edb	0.016036442
206	0xbc97b7ba	-0.018520225
207	0xbc540c98	-0.012942456
208	0x3d6f232a	0.058383144
209	0x3e09036b	0.1338021
210	0x3d771971	0.060326997
211	0x3db5c876	0.088761255
212	0xbe76e638	-0.24111259
213	0x3e594055	0.21215947
214	0x3e507279	0.20356168
215	0x3e7aa1e9	0.24475826
216	0x3e4e6161	0.20154335
217	0xbe4384cf	-0.19093631
218	0xbdc16f16	-0.09445016
219	0x3e894c4e	0.26816028
220	0xbe816b14	-0.25277007
221	0x3e800734	0.25005496
222	0xbe79f477	-0.24409662
223	0xbe66a325	-0.22523172
224	0x3e0ee6d3	0.1395524
225	0xbe4b79ff	-0.19870757
226	0xbd81ac42	-0.06331684
227	0x3e7088c7	0.23489676
228	0x3e622521	0.22084476
229	0x3e8ce436	0.2751786
230	0xbd6289c5	-0.05530717
231	0xbe5b918b	-0.21442239
232	0x3e857223	0.26063642
233	0xbcb1fff9	-0.021728503
234	0xbde32008	-0.11090094
235	0x3d4e955f	0.05043542
236	0xbe5aacaa	-0.21354929
237	0x3e400764	0.1875282
238	0x3e362bbb	0.1779012
239	0xbe58cafc	-0.21171182
240	0xbe51d1de	-0.20490214
241	0xbc89436c	-0.016755782
242	0x3e00fa4b	0.12595479
243	0xbb45b608	-0.0030168314
244	0xbe0b6963	-0.1361442
245	0xbb6a1588	-0.00357184
246	0xbe747e58	-0.23876321
247	0xbe446049	-0.19177355
248	0xbe4d480e	-0.20047018
249	0x3e5a225f	0.21302174
250	0x3e817613	0.25285396
251	0xbdb4d85e	-0.08830331
252	0x3c81483f	0.01578152
253	0x3e1d53c9	0.15363993
254	0x3d1e6d49	0.03867844
255	0xbdff3ba2	-0.12462546

fc1.bias f4 [256]
0	0xbdeb3970	-0.11485565
1	0x3d07b4c1	0.033131365
2	0xbe6ef216	-0.23334536
3	0xbdfe4ae0	-0.12416625
4	0x3e6b8328	0.22999251
5	0x3de27614	0.11057678
6	0xbc9d1f43	-0.019179946
7	0xbdeaf931	-0.11473311
8	0xbe59edbc	-0.21282095
9	0x3e071258	0.13190591
10	0xbdd110cd	-0.102082826
11	0xbc72df6d	-0.014823777
12	0xbe326089	-0.17419638
13	0xbdc76fb6	-0.09738104
14	0x3b5d75c7	0.0033792125
15	0xbd1352b5	-0.035967547
16	0xbc8500b9	-0.016235696
17	0xbd483719	-0.04888067
18	0x3de8fa78	0.11375898
19	0x3d7f8ef3	0.062392186
20	0x3e82adb1	0.2552314
21	0x3cccecc9	0.025015252
22	0xbe837ef2	-0.2568279
23	0xbb63e578	-0.0034774225
24	0x3e5bcb0b	0.21464173
25	0xbdd595f2	-0.104289904
26	0xb9789180	-0.00023705326
27	0x3cbe4eb0	0.02323088
28	0xbe455252	-0.19269684
29	0x3e8bcde3	0.27305517
30	0xbd8cabd4	-0.06868711
31	0xbe55b2d8	-0.20869005
32	0xbe5339cb	-0.20627515
33	0xbe1e65b6	-0.15468487
34	0xbe8394a7	-0.2569935
35	0x3e5bd0de	0.21466395
36	0x3e82c3ff	0.25540158
37	0xbe613fbe	-0.21996972
38	0xbe165513	-0.1468089
39	0x3e019819	0.12655677
40	0xbdaa6717	-0.08320444
41	0x3e89e57a	0.2693289
42	0xbe067baf	-0.13133119
43	0xbde43ca7	-0.11144381
44	0xbe6c1081	-0.2305317
45	0xbda1c89a	-0.0789959
46	0x3e497f53	0.19677477
47	0xbd222ed8	-0.039595455
48	0xbe776e00	-0.24163055
49	0x3e22c978	0.15897167
50	0xbe26fe86	-0.1630803
51	0x3dab6e55	0.083706535
52	0x3e8bd761	0.2731276
53	0x3e0cf332	0.13764647
54	0x3e739178	0.2378596
55	0xbe4cbd5b	-0.19994108
56	0xbe4d89c2	-0.20072082
57	0xbe87c311	-0.2651601
58	0x3e4b1018	0.19830358
59	0xbd51ee82	-0.05125285
60	0x3de477dc	0.11155674
61	0xbe33c5d1	-0.1755593
62	0x3cc491c7	0.023995293
63	0x3e8419d7	0.25800964
64	0x3c906551	0.017626436
65	0x3e718496	0.23585734
66	0xbe440dd1	-0.19145896
67	0x3cc51dde	0.024062093
68	0xbd8e492c	-0.0694755
69	0xbe832f72	-0.25622135
70	0xbe045a20	-0.12925005
71	0xbca33176	-0.019921046
72	0xbe8c69a0	-0.27424335
73	0x3e5178ae	0.20456192
74	0xbe25e9a2	-0.16202405
75	0x3ba8569e	0.0051372787
76	0xbb1e8790	-0.0024189688
77	0xbe87a879	-0.26495722
78	0xbe07bede	-0.13256404
79	0x3d0bbdd9	0.0341166
80	0xbd920640	-0.07130098
81	0x3e288100	0.1645546
82	0x3d97736d	0.073950626
83	0x3de033bc	0.109473675
84	0x3e19c0a1	0.15014888
85	0x3d2dc466	0.04242363
86	0xbe73a7e7	-0.23794518
87	0x3e008735	0.12551577
88	0xbda2ecea	-0.07955344
89	0x3d67cd57	0.05659231
90	0x3daac617	0.08338564
91	0x3da130b2	0.07870616
92	0x3e5202f0	0.20508933
93	0x3e85d56a	0.26139385
94	0xbe465337	-0.19367681
95	0xbe0af729	-0.13570847
96	0x3df6a9ac	0.12044081
97	0xbbcc267e	-0.0062301746
98	0x3daedbc9	0.085380144
99	0xbe6f4e2f	-0.23369668
100	0xbdce7298	-0.10080451
101	0x3b3ae115	0.0028515507
102	0x3e689139	0.22711648
103	0xbe573316	-0.21015581
104	0x3d8cf3fc	0.06882474
105	0x3d308aeb	0.043101232
106	0xbdddb466	-0.10825424
107	0x3de95240	0.11392641
108	0x3e760475	0.24025138
109	0x3e6cb9ed	0.231178
110	0xbd627a04	-0.055292144
111	0xbcb60abe	-0.02222192
112	0x3b904d94	0.0044037793
113	0x3e298978	0.16556346
114	0xbe1def7d	-0.15423389
115	0x3db8cc7f	0.090233795
116	0x3e2ae16d	0.16687556
117	0x3e2143fc	0.1574859
118	0xbda08b1f	-0.07839035
119	0x3e28df4a	0.16491428
120	0xbe650125	-0.22363718
121	0xbd99e897	-0.07515066
122	0x3e5c3746	0.2150546
123	0xbdc3e54f	-0.095652215
124	0x3c8c8cca	0.017156977
125	0x3e89e9f4	0.26936305
126	0x3d176c98	0.036968797
127	0x3b9a987a	0.0047178837
128	0x3da17a73	0.078846835
129	0xbe4ed6cf	-0.2019913
130	0xbe8e7261	-0.2782164
131	0x3e0ce531	0.13759305
132	0xbcb50e62	-0.022101585
133	0x3e06bf5d	0.13158937
134	0xbca3f054	-0.020012058
135	0x3e442c01	0.19157411
136	0xbe4e6fb6	-0.20159802
137	0xbe0bb473	-0.13643055
138	0xbe6cae78	-0.2311343
139	0xbe576f1e	-0.21038482
140	0x3e6285f5	0.22121413
141	0xbd453e9d	-0.048155416
142	0xbe0777e1	-0.13229324
143	0xbdb14aa9	-0.086568184
144	0xbc880e0e	-0.016608264
145	0xbd93cb4b	-0.072165094
146	0xbe7bf541	-0.24605276
147	0x3e5af1a3	0.2138124
148	0x3bdc6a4e	0.0067265397
149	0xbe53ebea	-0.20695463
150	0x3d8c1643	0.068401836
151	0xbdb5c150	-0.08874762
152	0xbd8fc52b	-0.07020029
153	0xbe663b73	-0.22483616
154	0xbe8aa62d	-0.27079907
155	0x3d90f35d	0.07077668
156	0xbe805d43	-0.25071153
157	0x3e350184	0.1767636
158	0xbe7d6f1f	-0.2474942
159	0xbd039e73	-0.03213353
160	0xbe65758d	-0.22408123
161	0xbe3a29f0	-0.1818006
162	0xbe73de08	-0.23815167
163	0xbe200c6e	-0.15629742
164	0x3c8be205	0.017075548
165	0x3d21aef9	0.039473508
166	0xbe0f8e0b	-0.14019029
167	0x3e34cf44	0.1765719
168	0xbdd055d4	-0.101726204
169	0xbc62df63	-0.013847205
170	0x3e1cca4b	0.15311544
171	0x3e861f86	0.26195925
172	0x3e774b60	0.24149847
173	0xbe8956cc	-0.26824033
174	0xbe3efeef	-0.18651937
175	0x3d279417	0.040912714
176	0x3c11e539	0.008904749
177	0x3e572736	0.21011052
178	0x3e2389ac	0.15970486
179	0xbe45e9c3	-0.19327454
180	0x3e8b232e	0.27175277
181	0x3db2622a	0.087101296
182	0x3e15fe3d	0.14647765
183	0xbd33a0f8	-0.043854684
184	0x3e56753b	0.20943157
185	0xbe502003	-0.20324712
186	0x3df67d4f	0.120356195
187	0x3e900fc9	0.28137043
188	0x3dc3c170	0.0955838
189	0xbdba9cb2	-0.091119185
190	0x3c197afe	0.0093677025
191	0x3e55d592	0.20882252
192	0xbe16c33c	-0.14722914
193	0xbe0e20ac	-0.13879651
194	0x3d1cea52	0.038309403
195	0xbe02c601	-0.12770845
196	0xbdc2e0d5	-0.095155396
197	0xbdd72139	-0.105043836
198	0x3e231513	0.15926008
199	0xbe73f699	-0.23824538
200	0xbe65a2bd	-0.22425361
201	0x3e57bd3a	0.21068278
202	0xbd0550aa	-0.03254763
203	0xbe79b48f	-0.24385284
204	0x3e170adb	0.14750235
205	0xbe293302	-0.16523364
206	0xbc3436d5	-0.010999401
207	0x3e30f0f1	0.17279412
208	0xbe195ea2	-0.14977506
209	0xbe535dd7	-0.20641266
210	0x3d3b3782	0.045707233
211	0xbe025325	-0.1272703
212	0xbd94e9fa	-0.0727119
213	0x3e61fe0c	0.22069567
214	0x3d91eb74	0.07124987
215	0x3db9c866	0.09071426
216	0xbe8282c3	-0.25490388
217	0xbe341909	-0.17587675
218	0xbe4c9cc0	-0.1998167
219	0x3e8e7cdb	0.27829632
220	0xbde35653	-0.111004494
221	0x3e8ccfcc	0.27502286
222	0x3e92bfc7	0.2866194
223	0xbe22ebfd	-0.15910335
224	0x3e0a3407	0.1349641
225	0xbddb2b31	-0.107015975
226	0x3e8bd81d	0.2731332
227	0x3e473139	0.1945237
228	0x3db55db3	0.08855762
229	0x3e10aa0a	0.14127365
230	0xbd18f2e7	-0.037341025
231	0xbd26dfad	-0.040740658
232	0xbcdcc688	-0.026950136
233	0xbdd90aa3	-0.10597732
234	0xbe791645	-0.24324901
235	0xbcf83425	-0.030298302
236	0xbdaea20b	-0.08527001
237	0x3e736d22	0.237721
238	0x3e855a69	0.2604554
239	0xbe766a3f	-0.24063967
240	0xbe558b03	-0.2085381
241	0xbe079e77	-0.13244043
242	0xbe92ae71	-0.28648713
243	0xbc7d71c7	-0.015469021
244	0x3dbdb7a6	0.09263544
245	0xbd21432f	-0.039370712
246	0x3d9abd32	0.075556174
247	0xbd211db3	-0.039334964
248	0xbe897ae9	-0.26851586
249	0xbe126364	-0.14295727
250	0xbe871cbf	-0.2638912
251	0xbe27ebca	-0.1639854
252	0xbe1e2a26	-0.15445766
253	0x3e5afed6	0.21386275
254	0xbdd57502	-0.10422708
255	0xbd81c9eb	-0.06337341

fc2.weight f4 [256, 256]
0	0xbd044667	-0.032293703
1	0x3bdc5347	0.0067237946
2	0x3cb4fbd1	0.022092732
3	0x3c8391fb	0.01606082
4	0x3d71313d	0.058884848
5	0x3cd2a154	0.025711693
6	0xbc1a5c91	-0.009421484
7	0x3d1442fa	0.036196686
8	0xbcf29512	-0.029612098
9	0x3c4054ab	0.011738936
10	0xbbfe73ed	-0.0077652843
11	0x3d01d2ab	0.03169505
12	0xbd021cdb	-0.0317658
13	0x3c847ac4	0.01617182
14	0x3d0732f7	0.03300759
15	0xbc2e8dcd	-0.010653925
16	0xbd3c30b3	-0.04594488
17	0xbd28af2c	-0.041182682
18	0xbd200427	-0.03906646
19	0xbd619c98	-0.05508098
20	0xbb40c430	-0.0029413812
21	0xbd10b454	-0.035328224
22	0xbd193bb8	-0.037410468
23	0x3d8a14f2	0.06742276
24	0xbd65b37c	-0.056079373
25	0x3d09ee0e	0.033674292
26	0xbb7fcaa1	-0.0039030688
27	0xbce09c69	-0.027418332
28	0x3d3794af	0.04481953
29	0x3d608fc1	0.054824594
30	0xbd13e052	-0.0361026
31	0xba882637	-0.0010387365
32	0xbcf2e96b	-0.029652318
33	0xbd236883	-0.039894592
34	0x3d584a7f	0.05280542
35	0x3d3b4c97	0.04572734
36	0x3d878ad1	0.06618274
37	0xbd736a21	-0.059427384
38	0xbce83f62	-0.028350536
39	0x3cf03aa5	0.029324839
40	0xbd1fdf09	-0.039031062
41	0x3d99d049	0.0751043
42	0x3a9b3f4b	0.0011844424
43	0x3ad28fc0	0.0016064569
44	0x3ca15afd	0.019696707
45	0x3d32083f	0.043464895
46	0x3c80e1de	0.015732702
47	0xbd003372	-0.031299062
48	0x3d85a92f	0.0652641
49	0xbc0835e8	-0.0083136335
50	0xbac486d8	-0.00149938
51	0xbd8726e2	-0.06599213
52	0xbcd2ce65	-0.025733182
53	0x3d06b13e	0.032883875
54	0x3c520e4d	0.012820792
55	0xbc7f959c	-0.0155996345
56	0xbcf05745	-0.029338488
57	0xbdb47c96	-0.088128254
58	0x3d1316d6	0.03591045
59	0xbd4cabda	-0.049968578
60	0x3d22c425	0.03973784
61	0xbd0c6b02	-0.034281738
62	0x3d7408da	0.059578754
63	0x3b876dfa	0.0041329833
64	0xbcd5340e	-0.026025798
65	0x3d8467d1	0.06465114
66	0x3d0a77b5	0.033805568
67	0xbd1981c2	-0.037477262
68	0xbce5ae18	-0.028037116
69	0xbcadc17f	-0.02121043
70	0xbc16e960	-0.009210914
71	0x3d66fa7a	0.056391217
72	0xbd39d2f6	-0.045367204
73	0x3d05dbe2	0.0326804
74	0x3d8d9739	0.06913609
75	0x3d490269	0.049074564
76	0xbc9cf45c	-0.019159488
77	0x3d8e3163	0.069430135
78	0xbd05b2cb	-0.032641213
79	0x3c631a9d	0.013861326
80	0xbcb20004	-0.021728523
81	0x3d360281	0.04443598
82	0xbd531a08	-0.051538497
83	0x3cd6c30d	0.026216054
84	0xbd610f83	-0.054946434
85	0xbd6d6e88	-0.05796674
86	0xbcc4a4fe	-0.024004456
87	0x3d43f8ec	0.047844812
88	0x3cf953fe	0.030435558
89	0xbd6215cf	-0.05519658
90	0x3d0e0dc2	0.03468109
91	0xbbec3431	-0.00720837
92	0xbcc26f88	-0.023734823
93	0xbdabfff7	-0.08398431
94	0xbc86cae5	-0.01645417
95	0x3d553fdf	0.052062865
96	0xbcf6fb46	-0.030149113
97	0x3d67c7ba	0.05658696
98	0x3b0fd11c	0.0021944707
99	0xbda19df1	-0.07891453
100	0xbcb7443c	-0.022371404
101	0x3d031a5c	0.03200756
102	0x3d0a9cb6	0.033840857
103	0xb9c67fca	-0.00037860713
104	0x3cb4e0ff	0.022079943
105	0xbc9fddf5	-0.019515017
106	0xbc4021eb	-0.011726837
107	0x3bb8d2e7	0.005640376
108	0xbc6736d9	-0.014112198
109	0x3d7d0efc	0.06178187
110	0x3d87e6b1	0.06635798
111	0x3d812846	0.0630651
112	0x3d7bdaa9	0.061487827
113	0xbd1316b1	-0.035910312
114	0xbb290d60	-0.0025795326
115	0x3d8cf052	0.06881775
116	0x3d58d96c	0.052941725
117	0x3c88ac38	0.016683683
118	0xbcc56aa2	-0.024098698
119	0xbc108339	-0.008820348
120	0x3ba0e1c2	0.004909725
121	0xbc189ec1	-0.009315194
122	0x3b89cd6f	0.004205398
123	0xbbb208e8	-0.0054331906
124	0x3d6226e4	0.05521287
125	0xbbe678ff	-0.007033467
126	0x3d230176	0.039796315
127	0x3d5e6c28	0.054302365
128	0x3cfa33fb	0.030542364
129	0x3d2acbac	0.041698143
130	0x3ce0a8aa	0.027424175
131	0xbd2f3b15	-0.042780954
132	0xbce38cdd	-0.02777713
133	0x3bc7330e	0.0060790842
134	0xbc8b66ff	-0.017016886
135	0xbc628e9c	-0.013827946
136	0xbca06bba	-0.019582618
137	0xbced12d9	-0.028939651
138	0xbce25fdf	-0.027633606
139	0xbc0039e1	-0.007826299
140	0x3ad00e42	0.001587339
141	0xbcb88615	-0.022524873
142	0xbcbcc33e	-0.023042317
143	0x3d2a3764	0.04155673
144	0x3d81b3ff	0.0633316
145	0xbcf9d6a8	-0.030497864
146	0xbd9f6aef	-0.07784068
147	0xbd2b2c8e	-0.041790538
148	0xbc48d24e	-0.012257172
149	0xbd8bf224	-0.06833294
150	0xbd195752	-0.03743679
151	0x3d5c94bb	0.053852778
152	0xbcb5c79e	-0.022189911
153	0x3d363371	0.044482652
154	0x3cebfa56	0.028805893
155	0xbbe14e3c	-0.0068757813
156	0xbbb048a7	-0.0053797546
157	0x3d5ee63d	0.05441879
158	0xbba72933	-0.005101347
159	0xbcdb1f57	-0.026748342
160	0x3c88ca01	0.016697885
161	0xbc728677	-0.014802567
162	0x3cde95e9	0.027171092
163	0x3c0f04e3	0.008729192
164	0xbd8952e6	-0.06705265
165	0xbccc14ca	-0.024912257
166	0x3cadbdce	0.02120867
167	0x3ccaeba9	0.024770575
168	0x3c35f99b	0.011106874
169	0xbce71d09	-0.028212087
170	0xbc107aa2	-0.0088183
171	0x3a95817f	0.0011406391
172	0x3d153cbe	0.03643488
173	0xbd0809e1	-0.033212546
174	0xbcb9e74d	-0.0226933
175	0x3d5676c6	0.052359365
176	0x3d9863c0	0.07440901
177	0x3d6a9f1b	0.05728064
178	0x3d83291b	0.064043246
179	0xbd543d6b	-0.051816385
180	0x3b1f56f3	0.00243133
181	0xbd467195	-0.048448164
182	0xbcb3b261	-0.021935644
183	0x3d1e9053	0.038711857
184	0x3d7ca726	0.061682843
185	0xbd5ee4c9	-0.054417405
186	0x3ca5b152	0.020226154
187	0xbc1246c5	-0.008928006
188	0x3d175506	0.03694632
189	0x3c8ce91c	0.017200999
190	0xbd4cf25a	-0.050035812
191	0x3d786da1	0.060651425
192	0xbd58b96c	-0.052911207
193	0xbd2b708f	-0.04185539
194	0xbd075908	-0.03304389
195	0x3ce416be	0.027842876
196	0x3d132618	0.035925
197	0xbd0ed0d3	-0.03486712
198	0xbcab89e6	-0.020939779
199	0xbb8d107d	-0.004304944
200	0xbbdef065	-0.0068035596
201	0x3d3f9503	0.046772968
202	0xbd59890b	-0.05310921
203	0x3c335e18	0.010947727
204	0xbd1e0681	-0.03858042
205	0xbd340d53	-0.04395802
206	0x3b6a5669	0.003575707
207	0xbd523b33	-0.051325988
208	0x3d5e96e2	0.05434311
209	0xbcf19ef4	-0.02949474
210	0x3c8eef76	0.017448168
211	0xbc88a085	-0.016678104
212	0x3cb584f9	0.022158133
213	0x3d16c156	0.036805473
214	0x3bfac7e5	0.007653224
215	0xbc84caae	-0.016209926
216	0xbd0633b0	-0.032764137
217	0xbd00f408	-0.031482726
218	0x3d18ac0b	0.037273448
219	0x3cccd86a	0.025005538
220	0xbd08e8d8	-0.033425182
221	0xbca5d452	-0.020242844
222	0x3c058673	0.008149731
223	0xbd341d79	-0.04397342
224	0x3bad13b4	0.00528189
225	0x3d9516a1	0.07279707
226	0xbcca1999	-0.024670409
227	0x3d62c9ae	0.055368118
228	0x3d9d1eb1	0.076718695
229	0xbd4c3b9b	-0.04986153
230	0x3d4dca75	0.050241906
231	0xbd8532f1	-0.06503857
232	0x3cc0a760	0.02351731
233	0xbd006b72	-0.031352468
234	0xbd0983f6	-0.033573113
235	0x3c980191	0.018555434
236	0x3c2de847	0.010614461
237	0x3a07dd9d	0.0005182864
238	0xbc82e223	-0.015976971
239	0x3c1b6dcd	0.009486628
240	0xbd864aee	-0.065572605
241	0xbc88f9c5	-0.016720662
242	0xbd542b83	-0.05179931
243	0xbb11871b	-0.0022205773
244	0x3da4dfa9	0.08050472
245	0xbc3785f8	-0.011201374
246	0xbcd7fe74	-0.02636645
247	0xbd22bcc5	-0.039730806
248	0x3d739f79	0.059478257
249	0x3d2821bf	0.041047808
250	0xbd5f77da	-0.05455766
251	0xbca980be	-0.020691272
252	0x3d80df83	0.062926315
253	0xbd2e6b5e	-0.042582862
254	0xbb5fc7de	-0.003414623
255	0xbd521669	-0.051290903

fc2.bias f4 [256]
0	0xbd5c4563	-0.05377711
1	0xbbaed862	-0.0053358534
2	0x3cf8749e	0.030329045
3	0xbd0210ee	-0.031754427
4	0xbd8900da	-0.066896155
5	0xbbfad089	-0.007654254
6	0x3d2168b0	0.03940648
7	0x3cf53e5b	0.02993696
8	0xbca7fb86	-0.020505678
9	0x3d5da833	0.054115485
10	0xbd21b35e	-0.0394777
11	0x3d4de631	0.050268356
12	0x3d181319	0.037127588
13	0x3cfd8db4	0.030951358
14	0x3d416485	0.047215004
15	0xbc6d92da	-0.014500344
16	0x3d247a14	0.040155485
17	0x3d0385a9	0.03210989
18	0xbc5c92c6	-0.013462728
19	0xbd0cdd2b	-0.03439061
20	0xbc2c8ca3	-0.010531577
21	0x3d3a1220	0.04542744
22	0x3ca4af6c	0.020103179
23	0xbd90f279	-0.07077498
24	0xbd4bf7a8	-0.04979673
25	0x3d096bb5	0.033549983
26	0xbd253c56	-0.040340744
27	0xba92039b	-0.001113999
28	0xbc39671b	-0.011316086
29	0x3cceda53	0.02525059
30	0x3bc71029	0.0060749245
31	0x3c8d34cd	0.017237091
32	0x3ce4a73f	0.02791178
33	0xbcd318c4	-0.025768645
34	0xbadf061b	-0.0017015369
35	0x3cf2fe19	0.029662179
36	0x3d1214d9	0.035664413
37	0xbc3321f0	-0.010933384
38	0x3d4d536f	0.050128397
39	0x3cde69dd	0.027150089
40	0x3d2e105c	0.04249607
41	0x3ca81117	0.020515962
42	0xbbb40a35	-0.005494381
43	0xbcfbdeed	-0.030745948
44	0xbd24bdd2	-0.04022009
45	0xbd4e1592	-0.05031354
46	0x3c58cd68	0.013232566
47	0x3d2ffa31	0.04296321
48	0xbd4d858b	-0.050176185
49	0xbd919623	-0.071087144
50	0x3d026945	0.031838674
51	0x3bef6ef4	0.007306928
52	0x3d61e04c	0.055145547
53	0x3cc79af4	0.02436588
54	0x3d3bab08	0.045817405
55	0x3cf27160	0.029595077
56	0x3d378002	0.044799812
57	0x3d1464d2	0.036228962
58	0x3d6a1c2c	0.057155773
59	0x3c54abf6	0.012980452
60	0xbcd3b1b8	-0.025841579
61	0xbaf972b3	-0.0019031375
62	0x3d5a416c	0.053285047
63	0x3d592889	0.053017173
64	0x3d0f5e44	0.035002008
65	0xbd407930	-0.046990573
66	0xbd344704	-0.04401304
67	0x3d3168aa	0.043312706
68	0xbd4f83ab	-0.050662678
69	0x3bd59d2b	0.00651898
70	0x3d28aee6	0.04118242
71	0xbd35a16e	-0.044343404
72	0xba4a0186	-0.00077059155
73	0xbd1b513c	-0.037919268
74	0x3cb01af7	0.021497233
75	0x3d7113ae	0.05885666
76	0x3cf012ee	0.029305901
77	0x3cdce045	0.026962409
78	0xbd141a7f	-0.03615808
79	0x3d1fd514	0.039021567
80	0xbc15cf2d	-0.009143633
81	0x3d68ff3d	0.05688404
82	0x3cf997e4	0.030467935
83	0xbd08519f	-0.033280965
84	0x3d02e45c	0.03195606
85	0x3cf41cec	0.029798947
86	0xbd1dca92	-0.038523264
87	0xbd4000c7	-0.04687574
88	0xbbb6496d	-0.0055629523
89	0xbd0d9588	-0.034566432
90	0xbbcb9d2b	-0.0062138042
91	0xbcfea778	-0.031085715
92	0xbc9c0174	-0.019043662
93	0xbd2dda55	-0.042444546
94	0xbd4b5c2f	-0.04964846
95	0xbc9689ae	-0.018376198
96	0xbceacb5d	-0.028661424
97	0xbd3a6910	-0.04551035
98	0x3d1f8275	0.038942773
99	0xbcbc9558	-0.023020431
100	0xbd3b892f	-0.045785125
101	0xbd3440ec	-0.044007227
102	0x3c9c3bcf	0.019071488
103	0xbb1995b9	-0.002343519
104	0xbced6549	-0.02897896
105	0x3b8dba28	0.00432517
106	0x3c83e01c	0.016098075
107	0xbb807070	-0.0039196536
108	0x3cae2c30	0.021261305
109	0xbc354161	-0.011062951
110	0xbcff486b	-0.031162461
111	0x3d4afe07	0.049558666
112	0xbd6dae97	-0.05802783
113	0x3d752a2a	0.059854664
114	0xbd4ac7e7	-0.049507048
115	0x3ba9bafd	0.0051797614
116	0xbce75550	-0.028238922
117	0xbc8f1bc4	-0.017469294
118	0x3c92c7db	0.017917564
119	0xbd016535	-0.03159066
120	0x3d126a04	0.035745636
121	0x3d4cdb49	0.050013814
122	0x39974f32	0.0002885997
123	0x3cfb494c	0.0306746
124	0xbc7f990e	-0.015600456
125	0xbc9a27d7	-0.018817825
126	0xbcbd2fed	-0.023094142
127	0x3d8e98bd	0.06962726
128	0x3d5595f2	0.052144952
129	0xbd183364	-0.037158385
130	0x3d2382fc	0.03991984
131	0x3d5c60ff	0.05380344
132	0x3d7e7b41	0.062129263
133	0x3b40c6ac	0.0029415293
134	0xbd757cb7	-0.05993339
135	0xbcf19f15	-0.029494802
136	0x3cb4da12	0.02207664
137	0xbcc3839c	-0.023866467
138	0xbd3b7e46	-0.04577472
139	0x3d62b770	0.05535072
140	0xbd5cc49b	-0.053898435
141	0xbd0cf1e1	-0.03441036
142	0x3d815862	0.06315686
143	0x3c6e47fb	0.014543529
144	0xbd32228d	-0.04348998
145	0x3cf3310b	0.029686471
146	0x3cac2dc6	0.02101792
147	0xb8aea61b	-8.327906e-05
148	0xbc8e7a11	-0.01739219
149	0xbd5bd199	-0.053666685
150	0xbd26205a	-0.040558197
151	0xbd21619f	-0.03939974
152	0x3b62d94d	0.0034614385
153	0x3c1b8f3b	0.009494598
154	0x3c06296e	0.008188589
155	0x3d30bd3d	0.04314922
156	0x3d061ecb	0.03274421
157	0x3cf4ae84	0.029868372
158	0x3d1e0f82	0.03858901
159	0xbd208659	-0.039190624
160	0x3d2ee652	0.04270012
161	0xbd26f020	-0.040756345
162	0xbcefbfa6	-0.02926619
163	0x3ca84b19	0.020543622
164	0x3ce6971c	0.028148226
165	0xbc8177ce	-0.015804198
166	0xbc84f203	-0.016228681
167	0x3cb26082	0.021774534
168	0x3b1648e9	0.0022931641
169	0x3d4f375e	0.05058991
170	0xbca1da77	-0.019757492
171	0xbd8c9a26	-0.06865339
172	0x3c93769e	0.018000897
173	0x3d376f92	0.044784136
174	0xbcdaa64a	-0.02669062
175	0xbb28e70e	-0.0025772485
176	0x3c4c5149	0.012470552
177	0xbd4cf10f	-0.05003458
178	0x3d18f705	0.03734495
179	0xbcd50492	-0.026003156
180	0xbcc5c99d	-0.024143988
181	0x3d850325	0.064947404
182	0xbd8411eb	-0.0644873
183	0xbd85f0cb	-0.06540068
184	0x3ca27ec4	0.019835837
185	0x3d2db7f7	0.04241177
186	0x3ca5a258	0.020219013
187	0xbd0d0051	-0.03442413
188	0xbafef735	-0.0019452336
189	0x3d30808a	0.043091334
190	0xbcf47484	-0.029840715
191	0x3c4ed2d6	0.012623509
192	0x3b52814a	0.003212052
193	0xbbf996d1	-0.0076168557
194	0xbd2c7318	-0.04210195
195	0xbd42d779	-0.047568772
196	0x3c6d2cd0	0.014476016
197	0xbcd553a4	-0.02604086
198	0x3ba72499	0.0051007983
199	0x3c000446	0.007813519
200	0x3ca4d4c9	0.020120995
201	0x3d61dab9	0.05514023
202	0xbca07452	-0.019586716
203	0x3d2ccf2b	0.04218976
204	0x3c36d86f	0.01116
205	0xbcf936f9	-0.03042172
206	0x3ce88089	0.028381603
207	0xbcd802b3	-0.026368475
208	0x3c86de1d	0.016463334
209	0x3cf25421	0.029581131
210	0xbd1d13e6	-0.038349055
211	0x3d44ccd8	0.048046917
212	0xbd0c542d	-0.034259964
213	0xbd2d9bf4	-0.042385057
214	0x3d16e18d	0.036836196
215	0x3d2ec4c3	0.042668115
216	0xbcb7ae66	-0.022422027
217	0x3ce2eac7	0.027699841
218	0x3d50025e	0.050783508
219	0x3c2bdc30	0.0104895085
220	0x3d7e5570	0.0620932
221	0x3c679f3e	0.014137087
222	0xbd0a64b6	-0.03378745
223	0x3cb3b879	0.02193855
224	0xbd7212fb	-0.059100132
225	0x3d00dd6e	0.03146117
226	0xbd1db101	-0.038498882
227	0xbd40caaa	-0.047068276
228	0xbc2e17d3	-0.010625797
229	0x3b1ef880	0.0024257004
230	0xbcc59e94	-0.024123468
231	0x3cc5d80b	0.024150869
232	0x3becabfb	0.00722265
233	0xbbdfb675	-0.0068271705
234	0xbd3948d1	-0.04523546
235	0xba17fa7a	-0.0005797517
236	0x3c5ffd21	0.0136711905
237	0xbd283dbb	-0.041074496
238	0xbd5af44a	-0.05345563
239	0xbc99f26f	-0.01879236
240	0x3c537a0b	0.012907515
241	0xbcf54585	-0.029940376
242	0x3d666e02	0.056257255
243	0x3c931645	0.017954955
244	0x3cdb19a2	0.026745621
245	0xbbb034cc	-0.0053773876
246	0x3d38a8f5	0.045083005
247	0xbb9fefb6	-0.0048808707
248	0x3d4158f3	0.04720397
249	0x3c25fe59	0.010131442
250	0x3c4a01d8	0.012329541
251	0x3cb177fa	0.021663655
252	0xbce2a132	-0.027664755
253	0xbcc89d9c	-0.024489217
254	0x3d6be456	0.057590805
255	0x3d1f9d3a	0.038968302

fc3.weight f4 [32, 256]
0	0xbc9d3364	-0.019189544
1	0xbd1b600f	-0.037933405
2	0xbd69bdd7	-0.05706581
3	0x3c9a0e2c	0.018805586
4	0xbcf7efbe	-0.030265685
5	0xbd6569f4	-0.056009248
6	0xbcc71cdf	-0.024305759
7	0xbd0316cd	-0.032004166
8	0xbd8f9f2e	-0.07012783
9	0xbd0dac67	-0.034588244
10	0x3ca80334	0.02050934
11	0x3d10cfd5	0.035354454
12	0xbd243bd0	-0.040096104
13	0x3bbf07e3	0.0058297976
14	0xbca81cd2	-0.020521555
15	0xbbfec880	-0.0077753663
16	0x3b084973	0.0020795732
17	0x3b90ba26	0.004416722
18	0x3d181dd9	0.03713784
19	0xbd09b6e7	-0.033621695
20	0xbc99df95	-0.01878337
21	0xbcd747a1	-0.026279273
22	0xbc692751	-0.014230565
23	0xbbdc161b	-0.0067165024
24	0xbceb8a3a	-0.028752435
25	0x3cac95ef	0.021067588
26	0x3cfe3fa1	0.0310362
27	0x3d20e6d6	0.039282642
28	0x3d3a89f9	0.045541737
29	0x3d68567b	0.0567231
30	0x3c117e0d	0.0088801505
31	0x3d70a4ce	0.05875092
32	0xbc1f4d75	-0.009723057
33	0x3c3b22e3	0.011421892
34	0xbd8b523d	-0.06802795
35	0x3c3706aa	0.011171022
36	0x3c20f228	0.00982336
37	0xbd0ba6ed	-0.03409474
38	0xbca5f700	-0.02025938
39	0x3a8850f0	0.0010400098
40	0xbd130b9e	-0.03589975
41	0xbcd86f00	-0.026420116
42	0xbd230ad6	-0.039805256
43	0x3ba17158	0.0049268417
44	0x3d30e24d	0.043184567
45	0xbd88117b	-0.06643959
46	0xbd4ba263	-0.04971541
47	0x3c772203	0.015083793
48	0x3d17bfcf	0.037048157
49	0x3d4e946d	0.05043452
50	0xbd28504b	-0.0410922
51	0x3c9d481d	0.019199425
52	0xbd488d33	-0.048962783
53	0x3cf452c8	0.02982463
54	0xbc176f61	-0.009242863
55	0x3cae1488	0.021250024
56	0xbd8bdba4	-0.068290025
57	0xbce3629e	-0.027756985
58	0x3d62d962	0.055383094
59	0x3d569c78	0.052395314
60	0xbce695b9	-0.028147565
61	0x3c127ca3	0.0089408485
62	0x3b8bf8b7	0.0042715925
63	0xbd740516	-0.059575163
64	0x3cb660c3	0.022262936
65	0x3c7db38c	0.015484702
66	0x3d2aac7e	0.041668408
67	0x3ce3df2b	0.027816376
68	0x3b89f2d8	0.0042098574
69	0x3d8daf28	0.06918174
70	0xbc5a9168	-0.013340332
71	0xbd1f2389	-0.03885225
72	0xbcf31af1	-0.029675933
73	0x3cccf31a	0.025018264
74	0x3d17aeae	0.037031822
75	0x3d24b8d5	0.040215332
76	0x3c81464a	0.015780587
77	0x3caf7460	0.021417797
78	0x3cbc0c13	0.022954976
79	0xbd13c290	-0.03607422
80	0xbbe2fda2	-0.006927208
81	0xbc8ce075	-0.017196873
82	0xbd6f3c2c	-0.058406994
83	0x3d696f7a	0.056991078
84	0x3d45f4a6	0.048329018
85	0x3b673312	0.0035278243
86	0xbd934814	-0.07191482
87	0xbb86b775	-0.0041112253
88	0xbcff65bb	-0.031176439
89	0xbd1f9d98	-0.038968652
90	0xbd6b449c	-0.057438478
91	0x3d07e0d5	0.0331734
92	0xbd55cb43	-0.0521958
93	0x39cec7e0	0.000394403
94	0x3d5ce5bc	0.05393003
95	0xbc9f3187	-0.019432796
96	0xbd5f743c	-0.05455421
97	0x3d8714ec	0.065957874
98	0x3c8ba32f	0.017045585
99	0x3ce22e24	0.027609892
100	0x3d0319fa	0.032007195
101	0x3d64ebf1	0.055889074
102	0x3cd86630	0.026415914
103	0x3cb8fda8	0.02258189
104	0xbd3e18e7	-0.046410467
105	0xbd69256b	-0.05692045
106	0xbd4e65cf	-0.05039006
107	0xbd5bb644	-0.05364062
108	0x3bd5cc5f	0.006524607
109	0xbcf7129d	-0.030160243
110	0x3d57a099	0.052643392
111	0xbd3ad0b7	-0.045609202
112	0xbd3d55fd	-0.046224583
113	0x3d07a33c	0.033114657
114	0xbce77607	-0.028254522
115	0x3d353843	0.04424311
116	0x3d515210	0.05110365
117	0x3d20b774	0.039237455
118	0x3d9cff22	0.0766585
119	0x3d97bda0	0.07409215
120	0xbc88c456	-0.016695183
121	0xbd80c07d	-0.06286714
122	0xbd3c9d29	-0.046048317
123	0xbd8304f5	-0.0639743
124	0xbcba40ff	-0.02273607
125	0x3d35a7bf	0.04434943
126	0xbd7449ed	-0.059640814
127	0xbd1baf7d	-0.038009156
128	0xbd752f7e	-0.059859745
129	0xbc9d9274	-0.019234873
130	0xbbcc5525	-0.006235736
131	0xbd3521c7	-0.044221666
132	0xbd938a4b	-0.07204112
133	0x3ceddb38	0.029035196
134	0x3cd22fe6	0.025657605
135	0x3d3c0b38	0.045909137
136	0x3d964bb3	0.07338657
137	0x3c7416fc	0.014898058
138	0x39b1c660	0.00033907872
139	0xbc4ed6c2	-0.012624444
140	0xbd926ed0	-0.07150042
141	0xbc65dc64	-0.014029596
142	0xbd64940f	-0.055805262
143	0x3b404125	0.0029335704
144	0xbc0f31d7	-0.00873991
145	0x3b374b94	0.0027968632
146	0xbb2eb238	-0.002665652
147	0x3bf864ca	0.0075803744
148	0x3da02248	0.07819039
149	0x3d0abcd8	0.0338715
150	0x3cd6338a	0.026147623
151	0x3c00b281	0.007855059
152	0xbd275b87	-0.04085877
153	0x3d129ff0	0.03579706
154	0xbcfaa6f3	-0.030597186
155	0xbaacdd3f	-0.0013188495
156	0x3d4f7b2c	0.050654575
157	0xbda28d16	-0.07937066
158	0x3c290cbd	0.010317978
159	0xbc9eda57	-0.019391222
160	0x3da936b4	0.08262387
161	0xbc77d824	-0.015127216
162	0x3c5115b5	0.012761523
163	0x3d2f54ab	0.042805355
164	0xbda9ff21	-0.08300615
165	0x3d2fbc80	0.042904377
166	0x3c0043aa	0.007828632
167	0x3d1f4b6b	0.038890284
168	0x36f9fa1b	7.4498944e-06
169	0xbbbc6660	-0.0057495087
170	0x3d564359	0.05231032
171	0x3c2b7150	0.0104640275
172	0x3cda7e0a	0.026671428
173	0xbcd2218d	-0.025650764
174	0x3d16acd7	0.036785927
175	0x3d533465	0.05156364
176	0xbd8b6ee2	-0.068082586
177	0xbd35287b	-0.04422806
178	0x3a2c6ec4	0.00065777847
179	0x3d480df8	0.048841447
180	0xbcac7fa7	-0.021056963
181	0x3a872688	0.0010311166
182	0xbc811472	-0.01575682
183	0xbd45736d	-0.04820578
184	0x3b728ef4	0.0037011476
185	0xbaf613dc	-0.0018774229
186	0xbcd95f86	-0.026534807
187	0x3d93fd1d	0.07226012
188	0x3ab420b9	0.0013742662
189	0xbcd02c4f	-0.025411753
190	0x3d184b1b	0.037181
191	0x3d2269c0	0.039651632
192	0xbbc70496	-0.0060735447
193	0xbd7bb6b6	-0.061453544
194	0x3cb54ce6	0.022131395
195	0x3d141086	0.03614857
196	0x3d16806e	0.036743574
197	0xbd8e1026	-0.06936674
198	0xbc2a747c	-0.010403749
199	0x3c312c4c	0.010813784
200	0x3d4520c7	0.048126962
201	0xbd3d2d5e	-0.046185844
202	0x3d862f12	0.06551947
203	0xbada4f10	-0.0016655643
204	0xbd20771a	-0.039176084
205	0x3ce2c53c	0.02768194
206	0xbca4a21f	-0.020096837
207	0xbd0e7844	-0.034782663
208	0x3bf3eb70	0.007443838
209	0xbbb4a5cb	-0.005512928
210	0xbd354a6f	-0.04426044
211	0x3aa4460f	0.0012533086
212	0xbb118ea1	-0.0022210258
213	0x3ba21357	0.004946153
214	0x3d3604c2	0.04443813
215	0xbc276b1f	-0.010218411
216	0xbc002cac	-0.007823151
217	0xbd8015c2	-0.0625415
218	0xbd8faeb3	-0.07015743
219	0x3b575d2b	0.003286193
220	0x3d187b5f	0.03722703
221	0x3cd182d8	0.025575086
222	0xbd04a0be	-0.03237986
223	0x3c96134c	0.018319748
224	0xbcaafea6	-0.020873379
225	0x3b5c823f	0.0033646969
226	0xbcd1d1c3	-0.025612717
227	0x3c3040df	0.010757654
228	0xbcba2ff2	-0.02272794
229	0x3d677627	0.056509163
230	0xbca3d7b8	-0.020000324
231	0xbc9a4fcc	-0.018836878
232	0xbcbf3187	-0.023339046
233	0xbcab6a7e	-0.020924803
234	0xbccc1a4c	-0.024914883
235	0x3d558cae	0.052136116
236	0xbc66ce86	-0.014087325
237	0xbd6a6b6d	-0.057231355
238	0x3d2ec3dd	0.04266726
239	0xbb2d71f9	-0.0026465638
240	0x3ae15230	0.0017190631
241	0x3d237503	0.039906513
242	0x3d15f935	0.036614615
243	0x3bd91735	0.006625081
244	0x3d3c75d6	0.046010815
245	0x3ca7a058	0.0204622
246	0x3da007a6	0.07813959
247	0x3d4a37b2	0.04936952
248	0xbd2dc248	-0.04242161
249	0xbcd092d4	-0.025460638
250	0x3b73d546	0.0037205978
251	0x3ca76d40	0.020437837
252	0x3d68631d	0.056735147
253	0x3d08cea6	0.0334002
254	0xbb18dd5c	-0.00233253
255	0x3cccfcdf	0.025022922

fc3.bias f4 [32]
0	0x3c6d9991	0.014501945
1	0xbcf1d101	-0.029518606
2	0x3d2568fb	0.04038332
3	0x3d20c8d3	0.03925402
4	0x3d51b123	0.05119432
5	0xbced7cc8	-0.028990164
6	0xbd22cfa0	-0.039748788
7	0x3d8499ca	0.064746454
8	0x3d242f1a	0.040083982
9	0xbd08f1e2	-0.033433802
10	0xbd816f91	-0.06320108
11	0xbd4549f8	-0.048166245
12	0x3c8c90f5	0.017158965
13	0x3ca46ce1	0.020071449
14	0x3d6cc38f	0.057803687
15	0x3d1b2d88	0.03788522
16	0xbce8e2c3	-0.02842844
17	0xbd89540c	-0.06705484
18	0x3d275a55	0.04085763
19	0x3be77677	0.0070636827
20	0x3d2c6683	0.04208995
21	0x3c96c1b8	0.01840292
22	0x3c29668e	0.010339392
23	0x39ed946d	0.00045314748
24	0x3b22d8cc	0.002484846
25	0x3b514f36	0.0031938083
26	0x3d4df2be	0.050280325
27	0x3d6d1b39	0.05788729
28	0xbcb82e57	-0.022483034
29	0x3c150205	0.00909472
30	0x3c2def46	0.010616129
31	0xbcd81e9f	-0.026381789

output.weight f4 [1, 32]
0	0x3d7eb2ab	0.06218211
1	0x3da3d0b2	0.0799879
2	0xbd745c2e	-0.059658222
3	0xbe2388b4	-0.15970117
4	0xbe1e5a68	-0.15464175
5	0xbe2fe35d	-0.17176576
6	0x3ddb4dd7	0.10708206
7	0xbd1be058	-0.038055748
8	0x3d869afb	0.06572529
9	0xbdbaf9bd	-0.09129665
10	0x3e42c188	0.19019139
11	0xbba7118e	-0.005098528
12	0x3e022e06	0.12712869
13	0xbe3f2f85	-0.18670471
14	0xbe3c61ed	-0.1839673
15	0xbe23b61a	-0.15987435
16	0x3dd9ead1	0.10640491
17	0x3d804ae8	0.06264287
18	0x3d8a3fa9	0.067504235
19	0xbdcbdc61	-0.09954143
20	0x3d81688d	0.063187696
21	0xbdef12f2	-0.116735354
22	0x3d21966f	0.039450105
23	0xbde0b35a	-0.109717086
24	0x3e38545c	0.1800093
25	0x3cc52e6b	0.024069985
26	0x3d81da47	0.06340461
27	0xbe1a46aa	-0.15066019
28	0x3e1df765	0.15426405
29	0xbd6e9b0d	-0.058253337
30	0xbe2a0445	-0.16603191
31	0xbd3c51cc	-0.045976445
