result/occur/921/1000/Train_921_under_1000_128_256_32_0.0004_128_4_0.pth (torch, 175279 bytes, 7 tensors)

fc1.weight f4 [128, 13]
0.15231039 -0.14188135 -0.0731219 0.14366797 -0.25002676 0.17563982 -0.02434745 0.15332527
0.05819499 -0.02230063 0.088468924 0.005666356 0.13612612 -0.09682637 -0.051086675 -0.060645547
0.057670828 0.012779693 0.24991585 0.13037552 -0.089162216 -0.14111638 -0.032307092 -0.105477504
-0.09740303 0.060300317 0.17538346 0.12582257 -0.29729366 0.18584758 0.08911882 0.27279958
0.21824905 -0.23903877 -0.24352808 -0.1213699 0.25562963 -0.05553118 0.1547363 -0.14449187
0.26284903 -0.112749666 0.19034499 -0.013259262 -0.16559379 0.119589396 -0.16182043 0.061788004
-0.096444994 -0.04706913 -0.273092 -0.155907 0.16259071 -0.09061352 0.2547823 0.2380875
0.001084925 -0.1724784 0.19996938 0.10116143 -0.15861282 0.1941039 0.18285131 0.24194133
-0.12367819 -0.05268809 -0.018037347 0.024055975 -0.21266407 -0.20189497 0.14288971 -0.042669207
0.13186003 0.021513551 0.08664214 0.056427807 0.07512986 0.16019827 -0.26383603 0.1644697
-0.17543806 -0.21955748 0.008526121 -0.053467885 0.13555966 -0.17120679 -0.26272202 0.19278164
-0.04990927 0.16777982 0.060855508 -0.20716368 0.086850524 0.096142106 -0.18615872 -0.13134915
0.103000164 0.021094501 -0.12699719 -0.089674085 0.25174347 -0.051763777 0.17985067 0.09046173
-0.19171983 -0.2248463 0.26312166 0.0019357336 0.1776254 0.045474336 0.07644965 0.19450377
0.25017315 -0.1965974 0.022145174 0.1959987 0.18770388 0.18881549 -0.22995706 -0.22341825
-0.14680904 0.053142335 0.29284397 -0.14163674 0.16606899 -0.1264597 -0.24228999 -0.04018792
0.16243356 0.29396176 -0.16686523 0.084320396 0.24879351 0.18469852 0.17649384 0.20430851
0.13803884 0.07501042 -0.19601043 -0.22965057 -0.123715594 -0.008954888 -0.20733199 0.10751113
0.067530006 -0.0906998 0.117293715 0.09758596 0.17739089 0.21976624 -0.084987946 0.28868267
-0.02358422 -0.0011526236 -0.27566668 -0.14435774 -0.16696303 -0.101156466 0.20595083 -0.09906452
-0.21356097 0.10653172 0.06398699 0.17218225 -0.15762469 0.053301085 -0.10765434 -0.050064296
-0.2478569 -0.119653516 -0.10848807 0.09741088 0.06132811 0.07685913 0.2832405 0.30138922
0.19957928 0.025905693 -0.18271843 0.22561453 -0.08303632 0.009173261 -0.24620265 -0.038202327
-0.15739688 0.24215032 -0.24934435 -0.22380036 -0.041078877 -0.15991394 0.07938324 -0.11652457
-0.14038184 0.027923178 0.16812827 -0.19070676 0.12484046 0.17069907 0.2780516 -0.18877158
0.072063565 -0.18850516 0.24229936 -0.097652495 0.17269826 0.013899556 -0.02799438 0.00798902
0.061243746 0.14966637 0.06763941 0.092882276 -0.23772043 0.2147911 0.20407447 0.24304515
0.20287354 -0.18816058 -0.09110615 0.27263469 -0.2521296 0.25849253 -0.24373108 -0.21364643
0.14661424 -0.19074146 -0.054901265 0.22993813 0.23038796 0.28011215 -0.046914555 -0.2063683
0.26443666 -0.02831269 -0.102208614 0.04695279 -0.21924022 0.19708395 0.1869196 -0.20387083
-0.19723596 -0.00877956 0.1361997 0.0059271804 -0.12697744 0.005358638 -0.2294271 -0.18490689
-0.20997202 0.20574908 0.25889695 -0.08173643 0.023286313 0.15693827 0.04802542 -0.11872912
00000000: 41f7 1b3e 5849 11be efc0 95bd b21d 133e
00000010: 8203 80be edda 333e 4e74 c7bc 4d01 1d3e
00000020: df5d 6e3d d0af b6bc 322f b53d d7ac b93b
00000030: a564 0b3e e74c c6bd 4340 51bd 7767 78bd
00000040: 3f38 6c3d eb61 513c f1e9 7f3e 2981 053e
00000050: ae9a b6bd d080 10be 7154 04bd 9704 d8bd
00000060: 3d7b c7bd 77fd 763d b997 333e a2d7 003e
00000070: e036 98be d44e 3e3e ee83 b63d 63ac 8b3e
00000080: ae7c 5f3e 94c6 74be 6d5f 79be c890 f8bd
00000090: e3e1 823e aa74 63bd 3173 1e3e adf5 13be
000000a0: 2694 863e 4ce9 e6bd cce9 423e 603d 59bc
000000b0: 6b91 29be 49eb f43d 41b4 25be 6b15 7d3d
000000c0: f484 c5bd 8fcb 40bd b7d2 8bbe 16a6 1fbe
000000d0: 2e7e 263e 9593 b9bd d372 823e 36cd 733e
000000e0: 0b34 8e3a 2d9e 30be c6c4 4c3e b92d cf3d
000000f0: 666b 22be 2cc3 463e 603d 3b3e 78bf 773e
00000100: fe4a fdbd 77cf 57bd 0fc3 93bc 0911 c53c
00000110: 9cc4 59be 8ebd 4ebe ae51 123e e8c5 2ebd
00000120: 5106 073e 303d b03c 6f71 b13d d820 673d
00000130: afdd 993d 040b 243e 8415 87be bf6a 283e
00000140: 09a6 33be add3 60be 25b1 0b3c 2401 5bbd
00000150: 27d0 0a3e d550 2fbe 8083 86be 8d68 453e
00000160: aa6d 4cbd 79ce 2b3e a043 793d b722 54be
00000170: b0de b13d 27e6 c43d 64a0 3ebe 6480 06be
00000180: c0f1 d23d 60ce ac3c 8d0b 02be 0ca7 b7bd
00000190: 85e4 803e 4106 54bd c62a 383e 0044 b93d
000001a0: 3452 44be 1c3e 66be e2b7 863e 71b8 fd3a
000001b0: 6fe3 353e 4c43 3a3d a291 9c3d ff2b 473e
000001c0: b216 803e d450 49be cc69 b53c e2b3 483e
000001d0: 7235 403e d958 413e dd79 6bbe c1c7 64be
000001e0: 1c55 16be c7ab 593d a5ef 953e 3909 11be
000001f0: fd0d 2a3e a77e 01be de1a 78be 179c 24bd
00000200: fc54 263e 2882 963e b8de 2abe 2cb0 ac3d
00000210: bac3 7e3e 9c21 3d3e cdba 343e 4036 513e
00000220: 0e5a 0d3e 109f 993d f5b6 48be 8529 6bbe
00000230: 9a5e fdbd 86b7 12bc d64e 54be cc2e dc3d
00000240: 2c4d 8a3d d1c0 b9bd b037 f03d 26db c73d
00000250: f5a5 353e 670a 613e 290e aebd 37ce 933e
00000260: b233 c1bc a113 97ba 2f24 8dbe 84d2 13be
00000270: 5bf8 2abe 1f2b cfbd c6e4 523e 57e2 cabd
00000280: baaf 5abe 4d2d da3d 9c0b 833d 8b50 303e
00000290: 5e68 21be 3d52 5a3d e179 dcbd 3810 4dbd
000002a0: 33ce 7dbe e70c f5bd fe2e debd 5b7f c73d
000002b0: 2f33 7b3d 5268 9d3d e604 913e b04f 9a3e
000002c0: 835e 4c3e 2d38 d43c 8a1a 3bbe 7f07 673e
000002d0: f20e aabd 724b 163c 8c1c 7cbe 0b7a 1cbd
000002e0: a62c 21be 41f6 773e 2054 7fbe ec2b 65be
000002f0: 5342 28bd 7bc0 23be ae93 a23d 6fa4 eebd
00000300: 42c0 0fbe 26bf e43c d129 2c3e a248 43be
00000310: 5bac ff3d bdcb 2e3e c85c 8e3e 564d 41be
00000320: 1096 933d 7f07 41be 531d 783e 08fe c7bd
00000330: d0d7 303e f7ba 633c 7854 e5bc 61e4 023c
00000340: b9da 7a3d 2442 193e 8886 8a3d 1039 be3d
00000350: fc6c 73be 33f2 5b3e e6f8 503e d4e0 783e
00000360: 15be 4f3e 2bad 40be dc95 babd c696 8b3e
00000370: 2217 81be 2259 843e a494 79be 21c6 5abe
00000380: 0b22 163e bb51 43be 26e0 60bd e774 6b3e
00000390: d2ea 6b3e dc6a 8f3e 7a29 40bd 3652 53be
000003a0: 3e64 873e 04f0 e7bc c052 d1bd 9251 403d
000003b0: 8280 60be 60d0 493e da67 3f3e 84c3 50be
000003c0: 39f8 49be 25d8 0fbc ef77 0b3e cb38 c23b
000003d0: 6006 02be 8397 af3b f0ee 6abe 3b58 3dbe
000003e0: e802 57be e3af 523e 248e 843e 6e65 a7bd
000003f0: f0c2 be3c 6db4 203e 4eb6 443d 4128 f3bd

fc1.bias f4 [128]
0.016577873 0.06033508 -0.11966465 -0.032006286 0.08759981 0.2227032 -0.24081711 -0.006722232
-0.23883866 -0.0032616523 -0.006907718 -0.104482986 0.16128437 0.20144737 -0.12081535 -0.031686164
-0.07756854 0.018964726 0.10656311 0.27127138 -0.24503747 0.1224659 -0.17663887 -0.23822281
0.23069015 -0.088060886 -0.16755262 0.08909842 -0.040320877 -0.24241666 -0.14783645 -0.11931182
-0.010241793 -0.1737855 -0.25416476 0.16780514 -0.23403853 -0.013125479 0.22057745 -0.11680566
-0.18605617 0.08188227 0.25289965 -0.037237156 0.008555409 0.1446067 0.050044432 0.05003364
0.15894282 0.14111093 -0.20834638 -0.123811185 0.20312312 0.051673193 0.076041974 0.28098467
0.1620608 0.12606499 0.2811906 -0.241639 0.054809306 0.087866224 -0.036726393 -0.1301676
0.0654933 -0.23316441 -0.12959254 0.193777 -0.09032327 -0.09665881 0.14033392 -0.05574619
0.030932251 -0.2725912 0.17402242 -0.26515543 0.047441576 -0.261172 -0.25182194 0.24193524
-0.14046769 -0.006958257 0.012050313 0.26994875 0.073009625 0.15027846 -0.1077172 -0.08452023
0.18414043 0.09324895 0.048575837 -0.19334392 -0.21601391 0.056190714 -0.22567225 0.21720566
0.24664019 -0.09979412 -0.1456249 0.2830365 -0.12968591 -0.20644757 -0.21597369 0.039856177
0.069787346 0.18960965 0.22212872 0.104851626 0.03114988 0.2582308 -0.10575891 -0.06653374
0.2510599 -0.10400561 0.14902963 0.08906094 0.113055274 -0.06736613 -0.25002027 0.22019632
0.23605883 -0.23515487 -0.11655458 0.022371033 0.15215738 -0.047816206 -0.10422034 0.22663233
00000000: 52ce 873c eb21 773d bd12 f5bd 0619 03bd
00000010: 8767 b33d 4f0c 643e c398 76be 2b46 dcbb
00000020: 1f92 74be 72c1 55bb 235a e2bb 2dfb d5bd
00000030: bb27 253e 3848 4e3e 0a6e f7bd 5ac9 01bd
00000040: 41dc 9ebd ea5b 9b3c c33d da3d 15e4 8a3e
00000050: 1aeb 7abe 67cf fa3d d2e0 34be aef0 73be
00000060: 0a3a 6c3e 4459 b4bd ea92 2bbe 3c79 b63d
00000070: 8127 25bd 133c 78be 7062 17be c159 f4bd
00000080: 31cd 27bc d3f4 31be e221 82be 1cd5 2b3e
00000090: cca7 6fbe 400c 57bc 0edf 613e ce37 efbd
000000a0: 8285 3ebe e4b1 a73d 107c 813e fd85 18bd
000000b0: fc2b 0c3c c713 143e 64fb 4c3d 13f0 4c3d
000000c0: e8c1 223e 627f 103e c158 55be b890 fdbd
000000d0: 82ff 4f3e 45a7 533d e5bb 9b3d 39dd 8f3e
000000e0: 44f3 253e 2e17 013e 37f8 8f3e 3770 77be
000000f0: b97f 603d 35f3 b33d 6a6e 16bd a84a 05be
00000100: 5a21 863d a7c2 6ebe e8b3 04be 7a6d 463e
00000110: 68fb b8bd 0ef5 c5bd b2b3 0f3e 1e56 64bd
00000120: a265 fd3c 1391 8bbe ef32 323e 74c2 87be
00000130: 1952 423d 56b8 85be ceee 80be dfbd 773e
00000140: c3d6 0fbe 1702 e4bb ad6e 453c b936 8a3e
00000150: 1286 953d 99e2 193e d69a dcbd f118 adbd
00000160: 4f8f 3c3e 4ef9 be3d 75f7 463d f3fb 45be
00000170: c032 5dbe 3c28 663d a016 67be 296b 5e3e
00000180: 3f8f 7c3e dc60 ccbd b21e 15be 29ea 903e
00000190: 62cc 04be fe66 53be 3528 5dbe 3b40 233d
000001a0: abec 8e3d 0829 423e b675 633e 73bc d63d
000001b0: 082e ff3c d436 843e 2198 d8bd d742 88bd
000001c0: ec8a 803e e500 d5bd 399b 183e 9565 b63d
000001d0: 8689 e73d 41f7 89bd a802 80be 257b 613e
000001e0: 68b9 713e 70cc 70be 2bb4 eebd 7543 b73c
000001f0: 25cf 1b3e edda 43bd 7971 d5bd 4e12 683e

fc2.weight f4 [256, 128]
-0.063442945 0.052241348 -0.016538452 0.05041538 0.012441837 0.0014473356 0.07791507 0.01356504
0.0495793 0.005733618 -0.03895912 0.038516857 -0.045360398 0.031054538 -0.013047292 0.029572414
0.021681182 -0.0027389582 -0.032669906 0.022836464 0.026372764 -0.10028276 0.0939483 -0.058216717
-0.050203085 0.047784742 0.09206732 0.014079011 -0.06280287 0.040552806 -0.05197038 0.049435087
0.00561639 -0.014549159 -0.0888655 0.028792901 0.061872263 -0.038639195 0.04918017 -0.026475277
-0.01234116 0.05257681 -0.09524317 -0.0027118714 0.0038491362 0.026731925 -0.035878334 -0.060926918
0.005019741 -0.1036647 0.026191277 -0.04234193 -0.023465987 0.09416989 -0.082604356 -0.05547524
-0.07722158 0.04729923 0.08252502 -0.04345699 0.06834398 0.045637134 -0.090866975 0.051993378
0.01848047 -0.0036017098 0.07917849 0.005857999 -0.026005125 0.058886513 -0.087770015 -0.10578574
0.0010334831 0.038424853 -0.010443851 -0.058052734 0.056530025 -0.07236956 -0.02369695 -0.100857
-0.11322185 0.029885186 -0.05254689 0.04327272 0.10104547 0.019827928 0.06938667 -0.07018345
0.037032522 0.05241291 -0.035597995 -0.020806199 -0.066274196 0.028794033 -0.072176844 -0.079066694
-0.09013165 -0.030480118 -0.0046783583 -0.08136334 -0.04931876 0.034802135 0.018883629 0.035906624
-0.04988864 -0.03503307 -0.08410799 0.09930014 0.023434356 0.023445992 0.034895685 0.075511396
-0.082851715 0.017540915 -0.09452091 0.008105208 -0.06314187 0.014774976 -0.04360095 0.05928536
0.06554813 0.057112932 -0.09055481 0.06939911 -0.064108856 -0.093169354 0.064737976 0.009854138
-0.04928252 -0.105619326 0.005176601 -0.037524015 -0.075471826 -0.023869399 -0.06420867 0.060733862
-0.06891349 -0.053734712 -0.07278042 -0.032097388 -0.00954775 0.034977634 -0.017424043 0.06513932
0.11321426 -0.0011505194 -0.035296336 -0.08508562 -0.07589622 -0.047731843 -0.04063503 0.05820412
-0.039847225 0.008385394 0.01187248 -0.08944144 0.0590784 -0.00774512 -0.0676247 0.0036947695
-0.08133303 -0.012183508 -0.07965468 -0.036957063 -0.047786854 0.090114675 0.08662475 0.0981335
0.019136157 0.030518657 -0.08390358 -0.046499602 0.017866237 0.007722967 0.025910411 0.039861616
0.04420467 0.017868007 -0.01945049 -0.01635505 0.014329576 0.08618146 -0.014481613 -0.035999373
0.04215082 0.05633509 0.011503152 -0.013849554 -0.07757006 -0.0037129007 0.013227145 -0.042947616
-0.08605297 -0.07789047 0.08907407 0.09168288 0.07447114 0.08618572 -0.013640674 0.020825457
0.03808361 0.00622484 -0.067053065 0.0648379 -0.020542383 0.016259998 -0.02706259 -0.07420695
-0.04249116 0.008329766 0.03682575 0.048426285 0.0035667052 0.08034994 -0.05264717 0.00030520404
-0.070334986 0.01743189 0.08160364 -0.08657183 0.008863939 -0.06132038 -0.009848357 -0.07053498
-0.012204525 -0.08024798 0.0040199957 -0.091449805 0.003063714 -0.05199482 -0.038949553 0.095114626
0.0006237457 -0.06523531 -0.053058807 -0.023360798 -0.04059483 -0.005650731 -0.0147647625 0.0750341
-0.018651502 -0.056940224 0.05950313 -0.0065708435 -0.036431666 0.043626744 0.094519995 -0.058126897
-0.07459499 -0.048928965 -0.09129443 -0.008650425 0.027246464 -0.090837896 -0.07706893 -0.07894431
00000000: 60ee 81bd 06fb 553d a67b 87bc 5c80 4e3d
00000010: d9d8 4b3c 86b4 bd3a f091 9f3d e73f 5e3c
00000020: aa13 4b3d 13e1 bb3b 9993 1fbd dac3 1d3d
00000030: d3cb 39bd 1666 fe3c 4fc4 55bc d941 f23c
00000040: bc9c b13c 1880 33bb e1d0 05bd 8913 bb3c
00000050: b20b d83c 0c61 cdbd f767 c03d a774 6ebd
00000060: c0a1 4dbd efb9 433d cb8d bc3d a7ab 663c
00000070: cb9e 80bd b31a 263d e5de 54bd 727c 4a3d
00000080: b209 b83b 995f 6ebc 1eff b5bd 17df eb3c
00000090: c56d 7d3d 2244 1ebd 2571 493d aee2 d8bc
000000a0: 9432 4abc c85a 573d da0e c3bd a7b9 31bb
000000b0: ca41 7c3b e9fc da3c 29f5 12bd 818e 79bd
000000c0: a47c a43b 294e d4bd 178f d63c bb6e 2dbd
000000d0: be3b c0bc 25dc c03d 792c a9bd 013a 63bd
000000e0: 5926 9ebd d6bc 413d e102 a93d f5ff 31bd
000000f0: eef7 8b3d 01ee 3a3d 7718 babd 02f7 543d
00000100: 5b64 973c aa0a 6cbb 5528 a23d 75f4 bf3b
00000110: b308 d5bc fc32 713d c4c0 b3bd 32a6 d8bd
00000120: f075 873a 6163 1d3d b01c 2bbc b4c8 6dbd
00000130: 078c 673d 7e36 94bd 1b20 c2bc 1d8e cebd
00000140: dbe0 e7bd c7d1 f43c 683b 57bd bc3e 313d
00000150: edf0 ce3d 2e6e a23c 991a 8e3d 57bc 8fbd
00000160: 6aaf 173d ebae 563d 34cf 11bd c371 aabc
00000170: c4ba 87bd 77e1 eb3c 74d1 93bd b8ed a1bd
00000180: f196 b8bd 71b1 f9bc ea4c 99bb d3a1 a6bd
00000190: 7802 4abd af8c 0e3d d7b1 9a3c d312 133d
000001a0: 0858 4cbd d67e 0fbd cf40 acbd df5d cb3d
000001b0: 68f9 bf3c cf11 c03c c7ee 0e3d b8a5 9a3d
000001c0: 29ae a9bd f7b1 8f3c 2e94 c1bd b5cb 043c
000001d0: 8650 81bd be12 723c e996 32bd 35d5 723d
000001e0: 193e 863d 40ef 693d cd74 b9bd 1f21 8e3d
000001f0: 814b 83bd 93cf bebd 5895 843d 4073 213c
00000200: 78dc 49bd f24e d8bd 7aa0 a93b c8b2 19bd
00000210: f990 9abd c289 c3bc d67f 83bd 12c4 783d
00000220: 8422 8dbd ee18 5cbd e70d 95bd 8d78 03bd
00000230: 2b6e 1cbc b544 0f3d debc 8ebc c467 853d
00000240: e1dc e73d 06cd 96ba e492 10bd 5f41 aebd
00000250: 7a6f 9bbd 7782 43bd eb70 26bd 7167 6e3d
00000260: d836 23bd e462 093c ca84 423c 132d b7bd
00000270: 31fc 713d c7ca fdbb d27e 8abd f223 723b
00000280: ee91 a6bd 569d 47bc fe21 a3bd 4a60 17bd
00000290: 26bc 43bd 0b8e b83d 5168 b13d 37fa c83d
000002a0: 6ec3 9c3c 4302 fa3c a4d5 abbd 5e76 3ebd
000002b0: 375c 923c f110 fd3b 1242 d43c ef45 233d
000002c0: f50f 353d ed5f 923c a256 9fbc 07fb 85bc
000002d0: 99c6 6a3c e87f b03d 4a44 6dbc 1474 13bd
000002e0: 57a6 2c3d a0bf 663d b777 3c3c 3de9 62bc
000002f0: 0ddd 9ebd 2354 73bb abb6 583c d7e9 2fbd
00000300: 8a3c b0bd 0a85 9fbd 776c b63d 3cc4 bb3d
00000310: 5384 983d 2482 b03d 227d 5fbc 269a aa3c
00000320: 8ffd 1b3d bef9 cb3b 1e53 89bd bcc9 843d
00000330: 8048 a8bc b033 853c 5db2 ddbc d0f9 97bd
00000340: 360b 2ebd 9279 083c 99d6 163d a45a 463d
00000350: 62bf 693b 828e a43d 8fa4 57bd cb03 a039
00000360: ca0b 90bd 53cd 8e3c cf1f a73d 924c b1bd
00000370: 0e3a 113c 142b 7bbd 015b 21bc a574 90bd
00000380: 7df5 47bc 0e59 a4bd 2bba 833b 094a bbbd
00000390: 97c8 483b 85f8 54bd 9189 1fbd 75cb c23d
000003a0: de82 233a 179a 85bd 3154 59bd 255f bfbc
000003b0: c446 26bd c429 b9bb e7e7 71bc 7aab 993d
000003c0: 09cb 98bc 273a 69bd 8eb9 733d 3b50 d7bb
000003d0: 5f39 15bd f5b1 323d b393 c13d 7816 6ebd
000003e0: 42c5 98bd bd69 48bd 93f8 babd 83ba 0dbc
000003f0: fa33 df3c 3809 babd 51d6 9dbd 8ead a1bd

fc2.bias f4 [256]
0.06741774 -0.06453595 -0.057655722 0.018809225 -0.00312147 -0.097752854 0.018707015 0.07124333
-0.07295425 -0.066105984 0.06037498 -0.074186936 -0.021786047 0.011508324 0.07617144 -0.014766294
-0.06210721 0.06270256 -0.015285944 -0.05527296 0.028489996 -0.0058308337 0.091076866 0.00071274076
-0.032184925 0.0065544704 0.0036552753 -0.013388252 -0.09307915 -0.0065112435 0.074491106 -0.024606617
0.051003065 -0.05221145 -0.0073612966 0.08556892 0.093922794 0.078528434 -0.08604477 -0.05039717
-0.0060524163 -0.063028544 0.054693345 0.011849188 -0.038176272 -0.06922679 0.08587846 0.03232271
0.00042124794 -0.08376052 0.06348317 0.055532787 0.037984494 -0.005669594 -0.01772249 0.024856448
-0.026895849 -0.02747442 0.0342256 -0.01712066 0.06357689 -0.094220325 -0.03986811 0.013184616
-0.08854623 0.029863095 -0.07371221 -0.05908035 0.028935548 0.024365881 0.06687204 0.06262824
-0.03785034 -0.055308282 0.08850413 0.025970906 -0.024730362 -0.08407858 -0.0016759902 -0.05622179
0.03112932 0.020408154 0.05792606 -0.02952606 0.006707328 -0.043106236 0.06648296 -0.076903366
0.02324489 -0.0024965247 -0.068002135 0.100248694 0.060683742 0.03042314 -0.0714815 0.033699214
-0.09028326 0.07178242 0.0074544777 -0.07650545 -0.025676135 0.070213586 0.074938804 -0.026089717
0.016474405 -0.04934659 0.07482139 -0.014848004 -0.030331548 -0.0031379971 0.003877414 0.008669896
0.010663411 -0.041833423 0.042744614 0.017379038 0.042657625 0.01894807 0.09456799 -0.091498315
0.08417501 -0.0064640767 -0.09357244 -0.006151656 -0.06086136 0.00737503 0.05892997 -0.06314806
-0.04311467 0.085920736 0.021586418 0.051480364 -0.04785759 -0.022259835 -0.046506315 -0.01365208
-0.0492427 -0.07454304 -0.008093615 0.051550765 0.0679329 0.073522255 0.0767854 -0.03593223
-0.03638544 0.098688245 -0.097673364 0.0040777605 -0.01842771 -0.021148983 0.032904945 -0.06270425
-0.027214788 0.058125682 0.08714638 -0.026183741 -0.056147173 0.009584907 -0.024269544 -0.00076799624
-0.0029682987 -0.050230004 0.08164226 0.07507711 -0.067813866 0.03912904 -0.05461415 -0.030187925
0.057595532 -0.07497178 -0.08589771 0.05870536 -0.016233133 0.03990394 0.040434733 0.025656411
-0.013389224 -0.07117722 0.057988048 -0.06922775 0.056445707 0.021283662 -0.09747375 -0.007430738
0.03627147 0.0018144427 -0.05652708 -0.010438704 -0.011823667 -0.01497794 -0.044293847 -0.03751336
-0.029820165 0.045896392 0.009159254 -0.05705295 -0.026937043 0.06528299 0.0047145914 0.07214314
-0.059267927 0.09777641 0.00815369 0.057793096 0.0014821766 0.050749313 0.062081326 -0.029007124
0.0152025465 -0.07223605 0.040893674 0.027746461 -0.042463005 -0.075421646 -0.004778 -0.05887672
0.007822522 0.06672524 0.0058005285 -0.012302045 0.063880645 -0.062770955 0.044719983 -0.008551352
0.059368715 -0.031925414 -0.050377 0.0022547063 -0.001825633 -0.015923508 -0.043477308 0.03374062
0.08001055 0.0053456044 -0.030859943 0.039913107 -0.035296585 0.065126106 0.051663697 0.0024222506
-0.043079544 0.06386356 -0.0290188 0.032016516 -0.0690759 0.03146763 -0.089100786 -0.072261035
0.08441207 0.029772686 0.06914229 0.07608253 -0.023277473 -0.030848358 -0.080066 -0.04007385
00000000: 5012 8a3d 6d2b 84bd 6828 6cbd ce15 9a3c
00000010: 9491 4cbb a632 c8bd 743f 993c 06e8 913d
00000020: 0a69 95bd 9362 87bd c14b 773d 52ef 97bd
00000030: a778 b2bc 698d 3c3c c6ff 9b3d 53ee 71bc
00000040: 2164 7ebd 336a 803d e571 7abc e665 62bd
00000050: da63 e93c 9410 bfbb 8286 ba3d 39d7 3a3a
00000060: 57d4 03bd e2c6 d63b 588d 6f3b 665a 5bbc
00000070: 48a0 bebd 455c d5bb cb8e 983d d193 c9bc
00000080: 97e8 503d acdb 55bd 0837 f1bb c23e af3d
00000090: 985a c03d 84d3 a03d 3e38 b0bd 436d 4ebd
000000a0: 5953 c6bb 1c15 81bd 2106 603d 1923 423c
000000b0: b95e 1cbd c6c6 8dbd 0ce1 af3d d164 043d
000000c0: f1da dc39 a38a abbd 7703 823d 5976 633d
000000d0: a195 1b3d 00c8 b9bb c12e 91bc c09f cb3c
000000e0: af54 dcbc 0912 e1bc 2530 0c3d a040 8cbc
000000f0: 9a34 823d 96f6 c0bd be4c 23bd 4a04 583c
00000100: ba57 b5bd 73a3 f43c 6df6 96bd 3dfe 71bd
00000110: 3e0a ed3c f59a c73c 35f4 883d 3c43 803d
00000120: f508 1bbd f08a 62bd a741 b53d f0c0 d43c
00000130: 5497 cabc 6431 acbd e6ac dbba d248 66bd
00000140: ea02 ff3c 002f a73c e043 6d3d a3e0 f1bc
00000150: 25c9 db3b 2a90 30bd 3828 883d 837f 9dbd
00000160: 116c be3c bc9c 23bb b444 8bbd 304f cd3d
00000170: 848f 783d f339 f93c e564 92bd 3008 0a3d
00000180: 6ee6 b8bd a902 933d b144 f43b e4ae 9cbd
00000190: c256 d2bc 24cc 8f3d 8479 993d 1aba d5bc
000001a0: 55f5 863c a61f 4abd f53b 993d 0b45 73bc
000001b0: de79 f8bc dba6 4dbb 361c 7e3b 2e0c 0e3c
000001c0: 96b5 2e3c 8659 2bbd fa14 2f3d 7c5e 8e3c
000001d0: c3b9 2e3d fc38 9b3c ddac c13d 7863 bbbd
000001e0: f363 ac3d 9bd0 d3bb e8a2 bfbd d593 c9bb
000001f0: c349 79bd 3caa f13b 8d60 713d c553 81bd
00000200: 0299 30bd 36f7 af3d 00d6 b03c 13dd 523d
00000210: 5206 44bd 425a b6bc 687d 3ebd f9ac 5fbc
00000220: b7b2 49bd 05aa 98bd 159b 04bc e526 533d
00000230: 6720 8b3d d692 963d aa41 9d3d ad2d 13bd
00000240: e608 15bd 101d ca3d f908 c8bd bc9e 853b
00000250: b5f5 96bc a240 adbc 56c7 063d 166b 80bd
00000260: 8cf1 debc 3215 6e3d cd79 b23d 497f d6bc
00000270: 94fa 65bd 040a 1d3c ecd0 c6bc 5b53 49ba
00000280: ca87 42bb fabd 4dbd 0f34 a73d 07c2 993d
00000290: ffe1 8abd c645 203d 16b3 5fbd ab4c f7bc
000002a0: 4be9 6b3d ce8a 99bd 23eb afbd 0875 703d
000002b0: 59fb 84bc 5072 233d e49e 253d 652d d23c
000002c0: 7a5e 5bbc 5dc5 91bd e084 6d3d 47c7 8dbd
000002d0: 9d33 673d 135b ae3c 51a0 c7bd 8c7d f3bb
000002e0: 6591 143d 98d2 ed3a f088 67bd 1907 2bbc
000002f0: 0eb8 41bc 0966 75bc 776d 35bd 9ca7 19bd
00000300: 6b49 f4bc dbfd 3b3d b210 163c 5bb0 69bd
00000310: 13ab dcbc 17b3 853d dc7c 9a3b c8bf 933d
00000320: edc2 72bd 003f c83d 0e97 053c 74b8 6c3d
00000330: 9845 c23a 83de 4f3d fd48 7e3d 59a0 edbc
00000340: 1a14 793c 7ff0 93bd 2080 273d 8c4c e33c
00000350: b0ed 2dbd aa76 9abd c590 9cbb b728 71bd
00000360: 092a 003c 3ea7 883d 5c12 be3b 848e 49bc
00000370: dbd3 823d 0f8e 80bd 4d2c 373d f81a 0cbc
00000380: 9c2c 733d 39c4 02bd 1d58 4ebd b2c3 133b
00000390: 144a efba 0472 82bc 4315 32bd 9b33 0a3d
000003a0: 92dc a33d 2e2a af3b fecd fcbc ed7b 233d
000003b0: 2793 10bd d660 853d 509d 533d 9fbe 1e3b
000003c0: 2d74 30bd e6ca 823d d6b8 edbc c023 033d
000003d0: aa77 8dbd 34e4 003d 797a b6bd 98fd 93bd
000003e0: 3ce0 ac3d d9e5 f33c 799a 8d3d 28d1 9b3d
000003f0: 66b0 bebc b2b5 fcbc a5f9 a3bd 7a24 24bd

fc3.weight f4 [32, 256]
-0.020856803 0.06132153 0.013584782 -0.043986563 -0.039433844 0.03552298 0.016088862 -0.0009407626
-0.037688494 -0.024763796 0.012841311 0.03587983 -0.012283745 -0.0023262468 -0.06868152 0.019778369
0.018257817 0.0153946765 0.05655544 0.020706661 0.022636713 -0.034988176 0.007420731 0.0068418384
0.051228944 -0.004362307 -0.03426131 -0.0017972965 -0.008454734 0.015479342 -0.039497834 -0.020080138
0.06447669 0.0058356067 -0.038187824 -0.0011656954 -0.01813232 -0.06534335 0.012176938 -0.013267362
-0.013340288 0.005113262 -0.07881827 -0.029879594 -0.015786577 0.007194433 0.04482083 -0.050944827
-0.044567425 0.06501358 0.003628826 -0.0032406377 0.0058096084 -0.048937313 -0.06563693 0.0090960935
0.022598179 0.021976182 0.0513198 -0.03203889 0.022542715 0.025317429 0.04572857 -0.036643248
0.004063353 0.00077468134 -0.017351402 0.024930974 0.022136306 0.009355083 -0.043289226 -0.059791274
0.021331627 0.05736448 -0.04625514 -0.0631726 -0.02943476 0.053711295 -0.017235301 -0.048462603
0.04497438 -0.021437693 -0.016642282 0.02223085 -0.0072904057 0.06914278 -0.052456398 0.04529268
0.044209424 -0.06797352 -0.002890598 0.019184338 0.04144595 0.02981392 -0.046603523 0.047630344
0.014900828 0.036287423 0.042656705 0.037777428 -0.0024281617 0.03267998 -0.012475245 -0.016252795
-0.02548687 -0.029348578 0.052697733 0.052325014 -0.023061208 -0.058354184 0.049466975 0.0045395507
-0.010619926 -0.04286452 0.051718205 -0.053166125 0.03951256 -0.046072695 -0.030230708 0.052270677
0.044324256 -0.024378315 0.045215335 0.028811825 -0.023525657 0.007141215 0.05079413 -0.010630545
-0.042975508 -0.06093092 0.021002617 -0.065160096 -0.043563988 0.03016572 -0.035225593 -0.04834671
0.0314735 0.0052986844 0.035483133 0.017373819 0.022800332 0.051097516 0.05411634 -0.0004948023
-0.04669377 -0.05263857 0.022833727 -0.02653416 -0.07086842 -0.04589649 0.051894177 -0.013615955
-0.02624414 -0.037022933 0.050694734 0.037862774 0.07208922 -0.0059464076 -0.07308869 -0.01017082
-0.020114912 -0.039848298 0.030007252 -0.00072371826 0.037842907 0.0006149455 0.012931977 0.014595926
0.0059766234 0.026060477 0.058152545 -0.0041973726 0.0015186371 -0.0065245535 -0.049407374 -0.026301697
-0.025604822 -0.064051874 -0.021168264 0.0079329545 0.051762648 0.0048296344 0.057669826 0.051109098
0.010466818 -0.061260354 0.04293147 -0.03987721 -0.03805688 0.02547199 -0.010898982 0.023179645
-0.07105701 0.034568064 -0.022147665 0.040454987 0.022266464 0.0011979758 -0.07537569 0.020606415
0.03686488 -0.061089773 -0.038776267 -0.05998754 -0.04821986 -0.023726834 0.034948625 -0.044548444
-0.0543404 0.03284992 0.05135015 0.015976125 -0.07035489 0.016865984 -0.017205102 -0.019027922
0.04702079 0.028717464 -0.052731294 -0.02498758 -0.03353187 -0.0034411047 0.0045411717 -0.027955571
0.06237809 -0.05856643 0.055263955 -0.045075618 -0.00818362 -0.04793695 -0.03927205 -0.064895116
0.02713854 0.025241368 -0.049171753 -0.013032594 -0.044347387 -0.012729633 0.006113233 -0.030251453
-0.048248865 -0.06564784 -0.03828451 -0.019835437 0.02036492 0.00839251 -0.0051002773 0.01020166
-0.071585655 -0.008863681 -0.007584615 -0.025276477 -0.017764976 -0.00969575 0.059289433 0.025921604
00000000: e3db aabc 492c 7b3d b592 5e3c 412b 34bd
00000010: 6285 21bd 8b80 113d cacc 833c 829d 76ba
00000020: 405f 1abd 72dd cabc 5d64 523c bbf6 123d
00000030: c341 49bc f273 18bb e6a8 8cbd 3f06 a23c
00000040: 6b91 953c f439 7c3c ada6 673d 04a1 a93c
00000050: a170 b93c c34f 0fbd 9a29 f33b 8031 e03b
00000060: 71d5 513d aff1 8ebb 9655 0cbd 4393 ebba
00000070: ba85 0abc 119d 7d3c 7bc8 21bd 1a7f a4bc
00000080: 5b0c 843d 9e38 bf3b d66a 1cbd 3fca 98ba
00000090: 3b8a 94bc bcd2 85bd c881 473c 595f 59bc
000000a0: 3991 5abc 278d a73b 796b a1bd 0dc6 f4bc
000000b0: da52 81bc 47bf eb3b 0c96 373d 86ab 50bd
000000c0: 558c 36bd d725 853d 99d1 6d3b e160 54bb
000000d0: 875e be3b 7e72 48bd a86c 86bd c807 153c
000000e0: d11f b93c 6507 b43c b634 523d 363b 03bd
000000f0: 80ab b83c 7f66 cf3c e24d 3b3d 3b17 16bd
00000100: e025 853b fc13 4b3a 8724 8ebc 0b3c cc3c
00000110: 3357 b53c 1046 193c 0b50 31bd b2e7 74bd
00000120: aabf ae3c 04f7 6a3d 0876 3dbd a360 81bd
00000130: 2a21 f1bc 6000 5c3d 0c31 8dbc b980 46bd
00000140: 0e37 383d 1a9e afbc 6555 88bc 791d b63c
00000150: 5be4 eebb bb9a 8d3d 85dc 56bd d184 393d
00000160: f114 353d b335 8bbd 3070 3dbb 7928 9d3c
00000170: 3ac3 293d 523c f43c 56e3 3ebd 0918 433d
00000180: 9a22 743c 1fa2 143d ccb8 2e3d 81bc 1a3d
00000190: cb21 1fbb 71db 053d f864 4cbc 9524 85bc
000001a0: d7c9 d0bc 6e6c f0bc 94d9 573d c152 563d
000001b0: dcea bcbc cc04 6fbd e29d 4a3d 83c0 943b
000001c0: 33ff 2dbc b592 2fbd 78d6 533d b9c4 59bd
000001d0: ecd7 213d b9b6 3cbd 64a6 f7bc c719 563d
000001e0: 5a8d 353d 08b5 c7bc b733 393d c706 ec3c
000001f0: e1b8 c0bc da00 ea3b 810d 503d bd2b 2ebc
00000200: 1607 30bd b392 79bd ae0d ac3c a872 85bd
00000210: 2770 32bd 1a1e f73c b648 10bd 3307 46bd
00000220: 5bea 003d 96a0 ad3b c356 113d 8a53 8e3c
00000230: c3c7 ba3c a14b 513d 18a9 5d3d 9fb5 01ba
00000240: f741 3fbd 8b9b 57bd cc0d bb3c 2b5e d9bc
00000250: 7623 91bd f5fd 3bbd fd8e 543d 7415 5fbc
00000260: f3fd d6bc 5ca5 17bd 48a5 4f3d ff15 1b3d
00000270: 83a3 933d 15da c2bb 86af 95bd 83a3 26bc
00000280: 07c8 a4bc f837 23bd c5d1 f53c e9b7 3dba
00000290: 2a01 1b3d 4b34 213a a5e0 533c c023 6f3c
000002a0: 8dd7 c33b c87c d53c 5d31 6e3d 1d8a 89bb
000002b0: 010d c73a eccb d5bb 635f 4abd a876 d7bc
000002c0: 34c1 d1bc a12d 83bd 1169 adbc 39f9 013c
000002d0: 1205 543d e941 9e3b 3237 6c3d c657 513d
000002e0: 047d 2b3c 23ec 7abd e9d8 2f3d 4956 23bd
000002f0: 88e1 1bbd a3aa d03c a591 32bc 3de3 bd3c
00000300: 5686 91bd 3e97 0d3d 056f b5bc 21b4 253d
00000310: 2968 b63c 6605 9d3a 925e 9abd c9ce a83c
00000320: a1ff 163d 4539 7abd ddd3 1ebd 7fb5 75bd
00000330: 3082 45bd c75e c2bc 4a26 0f3d 6e78 36bd
00000340: 0a94 5ebd a38d 063d 8954 523d 5de0 823c
00000350: 3916 90bd 882a 8a3c b7f1 8cbc 72e0 9bbc
00000360: df98 403d e340 eb3c c5fc 57bd c1b2 ccbc
00000370: b758 09bd 2884 61bb 1cce 943b 1503 e5bc
00000380: 2b80 7f3d 5ae3 6fbd 755c 623d 36a1 38bd
00000390: 9714 06bc 8959 44bd bbdb 20bd bbe7 84bd
000003a0: a551 de3c fcc6 ce3c 5268 49bd a986 55bc
000003b0: 9ba5 35bd f38f 50bc 8451 c83b e5d1 f7bc
000003c0: 9aa0 45bd 6072 86bd 38d0 1cbd ed7d a2bc
000003d0: 55d4 a63c bd80 093c 3a20 a7bb dd24 273c
000003e0: 809b 92bd f938 11bc 5d88 f8bb 9d10 cfbc
000003f0: db87 91bc ecda 1ebc 7ad9 723d 8b59 d43c

fc3.bias f4 [32]
0.00273582 0.030541573 -0.047715943 -0.02023001 -0.0031989466 -0.05946105 -0.0249055 0.0429025
0.05211042 -0.022281265 -0.04803685 0.045584984 -0.0056158295 -0.042977557 0.024282025 -0.033351324
0.057832792 -0.014910677 0.040502205 -0.038011584 0.007937173 -0.04489437 0.044212367 -0.058010958
0.03993672 0.0001449821 -0.03284188 -0.021504125 -0.024103696 -0.03436177 0.053477913 0.056077268
00000000: 714b 333b 5232 fa3c cb71 43bd 68b9 a5bc
00000010: 6ba5 51bb 6e8d 73bd 9e06 ccbc 88ba 2f3d
00000020: bc71 553d 3387 b6bc 4ac2 44bd 52b7 3a3d
00000030: fe04 b8bb 3c09 30bd 19eb c63c 669b 08bd
00000040: 14e2 6c3d ea4b 74bc a4e5 253d 09b2 1bbd
00000050: eb0a 023c 29e3 37bd 0718 353d e69c 6dbd
00000060: b094 233d 5606 1839 3585 06bd 6b29 b0bc
00000070: 1d75 c5bc edbe 0cbd a80b 5b3d 47b1 653d

output.weight f4 [1, 32]
0.18063368 -0.18448783 -0.13388483 -0.016938837 0.08202006 0.1020703 -0.18517059 -0.11756611
0.16904004 0.12416344 -0.16563532 0.10091221 0.09652632 0.11038973 0.07499211 0.028599093
-0.0755402 0.1498725 0.14677104 -0.05436513 -0.17460382 -0.18945399 0.18712085 0.08472191
0.1437208 -0.040466238 0.16863625 -0.08354169 -0.06434415 -0.18374479 -0.12503637 -0.033099655
00000000: 09f8 383e 61ea 3cbe 1b19 09be 51c3 8abc
00000010: 22fa a73d 3c0a d13d 5c9d 3dbe 80c6 f0bd
00000020: d518 2d3e 6749 fe3d 4e9c 29be 10ab ce3d
00000030: 97af c53d 0314 e23d 7795 993d a548 ea3c
00000040: d2b4 9abd 2d78 193e 264b 163e f8ad 5ebd
00000050: 58cb 32be 3a00 42be 9c9c 3f3e ae82 ad3d
00000060: 8c2b 133e edbf 25bd fbae 2c3e e817 abbd
00000070: dec6 83bd 9827 3cbe 8909 00be 8193 07bd
