result/vis/921/10000/Train_921_under_10000_128_128_32_0.0004_64_5_5.pth (torch, 159487 bytes, 9 tensors)

fc1.weight f4 [128, 13]
00000000: 3226 773e d17a bebd e923 3ebd 958f 27be
00000010: ae02 93be 382b 113e 68c2 debd c43e 173e
00000020: c997 7b3e 13a4 c43d b158 da3c feea ba3c
00000030: 55ce 333d ee2c 36be 4a4f bcbc 5e36 bb3c
00000040: 1e6d 0d3f 7879 063e d56c 0d3e 6021 e73c
00000050: 4b9b 57bd 0df8 09bf 1058 0abe cdae fc3c
00000060: 9871 10be 16da fbbb 145c 433e 2a66 2d3e
00000070: fcd9 a5be c949 083e 69cc 4f3d 5d89 b93e
00000080: ca74 5b3e fcbe 1bbe e409 ca3e 8418 25be
00000090: 380d 863e ba38 103e 2a5c 4b3e 1f21 0b3c
000000a0: cb42 203f af4a 33bd b383 86bd a7e6 ef3b
000000b0: 1778 63bd 9eee 273c 777e 13be 0380 8d3e
000000c0: 2bae d53d e106 77bd 9f93 46be 3a0e d9be
000000d0: a9f5 7f3e 343e d3bc 4608 913e a7b1 4d3a
000000e0: 4cea e1bb 3a83 3cbe 1ea1 173e a539 bd3d
000000f0: 0d94 2abd 242c a43e d4e4 123e 9f8a 8d3e
00000100: 63bb 3cbe f211 803d f098 ea3c 3fca f03c
00000110: 4046 0ebf 9bcc 6dbe 6bc1 ca3d 23c2 febd
00000120: 4511 083e cbbb 7b3e da09 723e 53b5 64bb
00000130: bc2d b33d aa1f 4d3d ff2c afbe 093e ec3d
00000140: a17a 47be 8528 e13d 4564 6f3d 9a68 173c
00000150: 6f4f 853e 9578 1dbe 0451 d6be 410b a83d
00000160: cbf0 e93c 473d 343e f480 3b3e ab9c 9ebe
00000170: 9d2d 9e3b 423e 753d 9839 ba3d 26aa e9bd
00000180: 032e e43d 2b1d be3d 3ea6 04be b110 88be
00000190: b581 f83d cfb8 20bc ab54 163e 4436 313e
000001a0: 272a 9cbd 3125 b5be 1ebb bf3e c46b 66be
000001b0: a242 423e b6a3 663d cbfa a33c e3c1 653e
000001c0: 5985 de3e 0b90 38bd 75f1 0b3c 7231 743e
000001d0: 548d 263e 202a aa3e aff5 2bbe 7958 46be
000001e0: 6b7a c2be ab16 a83d 0e88 8f3e 7cde dcbd
000001f0: d610 213e c0dd 843d af41 97bd 6068 39bd
00000200: 494d 8a3e d4d0 6a3e eedb 05be a9fe 243e
00000210: ac7a 893e 75aa 57bb b8b2 d83d 745e 5d3e
00000220: f514 ce3d cc42 113e 7550 a73e 31f7 7fbe
00000230: dc90 21be 8d1e 693d 39f6 1abe 29e3 5f3e
00000240: 0c24 f93d 4289 cdbb 968b 47be b0f7 963d
00000250: 3e86 213e edb9 003e 5427 62bd 5eac e83e
00000260: 2449 f13d fcfb 41bd 5290 8dbe a82a 6ebe
00000270: e686 85be edcd 11be dfa8 403e c557 4c3e
00000280: 9cd2 38be 4840 113e 979e 143e e839 243e
00000290: e34e b0be 365a 95bd 8294 61bd 0c75 84bd
000002a0: 0a67 43be 164d 01bd b088 42bd 0cc1 013e
000002b0: d9b8 6ebe b4f2 3e3d 1d4f 803e aca6 5f3e
000002c0: f225 423e 0795 3e3e 30b3 76bd 41b5 2a3e
000002d0: 5e0b 7dbd 5b76 a9bd 8839 8dbe 79e3 733d
000002e0: 762b edbc bdc0 3d3f e6ad c4bd cd03 20be
000002f0: 4150 5b3e e9c5 14bd ad51 26be 1b9a 21be
00000300: e00b 603d 47ef 85bc 721e a23e f2f9 04be
00000310: 50d0 443e 7be4 2f3e 24da ba3c dd39 83be
00000320: 8826 8c3d b7f5 85be 249e 903e b4db 803e
00000330: b4ed 4d3e 9e4b 04bd 1bc9 943c 696d b6bb
00000340: 622d 0b3e 2a0e c43e d621 083d 501b 4fbe
00000350: 6b5f 8fbe 1969 583e 8da2 293e d24c 4b3e
00000360: dafc c33e 68cd 91bd 0fa2 28be 03d5 653e
00000370: fa4d e2be a1cd ae3e 89e8 2abe 627a 8ebe
00000380: a441 04be 9358 63be 74cb 14be 931e b73d
00000390: d32a 563e 5969 043f 89eb 603d 5a05 86be
000003a0: 1577 8b3e b8c0 13be 0b0a aa3a fd8f 393e
000003b0: 56ce 5fbe 3204 acbd c671 303e af43 c0be
000003c0: 51d2 eabe 4c6d 493d acfd b13e 7f61 173e
000003d0: 3dc8 2ebe 3484 4abe a766 c7be f6f0 cabd
000003e0: eeb3 14be e37f 733e 41e2 a4bb 1c98 cebd
000003f0: 8b21 8cb5 1374 b13d 801c 123d c5d0 ab3c
0.24135664 -0.09300769 -0.046420965 -0.16363366 -0.28712982 0.14176643 -0.10876924 0.14770037
0.2456962 0.09601607 0.02665362 0.022817131 0.043897945 -0.17790577 -0.022987027 0.022853073
0.55244625 0.13132274 0.13811047 0.028214157 -0.052638333 -0.5389412 -0.13510156 0.03084507
-0.14105833 -0.00768591 0.19078094 0.16933504 -0.3239287 0.13309397 0.05073205 0.36237612
0.2143127 -0.15209574 0.3946067 -0.16122633 0.2618196 0.1408414 0.19859377 0.008491783
0.6260192 -0.043772396 -0.065680884 0.007321197 -0.05553445 0.010249762 -0.14403711 0.27636728
0.104336105 -0.060309295 -0.1939225 -0.42393667 0.24996056 -0.025786497 0.28326625 0.00078466017
-0.0068943854 -0.18409434 0.14807555 0.092395104 -0.0416451 0.32064927 0.14345104 0.27644822
-0.18430857 0.06253423 0.02863738 0.029393313 -0.55575943 -0.23222582 0.09900173 -0.124393724
0.13287838 0.24583356 0.2363657 -0.0034898117 0.087489575 0.050079025 -0.34214017 0.1153527
-0.19480373 0.109940566 0.058445234 0.009241248 0.26037166 -0.1537803 -0.41858685 0.082052715
0.028557202 0.176015 0.1831091 -0.30978903 0.004827215 0.059873827 0.090930164 -0.11409406
0.111415885 0.09282907 -0.12954041 -0.26575235 0.12134115 -0.009809687 0.14680736 0.17305857
-0.076252274 -0.35379937 0.37447447 -0.22502047 0.18970731 0.05630847 0.020017048 0.22437243
0.4346111 -0.045059245 0.008541455 0.23846987 0.1626485 0.33235264 -0.1679294 -0.19369687
-0.37984022 0.082074486 0.2803349 -0.10784623 0.15729079 0.06487608 -0.07385575 -0.045265555
0.2701209 0.22931224 -0.13072178 0.1611277 0.26851404 -0.0032907997 0.10580963 0.21618062
0.10062591 0.14185637 0.3267857 -0.2499664 -0.15777916 0.0569139 -0.15132989 0.21863998
0.121650785 -0.006272466 -0.19486842 0.073714614 0.15773866 0.12570925 -0.055213287 0.45444006
0.117815286 -0.04735945 -0.2764917 -0.2325846 -0.26079482 -0.1423871 0.18814419 0.19955356
-0.18049091 0.14184678 0.14513622 0.16037714 -0.34435186 -0.07292597 -0.05507327 -0.064676374
-0.19082275 -0.031567656 -0.047493637 0.12671298 -0.23312701 0.04661818 0.2506036 0.21840924
0.18959787 0.18611537 -0.06022948 0.16670705 -0.06177842 -0.08274528 -0.27582955 0.059543107
-0.028951388 0.7412222 -0.09603481 -0.1562645 0.21417333 -0.036321554 -0.16242094 -0.15781443
0.054698825 -0.016349448 0.31663853 -0.12985972 0.1922009 0.17177002 0.022809096 -0.25630084
0.06843287 -0.26164028 0.28245652 0.2516762 0.20110208 -0.032298677 0.0181623 -0.005567242
0.13591531 0.38292056 0.033235393 -0.20225263 -0.28002486 0.21133842 0.16565914 0.19853523
0.38278848 -0.07119256 -0.1646807 0.22444539 -0.44200116 0.34141257 -0.16690268 -0.27827746
-0.12915665 -0.22201757 -0.14530736 0.089413784 0.20914774 0.5172325 0.054912124 -0.26175958
0.2723929 -0.14428985 0.0012972964 0.18121333 -0.21856055 -0.08399238 0.17230901 -0.37551638
-0.45863584 0.0491765 0.3476385 0.14783286 -0.17068572 -0.19776994 -0.38945505 -0.09909241
-0.14521763 0.23779254 -0.0050318544 -0.10087606 -1.0440575e-06 0.086647175 0.03567171 0.020973573

fc1.bias f4 [128]
00000000: 42f5 7b3e 0a13 78be bf24 783d c59a 813e
00000010: 03be 953e 67ea 003f 3dba e9be 0f87 73be
00000020: 6d9f 463c 9385 943e ec40 203e 76d6 023e
00000030: 1ed4 91bd 270f da3e c04e a5be 7810 043e
00000040: 866e 063e 4ce7 853e c3e0 ae3e c4b9 f83e
00000050: f5c3 04be a837 de3e e0ad d2be 6122 02bf
00000060: 55ff a03c fa09 a6be 31e7 c3be 1835 9e3e
00000070: 5dd6 8c3e fd56 fabe 07e9 e23d e9b0 aabe
00000080: 8c27 75be fd18 e33c 5e06 85bd 66ec cb3e
00000090: abb5 19bd 02fd 713e 7ca1 403c 85be a8be
000000a0: 00af d9be 8e66 ad3e 726c 013f 080c 8cbe
000000b0: 0446 51be 4516 b93e 37f1 943e 9fd3 953e
000000c0: fa03 bf3e a2ae e43e 9352 dbbe 4f31 b3be
000000d0: fc48 ed3e a208 2fbe fd6a a03e 85cd 003f
000000e0: 77f3 d03e d231 bc3e 06a8 fa3e 29d0 f3be
000000f0: 6637 1cbe 2dab 983e 85ab 553e ecf1 073e
00000100: 6ff9 a73e c257 f3be 32d8 acbe 185a 3abd
00000110: 0a6f ec3d c7d8 a2be c822 b03e da03 113e
00000120: c378 983e 8b88 0dbf c619 cc3e c3e2 07bf
00000130: bd00 673e fddc 94bd 4375 f0be 8001 123f
00000140: 5d22 6d3d aa57 6cbe f513 7c3e 59fa f33e
00000150: cc5e 0bbe 30a1 b53e 67a0 9b3d 9821 243e
00000160: 96d0 e8bc 0738 f13e f718 3cbe ddd9 c83b
00000170: f729 d9b8 e6e3 23be d07d b73d 2a3e 003f
00000180: 91a0 ed3e e5f1 c73d 2757 d7be 4f41 043f
00000190: 2cc3 9b3d 1c01 1e3b 0609 e0be 926c 2ebe
000001a0: 4ad5 853e eb7c d13e 9232 e53e 535b aabd
000001b0: 6375 4cbe 5404 fa3e 945a eb3d 331e 9abe
000001c0: f195 143f a58e c0be 6d9f ea3e c306 54be
000001d0: a966 b33e ee0f 813e da14 f5be f93a 013f
000001e0: 5ada 503c 1403 d4be ca0e 5b3d b839 923e
000001f0: b1fe c43e 68e8 3c3e 244f 1b3d 805b f23e
0.24605277 -0.24226013 0.06058192 0.25313392 0.2924653 0.5035767 -0.456499 -0.2378199
0.012122971 0.2900816 0.15649766 0.12777123 -0.07120536 0.42589685 -0.32286644 0.12896907
0.13128099 0.26153028 0.34155855 0.48579228 -0.12965377 0.43401837 -0.4114828 -0.5083371
0.019653002 -0.32429487 -0.38262323 0.30899882 0.27507296 -0.48894492 0.11079603 -0.33338097
-0.23940867 0.027721876 -0.06495355 0.39828795 -0.037526768 0.23631671 0.011757251 -0.32957855
-0.42516327 0.33867306 0.505561 -0.2735293 -0.20436865 0.36149803 0.29090282 0.29263017
0.3730772 0.44664484 -0.42836437 -0.34998557 0.46344745 -0.17093137 0.31331626 0.503136
0.4081075 0.3675676 0.48956317 -0.4761975 -0.15255508 0.29818097 0.20866211 0.1327588
0.3280749 -0.4752789 -0.33758694 -0.045496076 0.115446165 -0.31806013 0.34401536 0.14161626
0.29779634 -0.55286473 0.39863414 -0.53080386 0.22558875 -0.07268713 -0.46964464 0.5703354
0.0578941 -0.23080316 0.24616988 0.47651938 -0.13610381 0.3547454 0.07598954 0.1602844
-0.028419774 0.47113058 -0.18368898 0.006129487 -0.00010355183 -0.16004905 0.08959544 0.50094855
0.46411565 0.097629346 -0.4205868 0.51662153 0.076055855 0.0024109548 -0.43756884 -0.17033604
0.2613929 0.40915617 0.44765145 -0.083182 -0.19966654 0.48831427 0.11491886 -0.30101165
0.5804129 -0.3760883 0.45824757 -0.20705704 0.3503926 0.25207466 -0.4786747 0.5048061
0.012747372 -0.41408598 0.0534809 0.2855966 0.38475564 0.18448031 0.03791727 0.47335434

fc2.weight f4 [128, 128]
00000000: 3aa4 a8bd b964 1c3f 09a2 673d d06a 62be
00000010: a901 03bd bb7c 6abe 17dd 1c3e 8cc8 043d
00000020: ce14 febb 663f e7bd 0465 e9bb 4bbd f1ba
00000030: bee4 9dbc d7b3 cdbc 3225 e93e d097 483d
00000040: b0ee 88bd 335b 97bc 7355 a9be 14b4 fbbc
00000050: d03a 23bd 0bbb f8be b420 793e 9dc2 6b3f
00000060: e697 bcbd 10c3 ce3d 208a 1d3e a285 29bc
00000070: 170b 90be 78b5 fa3e 5ac7 65be 5bca f83d
00000080: b383 1b3e f63f b4bd fc58 c3bd bc35 44bd
00000090: 8116 333d 9d03 95bd 41aa e93c 64e5 313d
000000a0: 68ca e93d 3671 a5bd d5a1 5abe c726 cb3d
000000b0: e261 883e bb2b 40bc 0896 49be 8983 01be
000000c0: 1bb6 7ebd ea02 6bbe e966 b63d d7bd 0f3f
000000d0: 239c 76be 2cd3 9c3d ebb7 78be 06bf 38be
000000e0: 074a fbbd 5408 11be ec63 c2bd b6ea 4d3b
000000f0: 46e0 ea3d c2da f1bc 99a8 95be 4209 69be
00000100: 6117 59be cc6f cf3d 0360 c13e c013 a83e
00000110: b84d 88bd e557 933d 0135 e3bd 7d5d fcbd
00000120: 6d85 ab3b f948 293f 4116 d7bd 54b8 4e3f
00000130: e6b4 39bc 0eed c5bc c467 383d 60bb 9fbe
00000140: 5523 79bc b8dc 2f3e b625 efbd fc56 8d3c
00000150: b443 103e 8aeb 5ebd 3ceb 073e 81fc 5abe
00000160: 84a2 ad3d 0b78 86be c321 063e eea8 5dbc
00000170: 2308 0db9 c8b9 433c c4b9 a5be b651 82be
00000180: c17a 2dbe 4810 8e3d 2bb8 423e f0b5 0abe
00000190: c9fd b8bd d889 b13b 2534 c13d 7be0 813c
000001a0: 9be7 44be 6567 c1bd b7f2 97be 69d4 833d
000001b0: b5a2 c83d 0c7a 86bd 73e4 793c c516 273e
000001c0: 876e eebe 12c1 4f3f 8b39 b2be a834 813e
000001d0: dee8 4abe 8f8b 2fbe 2320 313f bb7c 81be
000001e0: f897 223e 7711 ea3e e3b4 97bb d59e 86bd
000001f0: c56e 26be d8e0 3dbe 952f a63d fd24 9bbd
00000200: 124f e33b 4f51 1dbf 5b64 05bd 7ffd 683e
00000210: 86ad 89bc 83d8 703e 30dd 27be fb9f dc3b
00000220: 0964 433c 153c e73d 3f17 0abe 1d2d 413d
00000230: 92ce 90bd 894d f63d a102 ffbe a909 193d
00000240: 0ee1 023e 6718 5a3d 3783 8d3e b61c a4bb
00000250: 66a1 a53c c1d6 c13e 972b 63be 3317 74bf
00000260: 45d4 ae3c 83b4 8ebd f3f0 8dbd 5cae 18bd
00000270: f3b7 9d3e c3f3 02bf 0d10 cf3d f473 a7bd
00000280: 1288 67be 4892 de3d 2aa8 45bd bfde 9b3d
00000290: 335f 733c 2635 943d a2e7 8e3d 756a 993b
000002a0: 8d38 04be d0a6 5e3e 6e23 723d 1a20 34be
000002b0: 9133 3dbe 67a0 923d 9545 403e f939 043e
000002c0: 06b0 0b3e 0d36 443e 5bb2 e2bd 0a4c 26bf
000002d0: 2921 7a3e bcd1 9b3d 47ca 273e fd18 e43d
000002e0: b934 d43d a933 823e 254b 293e 447d b1bd
000002f0: b943 17be 761b bd3d a069 7b3e 870b 3f3e
00000300: 2e62 403e 8916 53be ccbb 80be c789 81be
00000310: 1159 123e e1f6 683d 4c2d ac3c 8fe9 9b3d
00000320: 6324 7e3d b450 2dbf 7370 783d 5a3f 4bbf
00000330: ab5f 943d f317 e53a 9406 01be dbe2 453e
00000340: 8b0d b8bd 46f8 17be fef9 083e ead0 c13d
00000350: 2991 89bd 4f03 2f3e 5f18 d3bd 85b5 223e
00000360: ed28 a9bd efdc ab3e 6627 adbd f10d 87bd
00000370: 738f 07bd 05d8 adbd 46c3 5e3e 3a00 253e
00000380: 527f c03d b70c 12be 32ea 1dbe eb8a 9abc
00000390: bc36 9c3d 148d 603c 4ded 12be 9c6f 993d
000003a0: 7a02 273e b48a 2b3c 808b 2e3e 1607 aebc
000003b0: 4438 10be b58c f13d 3990 1a3d 5b4e 483b
000003c0: 8034 d23e 3af1 56bf a2f1 b23e 5430 42be
000003d0: 5ad7 093e fe1c 8a3e dea3 30bf 2185 683e
000003e0: 8044 2dbe 661c f2be 815e 15be 4bc2 c13d
000003f0: 7da1 0e3e 9d69 ad3c 3967 e5bd 6dbd 783c
-0.08234449 0.6109119 0.056551013 -0.22111058 -0.031984005 -0.22899143 0.15318714 0.03241782
-0.007753945 -0.11291389 -0.0071226377 -0.0018443255 -0.019274112 -0.025110168 0.4553619 0.048972905
-0.06686151 -0.018476104 -0.33073005 -0.030725516 -0.03985101 -0.48580202 0.24328882 0.9209383
-0.0920866 0.10095799 0.15384722 -0.010346802 -0.2813346 0.48966575 -0.22439328 0.12147971
0.15186958 -0.08801262 -0.09538457 -0.047902808 0.043722633 -0.0727608 0.028523566 0.043431655
0.11415559 -0.08078234 -0.21350797 0.099195056 0.2663718 -0.011729176 -0.19686139 -0.12647833
-0.062185388 -0.2295033 0.08906347 0.5614905 -0.24082999 0.07657465 -0.24288909 -0.1804162
-0.12269979 -0.14163333 -0.09491715 0.0031420416 0.11468558 -0.029523257 -0.29230192 -0.22757438
-0.21200325 0.101287454 0.37768564 0.32827568 -0.06655449 0.07194499 -0.11094094 -0.12322519
0.0052344115 0.6612697 -0.105022915 0.8075001 -0.011334633 -0.024160888 0.045020834 -0.31197643
-0.015206178 0.17174041 -0.11677115 0.017253391 0.14088327 -0.054423846 0.13273329 -0.21385385
0.08478263 -0.2626346 0.13098817 -0.0135290455 -0.00013449839 0.011946149 -0.3236829 -0.25452965
-0.16941358 0.06936699 0.19015567 -0.13545966 -0.09032781 0.0054180436 0.09433774 0.015854111
-0.19228975 -0.09443549 -0.29677364 0.064369984 0.09796659 -0.06566247 0.01525222 0.1631728
-0.465687 0.81153977 -0.34809527 0.25235486 -0.19815394 -0.17143081 0.6918966 -0.25290474
0.15878284 0.4571645 -0.0046297177 -0.065732636 -0.16253193 -0.18542802 0.08114544 -0.07575414
0.006936916 -0.6145219 -0.03256641 0.22752951 -0.016806375 0.23520093 -0.1639297 0.0067329383
0.011925706 0.112907566 -0.1348543 0.047162164 -0.0707065 0.120265074 -0.49806693 0.03736273
0.12781164 0.05324593 0.2763917 -0.0050083054 0.020218562 0.37859157 -0.22184597 -0.953479
0.021341452 -0.06968024 -0.06930723 -0.037275657 0.30804405 -0.511532 0.10110483 -0.08176413
-0.226105 0.10867745 -0.048256077 0.07610845 0.01485424 0.072367 0.06977774 0.00468188
-0.12912197 0.21743321 0.05911582 -0.17590371 -0.18476702 0.071595006 0.18776543 0.1291274
0.13641366 0.19161244 -0.11069175 -0.64959776 0.24426712 0.07608363 0.16385756 0.11137579
0.103616185 0.2543004 0.16532572 -0.08666471 -0.14771928 0.092337534 0.24552011 0.18656741
0.18787453 -0.20614065 -0.25143278 -0.25300428 0.14291789 0.056876067 0.021017693 0.07612907
0.06204642 -0.6770127 0.060654115 -0.7939354 0.0724481 0.0017478451 -0.12600166 0.1932482
-0.08986958 -0.14840803 0.13376614 0.09463675 -0.0671714 0.17091106 -0.10307383 0.15889557
-0.08259759 0.33566996 -0.0845478 -0.06594456 -0.03309579 -0.08488468 0.21754178 0.16113368
0.093992844 -0.14262663 -0.1542137 -0.01886507 0.07627627 0.013705511 -0.14348336 0.07491991
0.16309538 0.010470081 0.17045403 -0.021243613 -0.14083964 0.11794416 0.037735198 0.0030564282
0.4105568 -0.8396183 0.34949976 -0.18963748 0.13461056 0.26975244 -0.6900004 0.22707035
-0.16920662 -0.4728729 -0.14586832 0.094608866 0.1392879 0.021168524 -0.11201329 0.015181881

fc2.bias f4 [128]
00000000: 5b51 0cbe 31d1 693e 14e1 6e3e 9ed9 6bbe
00000010: f928 6dbe 75c8 83be 7278 7fbe 7ed0 2b3e
00000020: ca5d 68be d2c2 81be 824c 29be c942 83be
00000030: 7f3b 6fbe caf6 123e 72d1 1b3e c89f 77be
00000040: 0c62 38be fade 69be 7120 623e bd1f 8e3e
00000050: 24ce 3cbe 2f1a 843e fe0e 803e 24fa 883e
00000060: 5cf8 4c3e a07c 7d3e c4ff 90be e011 86be
00000070: 280f 9bbe e5f4 3f3e efd6 0d3e 0058 763e
00000080: cb10 89be 2310 5a3e 94b6 983e 341f 733e
00000090: 5b32 423e 63f1 3b3e 31ac 2d3e 2459 71be
000000a0: 9e21 0d3e 880f 95be 7db7 993e ce48 62be
000000b0: b365 51be 46d2 193e 605a 923e 2c2b 483e
000000c0: 04fb 7a3e 076b 6dbe e1d7 65be 15ca 603e
000000d0: b5f0 7bbe e1f4 403e c6d8 8e3e 3ad6 9bbe
000000e0: f56e 9ebe fd5f 54be 2681 6f3e 563b 663e
000000f0: 6725 633e 7bf0 563e ef24 93be 8d6d 9cbe
00000100: 07a4 7f3e f7e4 893e 0b41 363e d992 2f3e
00000110: 1202 1ebe 1bde 843e 79ee 8abe 3fdf 853e
00000120: 629d 203e 3b71 833e 1aa2 56be 4b76 733e
00000130: 6ada 833e 7b51 11be 1233 953e 8827 89be
00000140: a43b 923e 9045 83be 5187 8d3e 7ee5 5fbe
00000150: 8a75 4a3e ffa1 08be 2f31 7e3e 622b 813e
00000160: c508 6c3e 7d37 2d3e ffce 2dbe e9f2 93be
00000170: 1024 933e d8e6 4e3e 5630 8f3e f151 5a3e
00000180: b424 3d3e 432b 6cbe 754a 273e 7e2e 8dbe
00000190: 685d 94be 0504 9e3e 86a4 723e a83b 473e
000001a0: 37f8 94be 089c 433e 21b6 813e 0453 2d3e
000001b0: c3cc 93be 8281 1f3e 6aa7 893e d07a 86be
000001c0: 08be 793e db8b 29be 6b90 42be b2a9 173e
000001d0: 8c81 443e ab4c 733e 4970 1d3e 292f 3a3e
000001e0: a0de 8f3e 1600 923e ddb0 97be bda4 60be
000001f0: ccfe 23be 8ea5 6bbe f82f 933e c545 813e
-0.1370291 0.22833706 0.23328048 -0.23032233 -0.23160161 -0.25738874 -0.2494829 0.16778752
-0.22692028 -0.2534395 -0.16533092 -0.2563689 -0.2336254 0.14351955 0.15216616 -0.24182045
-0.18006152 -0.22838965 0.22082688 0.2775859 -0.18438011 0.25801226 0.25011438 0.26753342
0.20016617 0.24754572 -0.28320134 -0.26185513 -0.30285 0.18745764 0.13851522 0.24057007
-0.26770625 0.21295218 0.29826796 0.23742372 0.18964522 0.183538 0.16960217 -0.2356916
0.13782355 -0.29113412 0.30022803 -0.22098085 -0.20448951 0.15021619 0.28584576 0.19547719
0.24509817 -0.23185359 -0.22445633 0.21952088 -0.24603541 0.18843414 0.2789976 -0.3043688
-0.30944028 -0.20739742 0.2338911 0.22483572 0.22182237 0.20990174 -0.28739116 -0.3055233
0.24964915 0.269325 0.1779825 0.17145862 -0.15430477 0.25950703 -0.27135065 0.26146886
0.15685037 0.25672325 -0.20960274 0.23775594 0.25752574 -0.14191239 0.29140526 -0.26787972
0.28561127 -0.2563901 0.276423 -0.21864888 0.197714 -0.13343047 0.2482345 0.2522841
0.2305022 0.16915698 -0.16973494 -0.28896263 0.2873845 0.20205247 0.27966565 0.2132032
0.18471032 -0.23063378 0.16336997 -0.27574533 -0.28977513 0.30862442 0.23695573 0.19456351
-0.29095623 0.1910249 0.25334266 0.16926199 -0.28867158 0.15576747 0.2688554 -0.26265574
0.24388897 -0.16557257 -0.19000404 0.14810827 0.19190043 0.23759715 0.15374865 0.18182053
0.28099537 0.2851569 -0.29627123 -0.21937843 -0.16015166 -0.23012373 0.28747535 0.25248542

fc3.weight f4 [128, 128]
00000000: 905d febd 1b85 553e 4f4e 943e ad65 50be
00000010: f2c3 06be 25a1 60be 7323 7cbe 7d09 193e
00000020: acb9 61be f8a2 13be 2139 91be 5067 f1bd
00000030: 6d13 3fbe 035f 063e 4a96 903e 7411 6bbe
00000040: 9c8a febd 7284 42be 9428 113e c5b4 363e
00000050: 2c93 95be 820d 213e c92d 823e 453a 973e
00000060: a2c8 393e 5a27 9b3e c611 6dbe 949b 15be
00000070: ec05 75be a607 913e 64d5 763e 523b 8f3e
00000080: 75af 81be 5d4c 6d3e 9336 863e 2798 613e
00000090: 671a 2d3e 7236 793e 01b6 493e 66ff 6cbe
000000a0: 9f3c 433e 67f2 8fbe 71c4 6d3e 1955 76be
000000b0: 77a9 92be 967d 483e 24a9 2d3e 75b3 183e
000000c0: df14 0d3e 9237 91be f76e 23be a108 333e
000000d0: a7b9 79be 0efb 913e 9a88 823e ad4c 09be
000000e0: c527 80be 5340 15be 516e 083e 1380 263e
000000f0: 1ebf 8e3e fe46 4b3e 5b45 0ebe 1203 5dbe
00000100: 2b22 423e 0dfd 183e 5065 073e 1f58 923e
00000110: b00a 95be 9ee0 853e 4966 34be a6a9 5a3e
00000120: 1c08 873e ae3e 373e 7bd4 5abe 0333 823e
00000130: e39a 2c3e eb70 8fbe 0b67 473e 530e 4cbe
00000140: e128 383e cfcc 83be b922 103e 040c 6ebe
00000150: 3920 3f3e 1d6d 36be ce8b 483e af02 013e
00000160: 24d1 8a3e a4e1 893e 8137 96be d66a 57be
00000170: 7886 8d3e c53c 683e 00b0 3d3e 953e 2e3e
00000180: 45d7 933e b713 5dbe 4290 373e 8979 3fbe
00000190: d672 15be 870c 993e 5962 823e 81fe 683e
000001a0: 8212 06be e257 063e b032 9c3e 54b4 3b3e
000001b0: cb69 37be a50c 353e cde8 5d3e 4c05 9cbe
000001c0: d71e 4b3e 231c 84be e38f 7bbe 97f4 143e
000001d0: 94fd 813e 9a38 973e bc88 223e 28c5 873e
000001e0: 0af0 733e 6071 983e 576b 86be f489 70be
000001f0: 3afd 2ebe 4135 90be 63ec 2d3e 85f3 6b3e
00000200: ba6a 78be 520b 7d3e e196 683e 96dc 95be
00000210: a538 73be a60e 43be cf83 81be 0d9d 133e
00000220: 5351 83be c804 01be 429a 6fbe ffab 1fbe
00000230: eefe 68be cba6 5a3e 6972 8b3e f7b5 92be
00000240: dd6a 66be 123a 8fbe c2a9 343e 1058 903e
00000250: 08c8 91be ee0f 893e 60a6 603e ee36 5e3e
00000260: beaf 743e c71b 613e eb1e 0cbe be52 92be
00000270: 0d27 80be b68e 883e b894 843e dfba 8e3e
00000280: fae2 8cbe 6cd9 2a3e 5de4 483e e797 943e
00000290: dd85 253e c86c 423e a6bc 513e 4646 5fbe
000002a0: 4037 253e 73ac e2bd c30b 463e 49dc 7bbe
000002b0: d9bf 40be 4a2c 4f3e 7b16 543e da68 513e
000002c0: 95e9 663e 2e97 6abe 0b62 91be bac3 9a3e
000002d0: 119d 1cbe e3da a33e d559 1b3e d661 7ebe
000002e0: ea45 2fbe d54a 46be cad1 493e 2947 853e
000002f0: dc39 8a3e a9af 5b3e bb52 5abe fc9a 82be
00000300: 3e25 0c3e ed7d 6e3e ae57 5e3e 78f2 7d3e
00000310: 3115 8bbe 662a 783e 637e 29be 7004 fc3d
00000320: 44d5 5c3e 5458 1f3e 89ed 34be cd24 6d3e
00000330: 400e 593e bc9c 92be 030a 883e 1050 0fbe
00000340: bdf8 753e 45e2 59be abe9 0e3e 4840 9bbe
00000350: 125f 0f3e d549 19be 879c 733e e6e3 893e
00000360: 540c 293e fd95 513e 66c6 f9bd 9f6e 84be
00000370: 48c2 633e 4fbf 8b3e 7c83 873e 8594 913e
00000380: d577 4c3e ab4e 47be d4cd 313e a964 45be
00000390: 1ac7 8ebe 8e11 593e 8800 7c3e 411c 3d3e
000003a0: 7423 65be f48f 533e e651 6d3e 2832 4d3e
000003b0: 5aad 0ebe 2c14 083e bef6 263e 0301 87be
000003c0: 419c 6c3e fbc7 81be d6a5 80be 3f3e 913e
000003d0: ba25 813e 3743 5d3e 1c67 743e d3a0 383e
000003e0: d2a7 303e af4f 943e 14a7 2bbe abb1 96be
000003f0: cc71 13be f2e7 69be 1623 943e 9395 3d3e
-0.124201894 0.20851557 0.28965995 -0.20351286 -0.13160685 -0.21936472 -0.24622898 0.14945026
-0.22043484 -0.14417636 -0.28363898 -0.117872834 -0.18659754 0.13122182 0.2823966 -0.22955877
-0.124287814 -0.18995836 0.14175636 0.17842396 -0.29213846 0.15727809 0.25425556 0.29536644
0.18142942 0.3030346 -0.23151311 -0.1461013 -0.2392804 0.28326148 0.2410484 0.27974945
-0.25329176 0.23173662 0.26213512 0.22030698 0.16904603 0.24337175 0.19698335 -0.23144302
0.19066094 -0.28114626 0.23219468 -0.240559 -0.28644916 0.19579157 0.16959053 0.14912207
0.13777493 -0.2836271 -0.15960298 0.1748376 -0.24387227 0.28511852 0.25494844 -0.13408156
-0.25030342 -0.14575319 0.13323332 0.16259794 0.27880186 0.198513 -0.13893645 -0.21583202
0.18958347 0.14940281 0.13222241 0.28582856 -0.29109716 0.26147932 -0.17617144 0.21353778
0.26373374 0.17895004 -0.21370117 0.25429544 0.1685596 -0.28015837 0.19472902 -0.1992734
0.17984344 -0.25742194 0.14075746 -0.23246771 0.18664636 -0.17815061 0.19584581 0.1259868
0.27112687 0.26929963 -0.2933922 -0.21036848 0.27641654 0.22679432 0.1852417 0.1701606
0.28875175 -0.21589552 0.17926124 -0.18698706 -0.14594588 0.2989237 0.25465658 0.22753336
-0.13092998 0.13119462 0.30507421 0.18330508 -0.1791145 0.17680605 0.21670838 -0.3047279
0.19835983 -0.25802717 -0.24566607 0.14546429 0.25388777 0.2953537 0.15872473 0.26517606
0.23822036 0.29773998 -0.2625377 -0.23490125 -0.17088786 -0.2816563 0.16984706 0.23042114
-0.24259463 0.2471135 0.22713806 -0.29269856 -0.23752077 -0.19048557 -0.25295874 0.14415379
-0.25647983 -0.1259948 -0.23398688 -0.15592955 -0.22753498 0.21352689 0.27235726 -0.28654453
-0.22501703 -0.27973992 0.17642882 0.28192186 -0.28472924 0.26769966 0.21938467 0.21700642
0.23895165 0.21983252 -0.1368367 -0.28578752 -0.25029793 0.2667138 0.25894713 0.27876946
-0.2751692 0.16684502 0.19618364 0.29022142 0.16164346 0.18986809 0.2048212 -0.21804151
0.16134357 -0.11068048 0.19340424 -0.24595751 -0.18823184 0.20231739 0.207117 0.20450154
0.22550042 -0.22909233 -0.28395113 0.30227453 -0.15294291 0.32002935 0.15170987 -0.24842009
-0.17116514 -0.19364484 0.19708934 0.26030853 0.26997268 0.21453728 -0.21320622 -0.2550887
0.13686082 0.23290224 0.21713135 0.24799526 -0.27164605 0.24234924 -0.16552119 0.12305534
0.2156573 0.15561038 -0.17668737 0.2315857 0.21196842 -0.28635204 0.26570138 -0.13995385
0.24020667 -0.21277721 0.13956325 -0.3032248 0.1400111 -0.14969571 0.23790179 0.26931685
0.16508609 0.20467372 -0.121960446 -0.25865647 0.22242081 0.27294394 0.26467502 0.28433624
0.19967587 -0.19463603 0.17363673 -0.1927668 -0.27886277 0.21198103 0.24609578 0.1846781
-0.22376806 0.20660383 0.23175773 0.20038664 -0.13933316 0.13288945 0.16305062 -0.2636796
0.23106481 -0.25347885 -0.25126523 0.28367803 0.25224096 0.21607672 0.23867458 0.180301
0.17251518 0.28967044 -0.16762954 -0.29432425 -0.14398879 -0.22842386 0.28933018 0.1851409

fc3.bias f4 [128]
00000000: 22a1 203e 6ed0 8b3e 999e 463e 2559 03be
00000010: 7bcb 76be 4e1c 67be 86f4 66be a553 40be
00000020: b10b 5dbe 24c7 80be eccc 3cbe 9b92 7c3e
00000030: fc2c d8bd 5602 893e 02ac 893e 919a 5bbe
00000040: 75b9 63be 400f 8b3e db71 88be f187 4a3e
00000050: fd48 233e 8908 193e af67 2cbe 3339 83be
00000060: 20c4 6bbe 448b e7bd b3da 883e f619 4abe
00000070: d665 073e 7ec8 47be 548b 183e 65e8 3c3e
00000080: aa68 49be 75b0 e53d 79c8 873e 486f 763e
00000090: db2a 033e 6f65 16be e03b 55be 54e0 67be
000000a0: 9b88 7c3e ef34 ed3d 4334 d03d 3b46 663e
000000b0: 67b1 213e 85e3 673e d06e e7bd 14ba 4f3e
000000c0: 6188 4bbe 1a29 cd3d 4efc 873e b7f2 e63d
000000d0: a24e debd c5c2 593e cb7a c03d 526a 3d3e
000000e0: 61d0 513e 0c5b 42be be1f fa3d be41 353e
000000f0: eda6 43be 2c47 3d3e c1d6 5cbe 2ccb 68be
00000100: 4517 6bbe b790 773e dfa8 3a3e a8b6 61be
00000110: 0688 2d3e bc63 ecbd 8a9a 4bbe 6a38 7d3e
00000120: 65ab f83d 7f03 893e 8ea3 39be a096 7c3e
00000130: 0ec1 50be d898 733e 919d 7a3e 1b48 6ebe
00000140: ff73 21be d907 023e 808c 1bbe 15f3 35be
00000150: 6d54 70be 95e2 063e 8c0a 263e a13a f13d
00000160: 1a89 2bbe d6eb 8b3e 41bc 4a3e cdd0 45be
00000170: 222b eabd 01cd 67be 7eac 553e 98f3 3d3e
00000180: 58f3 e3bd e351 69be 5b07 67be 96ba 30be
00000190: 53c7 4a3e 1d9a 56be e56a 74be 8bfc 1ebe
000001a0: 064f e1bd a6f9 303e c39a 72be 054e 5e3e
000001b0: 3b7e 0f3e 0b6c 02be 8ced 643e 4f35 2d3e
000001c0: 7a27 f93d 916b 803e d58b 173e 5d5f 693e
000001d0: 9199 88be e753 2cbe 6459 84be fe5c 74be
000001e0: 576a c9bd 4cba 5b3e 851e 873e 72e1 863e
000001f0: 22b0 5abe 1650 6bbe 1711 013e 1dde 0f3e
0.15686467 0.27307457 0.19396438 -0.12826975 -0.24101059 -0.22569391 -0.22554216 -0.18781908
-0.21586491 -0.25151932 -0.18437546 0.246653 -0.10555455 0.26759595 0.26889044 -0.21445681
-0.22238715 0.27160072 -0.26649365 0.1977842 0.15945812 0.14944662 -0.16836427 -0.25629577
-0.23024035 -0.1130586 0.26729354 -0.19736466 0.13222441 -0.19510075 0.148969 0.18448026
-0.19668832 0.11215297 0.26520136 0.24065888 0.12809317 -0.14687131 -0.20823622 -0.22644168
0.24661486 0.11582362 0.10166218 0.22487728 0.1579033 0.22645386 -0.11300433 0.20285827
-0.19876243 0.10017605 0.2655968 0.11276763 -0.10854842 0.21265705 0.09398421 0.18497589
0.20489646 -0.18980044 0.122130856 0.1770086 -0.19106646 0.18484181 -0.21566297 -0.22733754
-0.22958095 0.24176298 0.18228482 -0.22042334 0.1694642 -0.1154246 -0.1988317 0.24728552
0.12142066 0.2676048 -0.18128797 0.24666834 -0.20386145 0.23788774 0.2447417 -0.23269694
-0.15766905 0.12698306 -0.15190315 -0.1776851 -0.23469706 0.13172372 0.16214961 0.11778761
-0.16751519 0.27328366 0.19798376 -0.19317932 -0.11434008 -0.22636797 0.20866582 0.18549955
-0.111303985 -0.22785144 -0.225614 -0.17258677 0.19802599 -0.20957227 -0.23868902 -0.15526025
-0.11001401 0.17282733 -0.2369185 0.2170945 0.14012997 -0.12736528 0.22356242 0.16914867
0.12165733 0.25082067 0.14799435 0.22790284 -0.26679662 -0.16828881 -0.2584945 -0.23863599
-0.09834736 0.21457785 0.26390472 0.26343876 -0.21356252 -0.22979769 0.12604176 0.14049573

fc4.weight f4 [32, 128]
00000000: 0cc5 85be 81cd 10be d5ae 3bbe 0d71 173e
00000010: 4754 3b3e 916f 813e 70f3 813e 9391 6d3e
00000020: 1b07 eb3d 804c 273e f5f8 733e bdc5 36be
00000030: 430c 423e 39f6 66be af32 93be d320 6f3e
00000040: 7dfa 7e3e 941c 53be 127e 963e 09ad 48be
00000050: 32b8 4ebe 54d5 78be 9607 7a3e 6cd9 6f3e
00000060: 66d7 953e f137 543e 8b71 8ebe 50da 4c3e
00000070: 9619 79be 3b22 7d3e e19b 7fbe c5b0 64be
00000080: 56f4 993e 7cdc 32be d510 94be 3e47 4dbe
00000090: 9b22 60be d2e3 0e3e 59e6 5b3e c0b4 533e
000000a0: 574b 5bbe 9cb4 38be 7615 98be f29e 73be
000000b0: 32e9 78be 4a24 60be 546f 8c3e cab8 8fbe
000000c0: 4089 0a3e e414 08be 3f68 4ebe 84ad 4fbe
000000d0: d1d8 753e 345a 89be da29 94be 9111 42be
000000e0: 30c3 37be e333 633e 9c17 fcbd 705a 85be
000000f0: fad3 7f3e 3ab9 30be ae57 8f3e 1fc9 293e
00000100: 9ce2 623e bc2f 3cbe dd0f 73be 706a 8a3e
00000110: 968f 4bbe 2742 6c3e dd06 303e f32e 96be
00000120: c2a8 4abe 83b4 24be 4de6 2e3e e2fc 92be
00000130: ca39 293e 1008 19be e84b 5dbe fbfe 073e
00000140: cbc0 943e df96 53be e588 5d3e 2ab8 893e
00000150: 42ab 653e a19d ebbd 4a6f 88be 5e79 20be
00000160: bb80 893e ffd8 99be 5c71 68be 8d99 813e
00000170: b868 833e f4c8 8e3e eb07 99be 1fb8 1bbe
00000180: 9957 533e 7be8 803e ae57 8b3e e83b 8c3e
00000190: cd37 50be 4daf 733e 3e56 573e 80d1 3b3e
000001a0: 5ef1 413e 524a 89be 9b56 963e 774a 1cbe
000001b0: 0e20 67be 7b8f 123e 4409 29be 4bea 3bbe
000001c0: acb2 58be 2a2a 91be 33ab 0bbe e7db 87be
000001d0: e815 953e 5bb2 043e b3b4 423e 695a 903e
000001e0: 2ede 823e 836a 73be 6735 27be 0dc9 21be
000001f0: 79fa 053e 44c0 503e 71c5 f4bd 89e0 55be
00000200: 129f 0c3e 7d9e 033e a31a 823e edd2 91be
00000210: c9b1 84be 0741 30be e840 88be 5489 8bbe
00000220: 7166 23be ce98 61be 7a55 2ebe 2118 7f3e
00000230: 365b 2abe 3d97 863e 2b41 903e b225 72be
00000240: 4174 98be fefc 273e d84c 4dbe 2f8f 373e
00000250: 0f27 053e 3134 313e 3786 04be e29b 75be
00000260: ccc1 6abe f1a3 88be 72c6 983e 9336 1cbe
00000270: 6c04 963e b979 50be 2e1d 0b3e 253d 603e
00000280: c154 64be c439 2a3e cb16 8a3e 3dad 6e3e
00000290: 604d 773e 696c 54be 579f 50be 4ce0 35be
000002a0: 6cd5 643e 8708 743e 37a5 8c3e 7c71 653e
000002b0: 6cc5 703e 6189 643e 4cdf 8ebe 9f7c 433e
000002c0: 5232 68be 6fc1 0e3e 7b52 2f3e e82f 7a3e
000002d0: 35f1 20be d672 5b3e fe00 903e 2b12 983e
000002e0: d441 7d3e a7a3 8ebe 92fc 903e 18a6 193e
000002f0: 2b79 82be eb56 713e 20df 73be cc61 2bbe
00000300: 5d89 97be e364 873e 3913 5d3e 0288 2fbe
00000310: 52f6 733e e2b9 32be 9b46 96be 9744 863e
00000320: 3bb7 893e ae57 223e 4781 75be 0848 033e
00000330: 1c82 88be 5451 423e edc3 8e3e a1eb 82be
00000340: 2dea 94be 3a25 803e 98f3 18be a701 37be
00000350: 6902 97be 5a0f 5c3e 6e79 443e 56e3 213e
00000360: 7273 25be a6c2 763e b0c7 193e 122c 62be
00000370: c00e 7ebe 893f 70be 9e6c 713e ee48 323e
00000380: 7d64 bcbd 2f52 92be 802a 11be 9c1c 97be
00000390: 5c8c 5a3e 4aa9 83be cf15 88be a8a7 8cbe
000003a0: b1d6 44be e7ab 863e 3934 8bbe 18be 4d3e
000003b0: b4a5 3a3e 9f56 57be 2d75 6d3e 8f98 4b3e
000003c0: 3953 253e 2445 093e fcac 363e 4c2d 2e3e
000003d0: 8a2a 2fbe 86c8 34be 017e 72be 4521 5ebe
000003e0: 9fcc 83be 094f 5a3e 60c8 3c3e 0825 473e
000003f0: 175e 7abe c5a8 50be 3c0e 863e 19b5 7f3e
-0.26126897 -0.14140894 -0.18328412 0.14789219 0.18293868 0.2528043 0.2538104 0.23200063
0.11475965 0.16337776 0.23825438 -0.17848869 0.1894999 -0.22554864 -0.28749606 0.23352365
0.24900241 -0.2061637 0.2939306 -0.19597258 -0.20187452 -0.24300128 0.24416956 0.23422784
0.29265898 0.20724465 -0.27821 0.20005155 -0.24326167 0.24720089 -0.24961807 -0.22333057
0.30069226 -0.1746692 -0.28919092 -0.20046708 -0.21888201 0.13954094 0.2147459 0.2067442
-0.21415459 -0.18037647 -0.29703873 -0.23791102 -0.24307707 -0.21888843 0.27428687 -0.2807067
0.13528919 -0.13289219 -0.20156954 -0.20281035 0.2400849 -0.26826632 -0.2893818 -0.18952014
-0.17945552 0.22187762 -0.12309191 -0.2604556 0.24983206 -0.17258158 0.27996582 0.16580628
0.22156757 -0.18377584 -0.2373652 0.2703433 -0.19878992 0.2307211 0.17190118 -0.29332694
-0.19790938 -0.16084485 0.1708004 -0.2870856 0.16525951 -0.14944482 -0.21610987 0.13280861
0.2905334 -0.20663022 0.21634252 0.2689832 0.22428611 -0.11504675 -0.26647407 -0.15671298
0.26856026 -0.30048367 -0.22699493 0.25312462 0.25665832 0.2788769 -0.29888853 -0.15206955
0.20638885 0.2517737 0.27215332 0.27389455 -0.20333786 0.2379734 0.21028993 0.18341637
0.1893973 -0.26814514 0.2936295 -0.15262781 -0.22570822 0.14312546 -0.16507441 -0.18351094
-0.21161908 -0.2835248 -0.13639526 -0.2653496 0.29118276 0.12958662 0.19014244 0.28193977
0.25560135 -0.237711 -0.16328965 -0.15799351 0.13083829 0.20385844 -0.119517215 -0.20886435
0.13732556 0.12853427 0.25410947 -0.28481236 -0.2591689 -0.17212306 -0.2661202 -0.2725321
-0.15957047 -0.22030947 -0.17024794 0.24911548 -0.16636357 0.2628726 0.2817472 -0.23647192
-0.29776195 0.16405103 -0.20048845 0.17925714 0.13003181 0.17305066 -0.12941824 -0.23985246
-0.2292549 -0.26687577 0.29838902 -0.15255193 0.2930025 -0.20358934 0.1358535 0.21898325
-0.22297956 0.16623598 0.26970515 0.23308273 0.2415061 -0.2074448 -0.20373283 -0.17761344
0.22347039 0.23831378 0.274698 0.22406572 0.2351281 0.22318031 -0.27904737 0.19090508
-0.22675446 0.13940977 0.17121308 0.24432337 -0.15717013 0.21430525 0.28125757 0.2970136
0.24732143 -0.27859232 0.28317696 0.15004766 -0.2548307 0.23568313 -0.23815584 -0.16736525
-0.29596987 0.26444158 0.21589364 -0.17141727 0.23824432 -0.17453721 -0.29350743 0.26224205
0.26897606 0.1585376 -0.23975097 0.12820446 -0.26661766 0.18976337 0.27883855 -0.25570396
-0.29084912 0.25028402 -0.14936674 -0.17871724 -0.29494026 0.21490231 0.19186947 0.15809378
-0.1615732 0.2409769 0.15017581 -0.22087124 -0.24810314 -0.23461737 0.2357659 0.17410633
-0.09198854 -0.28578326 -0.14176369 -0.29514015 0.21342605 -0.25715095 -0.2657914 -0.27471662
-0.19222523 0.26303026 -0.2718828 0.20092046 0.18227273 -0.21029137 0.2318923 0.19882415
0.16145028 0.13405281 0.17839426 0.17009467 -0.17106071 -0.17654619 -0.23680879 -0.21692379
-0.2574205 0.21319212 0.18435812 0.1944772 -0.24449955 -0.2037688 0.26182735 0.24971427

fc4.bias f4 [32]
00000000: 1e01 fdbd 1de3 0f3e 42e7 56be 51d8 28be
00000010: a519 7a3d 1d8b f53d a54c bfbd 02d1 bb3d
00000020: d25b 41be 2545 953d 4e65 f63d 29d7 563d
00000030: 04ea ec3d 9235 66be 5012 5e3e 852e 0cbe
00000040: c03d 0b3e 6a5d 8f3d 498b c2bc b906 af3d
00000050: a90c 22be 725d 423e 38a0 033e 04c1 633e
00000060: 2ed5 05be 5b81 66be 2cf9 4e3e e569 4b3e
00000070: d7d1 05be 04a6 04be 96ad f7bd 98fb 48be
-0.12353729 0.1405148 -0.20986655 -0.16488768 0.061059613 0.119894244 -0.09340791 0.091707245
-0.18882683 0.07288579 0.12031041 0.052451286 0.115680724 -0.22481373 0.21686673 -0.13689621
0.13597775 0.07000239 -0.023748057 0.08546204 -0.15825142 0.18980959 0.12854087 0.22241598
-0.13069603 -0.22510283 0.20212239 0.19864614 -0.13068329 -0.12953955 -0.12093656 -0.19627225

output.weight f4 [1, 32]
00000000: 0ccd c4be 6785 a73e 1cb8 96be 6f8c aabe
00000010: 5a95 b73e 73f6 8b3e 65cc 99be 1b59 a03e
00000020: 97cf 92be 67db 9c3e 9abe 933e 4f20 c73e
00000030: 7566 b43e de8b 8fbe 921b 863e ce63 9cbe
00000040: 3c09 b23e 4691 c73e abde aabe 3ade 8a3e
00000050: 7017 80be 1176 733e 47a3 bc3e b4ef 873e
00000060: deb6 bfbe e8da 8ebe a1d7 a43e c9f3 873e
00000070: 7b95 a9be d3f7 69be 775c 98be 03f8 85be
-0.38437688 0.32718965 -0.2943734 -0.33310267 0.35856134 0.27336463 -0.30038753 0.31317982
-0.28674003 0.3063614 0.28856355 0.38891837 0.3523442 -0.28036398 0.2619291 -0.30544895
0.3477267 0.38978022 -0.33373007 0.2712267 -0.2501788 0.23775508 0.3684332 0.26550066
-0.37444204 -0.27901387 0.32195762 0.2655318 -0.33121857 -0.22848444 -0.29758045 -0.2616578
