result/vis/921/10000/Train_921_under_10000_128_128_64_0.0004_64_5_5.pth (torch, 176127 bytes, 9 tensors)

fc1.weight f4 [128, 13]
000000 a7 88 65 3e 0f 7a 9b bd 50 4e 5c bd e8 51 14 be
       0.2241541 -0.0759164 -0.053785622 -0.1448437
000010 9a 56 95 be 0f 7c 19 3e 45 e5 f1 bd 5d ab 04 3e
       -0.29167634 0.14988731 -0.11811308 0.12955995
000020 0f e5 75 3e 59 9f a3 3d 51 00 c1 3c d3 41 0d 3c
       0.2401316 0.079893775 0.023559721 0.008621651
000030 bc 08 78 3d e9 0f 30 be e4 44 34 39 dd 6e be 3c
       0.060555205 -0.17193569 0.00017191801 0.023246223
000040 9e 22 03 3f 0a e7 f2 3d ea 50 35 3e 4f 74 85 3d
       0.51224697 0.118604735 0.17706648 0.06516325
000050 ba 3b 7d bd 37 07 0c bf f2 77 0c be 80 25 91 3c
       -0.061824538 -0.5469851 -0.1371763 0.017718077
000060 1f 20 d7 bd d1 5a e1 3a 70 a8 3c 3e f6 40 3a 3e
       -0.105041735 0.0017193203 0.18423629 0.18188843
000070 08 69 9f be 27 f6 05 3e 3c 0d 3e 3d fe b3 b0 3e
       -0.3113482 0.13082181 0.04639934 0.34512323
000080 09 97 58 3e de 68 26 be 3c cf ad 3e d9 e8 2d be
       0.21151365 -0.16250941 0.3394717 -0.16983356
000090 ee f4 82 3e af 37 f7 3d 41 64 3e 3e 6f 86 31 be
       0.25577492 0.12071168 0.18592931 -0.17336439
0000a0 d1 31 61 3d 93 e0 de 3c ef cf 30 3f a8 98 12 3e
       0.05497915 0.027206695 0.6906728 0.14316046
0000b0 55 fa 1d be b1 f6 3b 3e d4 c3 26 bc 63 a1 90 be
       -0.15427525 0.18355824 -0.010178525 -0.28248128
0000c0 ff 73 0e be 02 71 09 3e 14 26 77 be 0a 03 02 be
       -0.13911436 0.13422015 -0.2413562 -0.12696472
0000d0 0f 5c 67 3e fa 9a c3 bc cc ef 8f 3e 67 3f 18 3d
       0.22593711 -0.02387761 0.28112638 0.03716984
0000e0 85 9b 09 bc fe 61 2d be e5 d0 15 3e c4 15 95 3d
       -0.008398895 -0.16931912 0.14630468 0.07279542
0000f0 cb 05 64 bd 2c 08 9a 3e 0e f5 10 3e 4d d1 8b 3e
       -0.055669587 0.3008436 0.14155981 0.2730812
000100 67 95 28 be 72 7b 42 3d 61 2a 2b 3d d4 98 1b 3d
       -0.16463242 0.047481008 0.041788463 0.037987545
000110 14 98 06 bf 33 be 6b be a3 47 fc 3d 95 14 09 be
       -0.525758 -0.23021774 0.12318351 -0.13386758
000120 1f af f9 3d dc c2 72 3e 2f fa 66 3e b3 75 b9 ba
       0.12191605 0.23707145 0.22556375 -0.0014149457
000130 76 2a a6 3d 43 60 a5 3d 93 8d ae be 0c 09 b0 3d
       0.081135675 0.08075001 -0.34092388 0.085954756
000140 b9 af 53 be af 03 68 3d 35 29 1d 3d c1 f4 0d bd
       -0.20672502 0.056644138 0.038369376 -0.034657244
000150 20 cd 64 3e 83 f6 18 be 10 20 d7 be 09 76 9e 3d
       0.22343874 -0.14937787 -0.4201665 0.07737357
000160 79 35 13 3c a9 fb 27 3e 0d 1b 09 3e f8 80 97 be
       0.008984917 0.16404594 0.13389225 -0.29590583
000170 e2 03 e5 bb c2 04 5c 3d 7e 3a 70 3d 11 94 f0 bd
       -0.0069889883 0.053715475 0.058649532 -0.117469914
000180 e0 90 c4 3d 15 70 c1 3d 99 d8 f0 bd 5c 13 81 be
       0.09597945 0.09445206 -0.11760063 -0.25210083
000190 26 52 07 3e 24 d8 55 bc d9 6a 20 3e d1 d8 19 3e
       0.13214931 -0.01305202 0.15665759 0.15024115
0001a0 12 6d b1 bd 60 0f b1 be 92 8b a9 3e ca bb 3c be
       -0.08663382 -0.34582043 0.33114296 -0.18431011
0001b0 38 32 49 3e 40 33 a1 3d e0 e8 29 3d 32 30 67 3e
       0.19648063 0.07871103 0.041481853 0.22576979
0001c0 4c ea e6 3e 38 69 5e bd 88 14 89 3c 09 93 7c 3e
       0.4510063 -0.054299563 0.016733423 0.24665464
0001d0 e7 94 49 3e b7 70 a1 3e 4b fe 2a be 02 0f 52 be
       0.19685708 0.31531307 -0.16698568 -0.20513538
0001e0 18 ca b6 be 41 5a a3 3d 91 11 9b 3e c0 a5 e4 bd
       -0.3570106 0.07976199 0.3028684 -0.11164427
0001f0 bf 0f 16 3e 12 72 2e 3d 0b 94 b2 bd 63 7f 44 bd
       0.14654444 0.042589255 -0.08719643 -0.047973048
000200 d7 d3 81 3e 37 5a 6a 3e dd 37 16 be 3f 46 16 3e
       0.25356933 0.22885977 -0.14669748 0.14675234
000210 89 06 8a 3e 73 8c 51 3d 6d ec e7 3d 10 d4 69 3e
       0.2695811 0.051159333 0.113243915 0.22834802
000220 81 ea b1 3d e4 e3 1d 3e 2b 7c ad 3e 8f c0 8a be
       0.08687306 0.15418965 0.33883795 -0.27100036
000230 65 5f 16 be df 45 8b 3d ec ec 17 be 46 a4 54 3e
       -0.14684828 0.06800436 -0.14836472 0.2076579
000240 bd 59 0c 3e c9 11 f5 3b 1c cf 32 be c4 c8 99 3d
       0.13706107 0.007478927 -0.17461818 0.07508996
000250 b3 2f 38 3e 58 6f ed 3d 87 77 97 bd 3a 6f e0 3e
       0.17986946 0.11593503 -0.07395845 0.4383486
000260 ba 9b e2 3d cb 82 41 bd 9b 05 8f be 3b 93 50 be
       0.11064859 -0.047243875 -0.27933964 -0.20368664
000270 45 c2 7d be b8 84 26 be 0e 3f 3b 3e 48 ac 29 3e
       -0.24781139 -0.16261566 0.18285772 0.16569626
000280 2c 88 3d be 16 00 fd 3d 37 df fe 3d b4 dd 27 3e
       -0.18508977 0.12353532 0.124449186 0.16393167
000290 06 51 b1 be a2 2a 88 bd f2 d2 7f bd 42 49 39 bd
       -0.34632128 -0.066487566 -0.062457033 -0.04523588
0002a0 6e 96 65 be 3d 81 34 bd 11 8d 15 bd f0 2f 04 3e
       -0.22420666 -0.044068564 -0.036511485 0.12908912
0002b0 d9 b5 4d be 1e 35 52 3d ce b5 8a 3e ae 4f 60 3e
       -0.200889 0.051320188 0.2709183 0.21905395
0002c0 17 5f 35 3e 63 42 35 3e 3c 1f 8c bd 79 d3 2e 3e
       0.17712055 0.17701106 -0.06841895 0.17072858
0002d0 5a d2 89 bd ec 3f 6b bd 4b e2 ac be 7b 88 08 be
       -0.067295745 -0.057434008 -0.33766398 -0.13333313
0002e0 f0 d6 ad bd 2f d7 17 3f f7 2f 49 be e0 bf 4c be
       -0.08488262 0.5931272 -0.19647203 -0.1999507
0002f0 a5 da 98 3e 9c f5 b2 bd 3e 4a ac 3d 6f d8 75 be
       0.29854313 -0.087382525 0.08412598 -0.24008344
000300 a7 9b 2c bd 6a d3 1d bc 22 8e f6 3e 7f b1 23 be
       -0.04214063 -0.009632925 0.48155314 -0.15985678
000310 86 74 57 3e 64 a1 2b 3e f3 35 ca 3d 83 17 85 be
       0.21040544 0.16760784 0.09873571 -0.259945
000320 40 c0 b7 3d d7 65 98 be 99 55 9f 3e 53 03 bc 3e
       0.08972216 -0.29765198 0.31119993 0.36721286
000330 e8 22 17 3e 40 4c 88 bc 18 ed 02 3d cc c9 b6 bb
       0.1475941 -0.016637921 0.03196439 -0.0055782553
000340 0e 86 a8 3d 22 78 bb 3e 22 a4 ed 3d 02 10 56 be
       0.08228694 0.36615092 0.116035715 -0.20904544
000350 24 a5 a1 be 08 c9 57 3e 61 68 cb 3d 8b 24 f9 3d
       -0.31571305 0.21072781 0.09932018 0.12165173
000360 87 5a 90 3e 67 22 e7 bd ea 5d 4e be c4 b0 7b 3e
       0.28194067 -0.112858586 -0.20153013 0.2457915
000370 ea 26 fe be 6e 8a a7 3e ab 6a 3e be 0f 44 8d be
       -0.49639064 0.327228 -0.18595378 -0.27590987
000380 1b 48 d1 bd 53 49 62 be 09 9c 13 be 8d 7a 96 3d
       -0.10218831 -0.22098283 -0.14414991 0.073475935
000390 e8 da 4f 3e d4 e2 01 3f 35 da 37 3d a6 36 85 be
       0.2029835 0.5073674 0.044885833 -0.26018256
0003a0 25 0d 87 3e 14 44 07 be 0e d0 aa bc 77 22 1a 3e
       0.26377216 -0.13209563 -0.020851161 0.1505221
0003b0 70 09 37 be 14 63 4d bd cc b7 2f 3e 2f 27 c4 be
       -0.17874694 -0.050143316 0.17159957 -0.38311145
0003c0 18 f6 ee be 09 26 13 3d f9 b6 ad 3e 3d 35 07 3e
       -0.4667213 0.035924945 0.3392866 0.13203903
0003d0 a3 62 2f be d5 d7 5f be c1 c9 ac be 8d 77 07 be
       -0.1712747 -0.21859677 -0.33747676 -0.13229199
0003e0 eb f8 11 be 54 71 61 3e 8a 09 b7 3b bd c3 ef bd
       -0.14255111 0.22015887 0.005585854 -0.11707256
0003f0 dc fe e9 ba 9b e2 85 3d 43 1d 92 3b 69 90 3b bc
       -0.0017852443 0.06537362 0.0044590547 -0.011448004

fc1.bias f4 [128]
000000 1b 51 6c 3e 0f 24 74 be d9 3b 06 3d ff f8 93 be
       0.23077814 -0.2384188 0.03277192 -0.28900906
000010 0c 42 8a 3e 6c 6e fa 3e d6 d2 ea be 25 cc 62 be
       0.27003515 0.4891237 -0.4586398 -0.22148187
000020 2f dd d3 3a 7b 89 88 3e 93 9a 07 3e 04 b0 f1 3d
       0.001616394 0.2666739 0.13242559 0.118011504
000030 db 09 84 bd 5d 96 d4 3e 51 fa 94 be 80 20 cf 3d
       -0.06447192 0.41520968 -0.29097226 0.10113621
000040 c7 3b 89 3d e3 3a 7b 3e 0d 82 a5 3e f8 a4 e8 3e
       0.06700855 0.24534182 0.32325783 0.4543836
000050 49 bc 01 be 4f 80 d6 3e 8a 2e b6 be 22 3c f9 be
       -0.12669481 0.41894767 -0.3558238 -0.4867869
000060 fb 9f 0b 3d fd 12 9f be 6d a0 be be b6 5e 98 3e
       0.034088116 -0.31069174 -0.3723177 0.2975976
000070 e4 95 83 3e b8 c5 ed be d7 54 c0 3d 3f 92 65 be
       0.25700295 -0.4643991 0.09391182 -0.2241907
000080 d2 98 64 be fa 90 15 3c f0 3f 69 bd c4 9c c4 3e
       -0.22323921 0.009128803 -0.05694574 0.38400853
000090 d5 c1 f0 bd e8 6d 4d 3e da 5c 0e 3d 60 d7 a8 be
       -0.117557205 0.20061457 0.03475652 -0.32976818
0000a0 40 0b d1 be 51 e7 a2 3e 9b cc fc 3e 6c 53 85 be
       -0.40828896 0.31817105 0.49374852 -0.26040208
0000b0 e4 35 85 3e 19 4e b1 3e bc ba 85 3e 75 c1 86 3e
       0.26017678 0.34629896 0.2611903 0.2631947
0000c0 30 dc b4 3e 30 b1 d8 3e 9d e5 ce be 9e 45 b0 be
       0.3532424 0.42322683 -0.40409556 -0.34428114
0000d0 77 34 e8 3e 9f 29 21 be 70 2e 88 3e a4 d7 fc 3e
       0.45352527 -0.15738533 0.2659793 0.4938327
0000e0 eb 0c c8 3e e7 8a b5 3e c5 f5 ed 3e 1d 6c f2 be
       0.39072356 0.35457537 0.4647657 -0.4734811
0000f0 db f2 fb bd 8a 41 97 3e de fc 41 3e a7 ca b0 be
       -0.123021804 0.2954219 0.18944117 -0.3452961
000100 f4 c8 9d 3e d6 87 eb be db a9 a5 be 5a a0 1c 3b
       0.30817378 -0.46002072 -0.32356152 0.0023899288
000110 a8 79 d0 3d 24 ee 9a be 3a b3 a9 3e 31 e8 f7 3d
       0.10179454 -0.30259812 0.33144552 0.12104834
000120 3b 17 91 3e c4 5d 8a bd d4 e2 c6 3e a6 c1 04 bf
       0.28338036 -0.067561656 0.3884493 -0.51857984
000130 1b 89 4f 3e 07 80 c7 bd c0 c7 e9 be 43 10 10 3f
       0.20267145 -0.09741216 -0.4566021 0.56274813
000140 8e f3 0e 3d f2 9d 74 be ed b9 63 3e fa 3c ed 3e
       0.03490024 -0.23888376 0.22238894 0.46335584
000150 e8 80 f5 bd 66 ce ae 3e 29 f2 38 3c 00 4a 1f 3e
       -0.119874775 0.34141845 0.011288204 0.15555573
000160 32 da 55 bc d7 25 7f bd 8c cd 0d be 3a c0 c6 ba
       -0.01305251 -0.062291946 -0.13847941 -0.0015163489
000170 08 21 03 bd f8 d2 19 be 69 fa e6 be b8 cc 44 bd
       -0.032013923 -0.15021884 -0.45112923 -0.048046798
000180 d5 f3 e2 3e 83 49 a0 3d c8 2f d2 be 9f 3e fc 3e
       0.44326654 0.07826521 -0.4105208 0.49266526
000190 a0 46 7f 3d cc a5 83 bc 89 68 d5 be fd db 18 be
       0.062323213 -0.016070269 -0.41681316 -0.14927669
0001a0 6b 4e 79 3e 55 cf ca 3e 2f e7 dd 3e e9 88 f7 bc
       0.2434632 0.39611307 0.43340442 -0.030216651
0001b0 74 49 3e be cd dc f7 3e 2d 9c cf 3d 57 ef 94 be
       -0.18582708 0.48410645 0.1013721 -0.29088852
0001c0 0d fd 0f 3f 1b 80 b8 be 15 a4 df 3e 6b 51 48 be
       0.562455 -0.36035237 0.43679872 -0.19562308
0001d0 d4 43 ad 3e 5f b7 6a 3e 8b c7 e5 be b1 dc f5 3e
       0.3384081 0.22921513 -0.44878802 0.48019937
0001e0 4c e3 be 3c 18 3b cd be ca f5 28 3c 9c 30 88 3e
       0.023301743 -0.40084147 0.010312507 0.26599586
0001f0 2b df c0 3e 66 fd 37 3e b2 f3 ce 3c 76 81 eb 3e
       0.37670264 0.17967758 0.025262687 0.45997208

fc2.weight f4 [128, 128]
000000 c0 48 c4 bc 87 f1 bb be 8e bb 52 bd 7b ca 08 bf
       -0.023960471 -0.36707708 -0.051448397 -0.5343396
000010 98 54 75 3d df b2 67 3e 21 2c 2c bc 32 2d bf bc
       0.059895128 0.22626828 -0.010508568 -0.02333698
000020 35 67 cd 3d 63 81 19 3e fe ae c5 bd 60 96 fc 3d
       0.10029451 0.14990763 -0.09652518 0.12333369
000030 c8 3f c1 bd 06 57 e2 3d 55 83 af be 01 43 91 bc
       -0.094359934 0.11051755 -0.34279886 -0.017732145
000040 72 d4 59 3d 58 ff 38 3d e7 7e 77 3e b7 1e d5 3d
       0.05318112 0.04516539 0.24169503 0.10406249
000050 37 f3 ec 3c e2 57 9d 3e bc dc 33 be ab ff 7f bf
       0.028924568 0.30731112 -0.17564672 -0.99999493
000060 65 02 6c 3c ae 91 cd bc 0c ba b3 3c 54 7c 7d 3d
       0.014404868 -0.02509388 0.0219393 0.061886147
000070 7c d6 17 3e 9a 51 b1 be ac 46 b1 3d 73 13 ae bd
       0.14827913 -0.3463257 0.08656058 -0.084998034
000080 ff c3 f3 bd d0 c4 a1 3d 6e 92 77 3d 2a f7 04 3e
       -0.11902618 0.07898867 0.06044238 0.1298491
000090 f8 0e 90 3d 5e c2 ab bd d8 12 44 3d f5 6d e1 bd
       0.07034105 -0.08386682 0.047869533 -0.11007301
0000a0 f4 07 20 be 9c e4 60 3e af 8b 23 3d e1 5a fe bd
       -0.15628034 0.21962208 0.039928135 -0.124196775
0000b0 14 ce e7 3d 78 9f aa 3d 5e 76 f4 3d 6b 90 be 3c
       0.11318603 0.083311975 0.11936639 0.023262223
0000c0 9b 0e df 3d 8f dd 05 3d 23 dd 86 bd b1 ed 33 bf
       0.10891458 0.032681998 -0.06585147 -0.70284563
0000d0 e9 36 4e 3e 4b c2 ad 3d 71 b7 2a 3e a6 c1 a2 3d
       0.20138134 0.08484324 0.1667154 0.07947092
0000e0 87 2a bd bc 10 9e 6c 3e dc 62 8b 3e e1 34 ed bd
       -0.023091568 0.23107171 0.2722386 -0.115823515
0000f0 ff 7d 5c 3c a7 da 04 3e 0a 26 c8 3d a4 ed 67 be
       0.013457774 0.12974034 0.097728804 -0.22649246
000100 f5 17 8a 3e 60 ed 02 be 5f 71 78 be b7 6c ed bd
       0.26971403 -0.12785864 -0.24261998 -0.11593001
000110 0c 84 c1 3c 4e 69 57 bc a1 6b 62 bd 12 2e 7c bd
       0.023622535 -0.013147665 -0.055278424 -0.061567374
000120 46 8a 11 3c 94 fb 93 3e 4c ec c9 3d 31 5c 6b bf
       0.008883065 0.28902876 0.09859523 -0.9193755
000130 43 48 c1 3d 68 e0 da bd 7f 2b f3 bd 33 32 2a 3e
       0.09437611 -0.10687333 -0.118735306 0.16620712
000140 01 7c 1f be 92 45 ec bd 1a 13 23 3d fd 88 bb 3d
       -0.15574647 -0.11536707 0.03981314 0.09156988
000150 34 92 28 3d 13 b4 c7 3d 0b 75 46 bc e5 ac b3 3d
       0.041155055 0.09751143 -0.012112866 0.087732114
000160 94 8d 9b 3c 60 b5 af 3d ea c0 7f be 83 2a 85 bb
       0.018988408 0.085795164 -0.24975935 -0.0040639057
000170 b5 bf 27 be 56 7d 51 3c a4 92 f5 be 38 a2 06 be
       -0.16381724 0.01278623 -0.4796344 -0.13147819
000180 0d 9c 0a 3c 5f f6 a0 bd fa ce 25 be 51 7b 28 bc
       0.008460057 -0.078594916 -0.16192237 -0.010283307
000190 30 8c cd 3b 2b 7e ad 3d 2b f9 0a be 9d 6b 98 3c
       0.006272815 0.0847133 -0.13571613 0.018606002
0001a0 ba 2f 0c 3e ee b1 12 3d de 1f 0b 3e ce d8 eb 3d
       0.13690081 0.03581422 0.13586375 0.115159616
0001b0 6a b3 88 bd c3 22 0a 3e 97 3c 97 3d 07 1d 78 3a
       -0.066748455 0.13489823 0.073846035 0.00094647746
0001c0 d2 ec 9e 3e 11 e5 41 bf 70 ca 27 3e 04 ff 25 be
       0.31040055 -0.7574015 0.16385818 -0.16210562
0001d0 28 8d ca 3d 7d 9f 4c 3e c6 7b 1b bf 2e 6e a0 3e
       0.09890205 0.19982715 -0.6073574 0.3133406
0001e0 e4 0e 0d bc 4a 8f 98 be da f4 1c be d3 bc 17 3e
       -0.008609507 -0.2979682 -0.15327778 0.14818124
0001f0 2c cb 32 3d 94 e4 38 3c 6f f9 ae 3d 41 1d c9 3d
       0.04365079 0.011284966 0.085436694 0.09820033
000200 0b 8d 19 bc 8f fa 09 bf 82 d5 02 bd c7 22 20 bf
       -0.009372006 -0.5389795 -0.0319419 -0.62553066
000210 98 dc 00 bd 43 8d 52 3e c2 70 1b be 8c 8a c3 3c
       -0.031460375 0.205617 -0.15179732 0.023869775
000220 bb 70 a6 bc d2 3c be 3d f3 06 0c be 97 db 5e 3d
       -0.020317426 0.09288944 -0.13674526 0.054408636
000230 e6 10 6f bd de 35 e9 3d 99 66 b1 be 6c b0 54 3c
       -0.058365725 0.113872275 -0.34648588 0.012981515
000240 93 df 11 3e 57 55 3e 3d 83 87 73 3e 9f 44 b6 bb
       0.14245443 0.046468105 0.23782162 -0.0055623795
000250 b4 67 9a bd a2 b4 bb 3e cb 1f 9f be 2e fc 61 bf
       -0.07539311 0.3666125 -0.31078944 -0.8827542
000260 1c bd ce 3c 24 a3 81 bd ae 83 64 bd 4f 69 32 bd
       0.025236659 -0.06329945 -0.055789642 -0.04355746
000270 8d 9e 8d 3e 87 2e cc be de 56 91 3d a3 7e 02 be
       0.27660027 -0.39879248 0.07096647 -0.1274362
000280 27 ed 4d be 25 af a9 3d 96 80 66 3d 60 62 84 3d
       -0.20109998 0.08285359 0.056274973 0.06464076
000290 25 2c 20 bd 1a ac 23 3d 2c c5 af 3d d4 07 84 3c
       -0.0391046 0.03995905 0.085825294 0.016117014
0002a0 2d 9e fe bd fc c3 4c 3e c4 4a 4f 3d 37 d6 2c be
       -0.124325134 0.19996637 0.05060841 -0.16878591
0002b0 6e a1 07 3e be 00 80 3d 9c 6b 38 3e 1f 6a fb 3d
       0.13245174 0.062501416 0.180098 0.122761
0002c0 2d 30 17 3e d8 02 21 3e 14 99 e2 bd 93 26 2d bf
       0.14764471 0.15723741 -0.110643536 -0.67636985
0002d0 b4 6f 75 3e a8 34 a1 3d 1d b3 71 3e 22 b2 c8 3d
       0.23968393 0.078713715 0.23603483 0.09799601
0002e0 d6 a6 c0 3d 50 7c 75 3e e3 11 4c 3e 4e 99 ad bd
       0.094068214 0.23973203 0.19928698 -0.08476506
0002f0 5c 69 05 be 23 61 a2 3d f3 07 50 3e 4e 67 a8 be
       -0.13028473 0.079286836 0.20315532 -0.32891315
000300 bd bd 2d 3e 2c 9f 4e be 7d f8 70 be b8 f8 e3 bc
       0.1696691 -0.20177907 -0.23532291 -0.02782856
000310 93 8d fb 3d 56 5f 8f 3c 0a b2 7f 3c b7 09 83 3d
       0.122828625 0.017501514 0.015606413 0.06398337
000320 e0 ef 3d 3d 80 a0 81 3e 83 70 2a 3d 84 81 4b bf
       0.04637134 0.25317764 0.041611206 -0.794945
000330 8e a2 5f 3c 9c b3 ab bc 91 79 f8 bd 2a f4 50 3e
       0.013649596 -0.020959668 -0.12132562 0.20405641
000340 29 f2 af bd 6b 4e 0a be 68 5b 02 3e cd 09 c1 3d
       -0.0859111 -0.13506477 0.12730181 0.094256975
000350 34 1b 62 bd a0 72 1f 3e d3 1e 0e be 53 2a 21 3e
       -0.055201724 0.1557107 -0.13878946 0.15738802
000360 06 78 a3 bd c2 ef 6a 3d b1 78 02 be 4b 10 91 bd
       -0.07981877 0.057357557 -0.12741353 -0.07083186
000370 b4 56 b7 bd 23 20 9d bd 92 d5 d8 be 91 48 ec bd
       -0.08952084 -0.07672145 -0.4235044 -0.115372784
000380 fb 9f ae 3d 39 c2 05 be b9 59 17 be 19 c8 b5 bc
       0.085266076 -0.13062371 -0.1478032 -0.02219014
000390 95 53 6f 3d 51 59 ff ba ca cd 45 be ba 47 a1 3d
       0.05842932 -0.0019481574 -0.19316784 0.07875009
0003a0 84 95 40 3e bc 6c 4b 3b e9 f0 2a 3e 9f 2e bb bb
       0.18807036 0.0031040153 0.16693462 -0.005712345
0003b0 e6 9a 04 be 32 8d d9 3d 57 b3 c0 3c 00 53 30 3c
       -0.12949714 0.10622634 0.023523016 0.010761976
0003c0 7b 2c c4 3e 97 fb 54 bf 8d 22 a4 3e 02 63 32 be
       0.38315186 -0.83196396 0.3205761 -0.17420581
0003d0 ff fe 02 3e d1 63 6d 3e 2c 9f f1 be d9 aa 48 3e
       0.12792586 0.23182608 -0.4719175 0.19596423
0003e0 f8 5a 15 be 3c b2 d4 be be bf 20 be 6b 2e 8d 3d
       -0.14585483 -0.41542232 -0.15698144 0.06893619
0003f0 54 f0 07 3e 14 20 5c 3c 42 58 77 bd 74 b8 f4 3b
       0.13275272 0.013435382 -0.060386904 0.0074682776

fc2.bias f4 [128]
000000 d5 c5 9b 3e 71 f1 62 3e 49 6d 65 3e 97 13 5d be
       0.3042437 0.22162415 0.2240497 -0.21589504
000010 e0 21 52 3e 17 22 7d be a8 a6 76 be 34 8c 24 3e
       0.20520735 -0.24720035 -0.24087012 0.16069108
000020 f3 d1 4f 3e 78 31 2c 3e b8 7d 87 3e 9c 30 7e be
       0.20294933 0.16815746 0.26463103 -0.2482323
000030 fe 4d 66 be 7f 6f 97 be 99 ff 10 3e 8b 7f 4c 3e
       -0.22490689 -0.29577252 0.14160003 0.19970529
000040 ec 98 81 3e 93 c0 5f be 0b e8 54 be d8 5b 8b 3e
       0.25311983 -0.21850805 -0.20791642 0.2721851
000050 79 a0 83 3e a9 54 81 3e 63 8e 77 3e 85 ee 84 3e
       0.25708368 0.25259903 0.2417541 0.25963226
000060 17 dc 3e 3e 32 84 7f 3e 7b 7b 1c 3e 65 a0 80 be
       0.18638645 0.24952772 0.15281479 -0.2512237
000070 01 85 0c 3e 38 b5 37 3e 2e 8c fe 3d 4b 91 6c 3e
       0.13722612 0.17940223 0.12429081 0.231023
000080 9f 01 2f 3e fa 24 4f 3e cb 57 08 be 5f 97 6b 3e
       0.17090462 0.20228949 -0.1331474 0.23006962
000090 9e c8 45 3e 79 17 33 3e 15 eb 84 be 1f 2b 4d 3e
       0.1931481 0.17489423 -0.25960603 0.2003598
0000a0 61 fc 02 3e 12 05 8f be 78 a6 94 3e ef f0 57 3e
       0.12791587 -0.27933556 0.29033256 0.21088003
0000b0 c3 d6 50 be ac c8 0f 3e 5a 63 8d 3e 79 99 3e 3e
       -0.20394425 0.14041394 0.27614862 0.18613233
0000c0 dc e8 6c 3e ab 93 65 be 29 1b 5d 3e 2b 92 55 3e
       0.23135704 -0.22419612 0.21592392 0.2085654
0000d0 a0 5a 6f be dd 4e 39 3e 99 a6 8a 3e b2 90 07 3e
       -0.23374414 0.1809649 0.2708023 0.1323879
0000e0 91 71 03 3e 12 a8 4e be 8d 50 66 3e 48 e1 5c 3e
       0.12836291 -0.20181301 0.22491665 0.21570313
0000f0 c8 7e 5a 3e 9c c6 50 3e 67 ae 1a 3e e3 e9 98 be
       0.21337426 0.20388263 0.15105592 -0.2986594
000100 df 1c 75 3e 42 77 2c be c4 f6 82 be 24 b7 24 3e
       0.23936795 -0.16842368 -0.25578892 0.16085488
000110 bc 68 8f 3e 7e 01 80 3e e3 52 85 be 2b 78 81 3e
       0.28009593 0.25001138 -0.260398 0.25286993
000120 95 86 92 be 88 ec 35 be 16 60 66 3e 20 11 66 3e
       -0.28618303 -0.17766011 0.22497591 0.2246747
000130 0a 7d 35 be eb 17 04 be dd 1a 92 3e 5d e3 7d be
       -0.1772348 -0.12899749 0.2853612 -0.24793763
000140 70 81 91 3e 42 51 36 3e 8a 2b 1d be fa e2 55 be
       0.28419065 0.17804435 -0.1534864 -0.20887366
000150 14 41 4d 3e e4 c6 99 3e a3 a6 80 3e 0a 57 76 3e
       0.20044357 0.30034554 0.25127134 0.2405664
000160 8f 0f 4c be ef e2 21 3e 03 ef 27 be 15 9e 8d be
       -0.1992781 0.15809225 -0.1639977 -0.2765967
000170 4e 1e 8f 3e b6 f7 48 3e 35 0e 20 be 1e 97 4b 3e
       0.27952808 0.19625744 -0.1563042 0.19881865
000180 dd 87 33 3e 9a df 62 be f0 21 8e be f0 56 24 3e
       0.17532296 -0.2215561 -0.27760267 0.16048789
000190 ed 5f 18 3e e3 3e 9a 3e 35 2f 69 3e e8 fa 40 3e
       0.14880343 0.30126104 0.22771914 0.18845713
0001a0 96 45 90 be 62 c8 37 3e dd b0 7c 3e d4 0f 24 3e
       -0.2817809 0.17947534 0.24676843 0.16021663
0001b0 27 d9 8f be 2a c6 16 3e 2c 99 83 3e c5 bf 2d 3e
       -0.28095362 0.14724031 0.25702798 0.16967686
0001c0 b5 74 70 3e 86 8c 8d 3e b0 87 3f be 76 d0 92 be
       0.2348202 0.27646273 -0.18704104 -0.28674668
0001d0 33 f3 36 3e 31 15 69 3e 7f a0 10 3e 83 5f 30 3e
       0.1786621 0.2276199 0.14123724 0.17223935
0001e0 cf 26 88 3e a2 78 92 3e 5c 72 95 be 52 52 53 be
       0.2659211 0.2860766 -0.29188812 -0.20636871
0001f0 89 a4 1c be 3f ad 61 be d3 e3 0e be a9 4f 72 3e
       -0.1529714 -0.22038744 -0.13954096 0.236632

fc3.weight f4 [128, 128]
000000 f3 8a 8d 3e 94 85 3e 3e 62 f9 86 3e 5f 67 43 be
       0.27645072 0.18605644 0.2636214 -0.19082402
000010 32 18 8b 3e c6 3d 4a be 10 04 65 be 2a 48 01 3e
       0.27166897 -0.19750127 -0.22364831 0.12625185
000020 18 ff 3d 3e 6f 1c 87 3e 0a 98 ec 3d 1f 3c c5 bd
       0.18554342 0.2638888 0.11552437 -0.09630608
000030 b2 c9 26 be a5 42 88 be 6d 87 87 3e e0 c0 35 3e
       -0.16287878 -0.26613346 0.2647051 0.17749357
000040 b6 96 8e 3e f6 60 2c be 3e a5 8f be e4 d7 1f 3e
       0.27849358 -0.16833863 -0.28055757 0.156097
000050 c8 73 ef 3d 5b 2f 00 3e ee c3 6a 3e 3d 0d 8c 3e
       0.116920054 0.12518065 0.22926304 0.2735385
000060 02 7c 2f 3e e5 14 8b 3e 80 ca 40 3e 1a 6d fd bd
       0.17137149 0.2716438 0.18827248 -0.12374325
000070 56 28 2a 3e b5 8d 86 3e dd 5f 6a 3e ec 3e 83 3e
       0.1661695 0.2627999 0.22888131 0.25633943
000080 2a b8 1e 3e 1c 02 55 3e be 20 12 be 55 a1 4c 3e
       0.1549994 0.20801586 -0.14270303 0.19983418
000090 64 2f 03 3e 17 a4 61 3e b3 e1 61 be 29 95 39 3e
       0.12811047 0.22035252 -0.22058754 0.18123306
0000a0 14 dc 28 3e 6c d0 88 be 55 d6 59 3e 70 6b 27 3e
       0.16490203 -0.26721513 0.21273167 0.16349578
0000b0 3b e3 83 be 2f c7 32 3e d4 df 18 3e db d9 fe 3d
       -0.257593 0.17458795 0.14929134 0.124438964
0000c0 c6 1b f5 3d 7f 1b 86 be 16 51 76 3e 4c 2c 24 3e
       0.11968188 -0.26192853 0.2405437 0.16032523
0000d0 1d 98 67 be b9 20 86 3e ef 3b 70 3e 00 5c 8c 3e
       -0.2261662 0.2619684 0.23460363 0.2741394
0000e0 08 d9 1d 3e 37 af ff bd 5d c3 df 3d c0 34 11 3e
       0.15414822 -0.124845915 0.109259345 0.14180279
0000f0 b0 7a 83 3e 54 9c 2e 3e 92 8f 85 3e a3 43 4c be
       0.2567954 0.17051822 0.26086098 -0.19947676
000100 6c e1 2d 3e 84 f5 84 be e6 03 8f be bc be 87 3e
       0.16980523 -0.25968564 -0.27932662 0.26512706
000110 96 1e e3 3d ce 85 7e 3e 18 7c 1f be d7 6e 45 3e
       0.11089818 0.2485573 -0.15574682 0.19280563
000120 dc 52 08 be f2 c5 65 be 86 8b 45 3e fe a8 73 3e
       -0.13312858 -0.22438791 0.19291505 0.23794934
000130 06 2e 6a be 5e 56 87 be b6 e8 29 3e 3e 47 48 be
       -0.22869119 -0.2643308 0.16592678 -0.19558427
000140 f6 e3 14 3e a2 24 19 3e cb 0f 8a be 65 e9 58 be
       0.14540085 0.1495538 -0.26965174 -0.21182783
000150 59 f7 1d 3e 31 05 6a 3e a1 79 26 3e 1b ab d5 3d
       0.15426387 0.22853543 0.16257335 0.104330264
000160 7b 07 14 be 4b 26 7b 3e d8 3b 89 be 46 2f 41 be
       -0.14455979 0.24526326 -0.2680347 -0.1886569
000170 0a d9 83 3e 44 32 55 3e 7d 06 62 be 6e 16 1d 3e
       0.25751525 0.20819956 -0.22072788 0.15340587
000180 48 70 89 3e 15 a3 45 be c0 28 5f be 5f fe 5d 3e
       0.26843476 -0.19300492 -0.21792889 0.21679066
000190 d2 16 87 3e b0 cf 8e 3e 9e 07 6a 3e f1 d3 48 3e
       0.26384598 0.27892828 0.22854468 0.19612099
0001a0 83 0a dd bd 46 8d e8 3d 2f 0a 8f 3e 57 01 29 3e
       -0.107930206 0.11355071 0.27937457 0.16504417
0001b0 f2 7f 26 be 50 67 1f 3e 9b c5 48 3e 63 8d d1 3d
       -0.16259745 0.15566754 0.1960663 0.102320455
0001c0 ed d2 30 3e 49 68 0c 3e 71 d8 59 be fa 72 86 be
       0.17267962 0.13711657 -0.21273972 -0.26259595
0001d0 e9 99 75 3e 26 b2 8c 3e 11 21 11 3e 21 79 80 3e
       0.23984493 0.27479666 0.1417277 0.25092414
0001e0 00 b0 69 3e e4 c1 86 3e e4 64 6d be c4 35 5c be
       0.22821045 0.26319802 -0.23183018 -0.21504885
0001f0 52 63 1d be 94 c6 85 be 07 a2 73 be b3 be 5f 3e
       -0.15369919 -0.26128066 -0.23792277 0.2185009
000200 49 b1 20 3e e5 ee 66 3e b8 1d 4f 3e 2a df 8f be
       0.15692629 0.22552069 0.2022618 -0.28099948
000210 c1 6b 27 3e 7b 19 2e be cd 76 69 be d4 07 fa 3d
       0.16349699 -0.17001908 -0.22799225 0.12208524
000220 68 6e 17 3e 57 14 90 3e 72 eb 25 3e 7e bf 0a be
       0.1478821 0.28140518 0.16203097 -0.13549611
000230 29 e7 51 be c9 e7 3a be 91 43 81 3e 48 44 f3 3d
       -0.20498337 -0.18252482 0.25246862 0.11878258
000240 a7 47 35 3e f6 bb 84 be ae c0 76 be d0 91 85 3e
       0.17703114 -0.25924653 -0.24096939 0.2608781
000250 e2 d8 fb 3d 2f ef 72 3e ed 44 48 3e d5 5b 48 3e
       0.122972265 0.23724054 0.19557543 0.19566281
000260 73 31 6b 3e a1 dc 42 3e 52 77 90 3e 27 7b 87 be
       0.22968082 0.19029476 0.28216034 -0.26461145
000270 67 0f 1d 3e 77 37 7d 3e 99 c0 7d 3e 84 46 83 3e
       0.15337907 0.2472819 0.24780501 0.25639737
000280 3d 30 05 3e 76 cd 13 3e ad 07 52 be d2 b5 8a 3e
       0.13006683 0.14433846 -0.2051074 0.27091843
000290 67 bf fc 3d a3 0c 2b 3e 41 cb 56 be 60 38 47 3e
       0.123411946 0.1670404 -0.20975973 0.19455099
0002a0 42 01 0c 3e 1c 0e cb bd 9c 3f 33 3e 7b 20 23 3e
       0.13672355 -0.099148005 0.17504734 0.15930359
0002b0 e2 e3 24 be 6b 39 3c 3e c1 6e 40 3e b4 23 39 3e
       -0.16102555 0.18381278 0.1879225 0.18080026
0002c0 7b 69 55 3e 83 a4 55 be 2e 2b ea 3d df bc 92 3e
       0.20841019 -0.20863537 0.11434017 0.28659722
0002d0 8a bb 0b be a1 44 98 3e 83 b1 06 3e 90 7f 24 3e
       -0.13645759 0.2973986 0.13153653 0.16064286
0002e0 f5 e1 6c 3e 0f 20 32 be 1e 6f 32 3e b8 0a 76 3e
       0.23133071 -0.17395042 0.174252 0.24027526
0002f0 44 14 7f 3e 8c 41 40 3e 86 8a 3e 3e 86 60 75 be
       0.24910074 0.18775004 0.1860753 -0.23962602
000300 0c 00 f2 3d 5c cc 33 be f5 07 44 be a5 bf 69 3e
       0.11816415 -0.17558426 -0.1914366 0.22827013
000310 a3 80 ff 3d 5f e3 6b 3e 44 21 1a be be f7 d3 3d
       0.124757074 0.23035954 -0.15051752 0.103499874
000320 7f 5b 38 be ac d9 7d be 45 ab 6a 3e d6 47 5d 3e
       -0.18003653 -0.24790066 0.22916897 0.21609434
000330 6f b6 3c be 64 08 8b be 55 91 73 3e 06 cb 0a be
       -0.18428968 -0.2715484 0.23785909 -0.1355401
000340 f7 37 54 3e 21 d5 45 3e de f3 89 be f2 82 91 be
       0.20724474 0.19319583 -0.26943868 -0.28420216
000350 df 24 df 3d 95 78 83 3e 5e dd 54 3e e2 a1 7e 3e
       0.108957045 0.25677934 0.2078757 0.24866441
000360 8d 09 81 be 7b e8 39 3e f7 81 ca bd 5e 8e 73 be
       -0.252026 0.1815509 -0.0988807 -0.23784778
000370 f8 3b 4f 3e 8a 93 82 3e d9 88 0e be 78 c2 88 3e
       0.2023772 0.25503188 -0.1391939 0.26710868
000380 c1 d0 38 3e 8b ed 30 be e9 de 63 be 60 05 58 3e
       0.18048383 -0.17278115 -0.22253002 0.210958
000390 f8 d2 ff 3d 7f eb 43 3e 75 65 62 3e 17 22 1e 3e
       0.12491411 0.19132803 0.22109015 0.15442692
0003a0 56 bc 4e be 84 37 40 3e d0 31 54 3e 1b 2d 3c 3e
       -0.20189032 0.18771178 0.20722127 0.18376581
0003b0 af 00 01 be 85 f0 e6 3d db b8 12 3e 98 26 12 3e
       -0.12597917 0.11276344 0.1432833 0.14272535
0003c0 38 d0 54 3e e0 14 11 3e 30 c7 65 be 14 4d fb bd
       0.20782554 0.1416812 -0.22439265 -0.12270561
0003d0 cf d7 73 3e 6a 0b 4c 3e 70 71 62 3e ae cc 2a 3e
       0.23812793 0.19926229 0.22113585 0.16679642
0003e0 3d 69 26 3e e5 73 83 3e b7 ba 0d be 59 1f 8d be
       0.16251083 0.25674358 -0.13840757 -0.2756298
0003f0 ab 60 04 be 04 33 56 be b5 98 ee bd de 77 32 3e
       -0.12927501 -0.20917898 -0.1165022 0.17428538

fc3.bias f4 [128]
000000 25 69 1c 3e a5 a7 8b 3e 78 13 3a 3e 8a 59 ef bd
       0.15274484 0.2727634 0.18171489 -0.11687
000010 73 5d 75 be d3 5d 12 3e 30 3d 62 be a1 dd 3c be
       -0.2396143 0.14293604 -0.22093654 -0.1844392
000020 e2 37 10 3e 0c c9 73 be a9 2c 20 3e 29 b0 77 3e
       0.14083818 -0.23807162 0.15642036 0.24188294
000030 16 e2 85 3e 5e 8f bf bd 58 17 7f 3e a3 82 4d be
       0.26149052 -0.09353517 0.24911249 -0.20069365
000040 47 0c 5f be 61 f5 83 3e 76 a8 85 be ba e2 47 3e
       -0.21782027 0.25773147 -0.26105088 0.19520083
000050 bb 16 11 3e 7a d7 12 3e cb 94 2d be 2e e8 ea 3d
       0.14168827 0.1434001 -0.16951291 0.11470066
000060 55 3d 63 be 13 57 71 3e 58 00 88 3e 23 af 31 3e
       -0.22191365 0.23568372 0.26562762 0.17351966
000070 68 b6 0a 3e a8 61 37 be bd 0c 60 be 06 f2 37 3e
       0.13546145 -0.17908347 -0.2187986 0.17963418
000080 f0 0b 48 be 23 91 7f be 46 0f 87 3e 43 56 73 3e
       -0.19535804 -0.24957709 0.2637884 0.23763375
000090 1e ed 71 be 27 39 6a 3e 27 d7 14 3e 1a 52 69 be
       -0.2362561 0.22873364 0.14535199 -0.22785226
0000a0 3e 56 d5 bd 27 ad 7c be 15 d2 d5 3d 83 84 62 3e
       -0.1041684 -0.24675427 0.104404606 0.22120862
0000b0 31 b1 1e 3e b6 f4 10 be 94 9b 01 be ca 7a 51 3e
       0.1549728 -0.1415585 -0.12657005 0.20456997
0000c0 42 10 19 3e 4e c5 c8 3d c4 d9 84 3e 85 12 d0 3d
       0.14947608 0.09803258 0.25947392 0.10159782
0000d0 2e 32 de bd 69 41 0e be de 6d b3 3d f0 6b 3f 3e
       -0.10849415 -0.1389214 0.0876119 0.18693519
0000e0 9e 61 18 be 4c ad 26 3e 56 ff 71 be 80 f1 2f 3e
       -0.14880988 0.16277045 -0.23632559 0.17181969
0000f0 36 d0 33 3e 0a 7f 3d be 54 0e 55 be 5f f9 0c 3e
       0.17559895 -0.18505493 -0.20806247 0.13767003
000100 c6 26 0d 3e c8 3f f0 bd 4f 7c 30 be 53 43 64 be
       0.13784322 -0.11730915 -0.1723492 -0.22291307
000110 31 7b 52 be dd 4d e8 bd 23 9e 45 be 31 00 71 3e
       -0.20554806 -0.11342976 -0.19298606 0.2353523
000120 78 01 80 be 3e fe c3 bd db 17 38 be 1b 93 7e 3e
       -0.2500112 -0.09569977 -0.1797785 0.24860804
000130 fd f7 47 be a6 bd 6f 3e fa 5c 77 3e 63 b5 6c be
       -0.19528194 0.23412189 0.24156561 -0.23116069
000140 6f 4c 18 be 5e 90 80 be 07 af 14 be 5a 68 2a be
       -0.14872907 -0.25110143 -0.14519893 -0.1664137
000150 38 3b 68 be 53 8c 71 be 11 3b 21 3e aa e4 7c be
       -0.2267884 -0.23588686 0.15745188 -0.24696603
000160 ab 21 25 be 64 ae 87 3e 16 6f 48 3e 3e b1 1d 3e
       -0.16126125 0.26500237 0.19573626 0.15399644
000170 ba 51 e7 bd 58 b4 6a be 98 5f 50 3e bb 2f 36 3e
       -0.11294885 -0.22920358 0.20348966 0.17791645
000180 f6 49 7b 3e c3 21 65 be 1a 84 64 be 5d df 30 be
       0.24539933 -0.2237616 -0.22316018 -0.17272706
000190 ea e7 46 3e 27 cd 4b be 2c 96 72 be f9 28 16 be
       0.19424406 -0.19902478 -0.23690099 -0.14664067
0001a0 b9 27 7e 3e a9 44 3f be 7e d2 12 3e e9 84 61 3e
       0.2481984 -0.18678536 0.14338109 0.22023357
0001b0 00 c6 6a be fe bb 6d 3e 49 de 53 3e 1d 74 43 be
       -0.22927094 0.23216245 0.20690264 -0.19087262
0001c0 ca 6b ef 3d 6b 72 ef bd 1a 08 0b 3e 3c 5f 66 3e
       0.11690481 -0.11691745 0.13577309 0.22497267
0001d0 aa 1e c7 3d 91 42 28 be 12 e2 77 be 8c 6a 01 3e
       0.097226456 -0.16431643 -0.24207333 0.126383
0001e0 c2 13 81 3e d6 ae 20 be f0 fc 85 3e be cf ad bd
       0.25210387 -0.15691695 0.26169538 -0.08486889
0001f0 86 1c 55 be 82 ee 0e 3e 16 47 7c be 68 8b 75 be
       -0.20811662 0.13958171 -0.24636492 -0.2397896

fc4.weight f4 [64, 128]
000000 77 d2 75 be 74 d1 fb bd 13 5b 23 be 52 61 ff 3d
       -0.24006067 -0.122958094 -0.15952711 0.12469734
000010 99 40 27 3e 7a 30 19 be 5b 71 70 3e 31 79 5c 3e
       0.16333236 -0.14959899 0.23480742 0.21530606
000020 a6 90 87 be c5 6b 12 3e 99 2e 16 be e9 fa 21 be
       -0.26477545 0.14298923 -0.14666213 -0.15818371
000030 1f e4 52 be 08 11 2d 3e 02 0e 88 be 60 9f 58 3e
       -0.20594834 0.16901028 -0.26573187 0.21154547
000040 da 60 6c 3e fe 9f 3f be 97 d7 8a 3e 26 97 34 be
       0.23083821 -0.18713376 0.27117607 -0.17635784
000050 16 9c 39 be 8e 41 63 be f3 87 65 3e a1 29 23 be
       -0.18125948 -0.22192976 0.22415142 -0.15933849
000060 4b af 8e 3e d8 82 3b be 11 39 84 be 7d d3 52 be
       0.27868113 -0.18311632 -0.25824788 -0.20588489
000070 cb 64 67 be 77 87 6a 3e 74 b7 1c 3e 78 c9 4f be
       -0.22597043 0.22903238 0.15304357 -0.20291698
000080 e8 27 90 3e a1 92 6a 3e f3 7a 8a be 27 b4 36 be
       0.28155446 0.22907497 -0.27046928 -0.1784216
000090 35 0e 3b 3e e5 fc 86 be 78 ce 37 be cd c0 3e 3e
       0.18267138 -0.26364818 -0.17949855 0.18628235
0000a0 60 0e 34 3e 1c 1c 66 3e 2e ce 8e be 19 7c 5e be
       0.17583609 0.2247166 -0.27891678 -0.21727027
0000b0 b4 92 62 be 42 b2 32 3e 66 4c 83 3e a0 38 84 be
       -0.22126275 0.17450812 0.25644225 -0.2582445
0000c0 ae 71 80 be c9 46 eb bd 07 b6 3a be 74 49 3b be
       -0.2508673 -0.114881106 -0.182335 -0.18289739
0000d0 76 58 62 3e 49 f6 0e 3e 80 de 88 be 16 33 2d be
       0.22104058 0.13961138 -0.26732254 -0.16914019
0000e0 dc c5 5b 3e 9d 4f 36 be ed bd 90 3e 87 91 79 be
       0.21462196 -0.17803808 0.28269902 -0.2437192
0000f0 07 0e 16 be ba c7 6a 3e 9c 09 85 3e eb 7a 70 be
       -0.14653789 0.22927752 0.25983894 -0.2348439
000100 94 30 3c be d4 43 4b 3e b4 68 27 3e cb e4 7c 3e
       -0.18377906 0.19850093 0.16348535 0.24696653
000110 49 81 4e 3e 58 5f 57 3e 00 8a 1b 3e 35 22 8b be
       0.20166506 0.21032465 0.15189362 -0.27174535
000120 d9 be 53 3e 85 5e 76 3e 09 ab 18 3e 38 5f 89 be
       0.20678271 0.24059494 0.14908995 -0.2683046
000130 7f 82 14 3e b8 81 04 be 44 8f 4a be eb 09 e7 3d
       0.14502905 -0.12940109 -0.19781214 0.112811886
000140 d6 a1 8a 3e ee ee 3d 3e d1 71 48 3e ea 3f 7e 3e
       0.27076596 0.18548176 0.19574668 0.24829069
000150 0a 23 4d 3e 73 4e 8f 3e 04 69 7b be 88 f8 71 3e
       0.20032898 0.2798954 -0.24551779 0.23629963
000160 63 4a 7f 3e 3c e8 8e be 51 f8 55 be 1d 1f 0e be
       0.2493072 -0.27911556 -0.20895506 -0.13879056
000170 ab f1 71 3e 30 82 85 3e b7 60 8f be 45 f9 04 be
       0.23627345 0.26075888 -0.28003475 -0.12985714
000180 fb 6b 27 be 73 3a 6a 3e 3c df 80 3e 81 e3 81 3e
       -0.16349785 0.22873859 0.25170314 0.25368884
000190 44 a1 37 be 4b 70 62 3e 2d d4 44 3e 27 9e 2e 3e
       -0.17932612 0.22113149 0.19221564 0.17052518
0001a0 dd 5b 59 be 99 a8 0c 3e b6 50 c9 bd 1e 46 08 be
       -0.2122645 0.1373619 -0.098298475 -0.13307998
0001b0 59 09 3c 3e e3 95 84 be 14 19 12 be 53 35 5f 3e
       0.18362941 -0.25895604 -0.14267379 0.21797685
0001c0 d4 1b 43 be fc bd e0 3d 15 bb eb bd 67 b9 78 be
       -0.19053584 0.10973737 -0.115102924 -0.24289475
0001d0 b3 43 d4 bd eb a6 e2 3d 18 b8 2f 3e f1 3b f5 bd
       -0.10364475 0.11066993 0.1716007 -0.119743235
0001e0 3b 58 e9 bd b4 a5 1f 3e 6b c0 12 be 15 24 71 3e
       -0.11393782 0.15590554 -0.14331214 0.2354892
0001f0 4e f9 fc 3d d0 8a 48 be eb 31 8d 3e 5e 98 41 3e
       0.123522386 -0.19584203 0.27577147 0.1890578
000200 ea b8 e7 3d f7 24 db 3d ef 23 68 3e 14 af 82 be
       0.113145664 0.1070041 0.22669958 -0.255242
000210 02 e3 70 be c2 f3 6e 3e ce 33 7a be 61 e7 80 be
       -0.23524097 0.23335174 -0.24433824 -0.25176528
000220 63 70 66 3e 29 77 49 be 14 db 60 3e 9a 94 67 3e
       0.2250381 -0.19674362 0.21958572 0.22615281
000230 79 d7 6f 3e f5 69 08 be ee 81 83 3e 01 e7 57 be
       0.2342204 -0.1332167 0.25685066 -0.21084215
000240 b0 bf 8d be da 8c 12 3e 79 5e 35 be 9b 43 20 3e
       -0.27685308 0.14311543 -0.1771182 0.1565079
000250 47 99 db 3d b6 68 18 3e 2a 2c d9 bd 71 20 1e 3e
       0.10722595 0.14883694 -0.10604127 0.15442063
000260 92 24 5a be bd 5d 02 3e 81 ed 8c 3e 29 cc 82 3e
       -0.21303013 0.12731071 0.2752495 0.25546387
000270 59 46 8c 3e 10 96 3b be db 1c 89 be 43 1f 48 3e
       0.2739742 -0.18318963 -0.26779827 0.19543175
000280 1f 19 4e be 46 16 74 be f5 b0 7d 3e 57 fa 57 3e
       -0.2012677 -0.23836622 0.24774535 0.21091591
000290 72 72 25 be 5e e5 4a 3e 73 b8 49 3e a6 af 1f be
       -0.16156939 0.19814059 0.19699268 -0.15594348
0002a0 18 9b 2f be 8a fe 2b be 29 7d 80 3e 99 2d 4d 3e
       -0.17149007 -0.16796318 0.2509549 0.20036925
0002b0 a2 a5 56 3e ac da 32 be 12 21 84 be cc be 2a 3e
       0.20961621 -0.17466229 -0.2580648 0.16674346
0002c0 a7 48 25 3e 4f 30 e9 3d fd e7 18 3e e9 85 62 3e
       0.16140996 0.11386167 0.14932247 0.22121395
0002d0 e0 ad 0a be ae 6b 44 be 28 be 82 3e f7 b4 8c 3e
       -0.1354289 -0.19181702 0.25535703 0.27481815
0002e0 f2 78 19 be 98 08 00 3e 80 58 fc bd e8 a2 04 3e
       -0.14987543 0.12503278 -0.123215675 0.12952769
0002f0 37 8c 14 3e f4 44 2c be ff 58 5c be 14 49 70 3e
       0.14506613 -0.16823179 -0.21518324 0.23465377
000300 b1 c7 e0 3d 3b 1f f4 bd b6 e4 44 be c8 06 17 be
       0.10975588 -0.11920019 -0.19227871 -0.1474868
000310 07 3b 28 be ce 36 19 be ce 74 8b be c9 12 73 3e
       -0.16428767 -0.14962313 -0.27237552 0.23737635
000320 45 4a 0b be b4 39 7c be 2d 7f 5d be bb 59 da 3d
       -0.1360255 -0.24631387 -0.21630545 0.10661646
000330 40 1d 79 be 1f 5f 2a 3e f6 f6 83 3e cb ce 6e be
       -0.24327564 0.16637848 0.25774354 -0.23321073
000340 9b 48 89 be b9 7b 12 be 74 9b 00 be f1 75 1e be
       -0.26813206 -0.14305009 -0.125593 -0.15474679
000350 79 61 89 be c9 ec 3a be d5 9e 2b 3e dc 14 72 be
       -0.26832178 -0.18254389 0.16759808 -0.2364077
000360 72 c0 0e be 45 61 5d 3e c8 35 04 3e be 25 34 3e
       -0.139406 0.21619137 0.12911141 0.17592523
000370 f5 d4 63 be fc 2e 59 be 59 f5 5a 3e 55 e8 19 3e
       -0.22249205 -0.2120933 0.21382655 0.15030034
000380 06 dd 8e 3e b3 ba 85 be b1 22 f2 bd 42 82 8a be
       0.27903003 -0.26119003 -0.11823023 -0.27052504
000390 8c dc 40 3e 68 f5 73 be de a2 78 be fe 37 85 be
       0.18834132 -0.23824084 -0.24280879 -0.2601928
0003a0 2d 5d 59 3e 6f 51 12 be 2e 4b f7 3d e8 4e 36 3e
       0.2122695 -0.14288877 0.12074886 0.17803538
0003b0 26 23 69 be 6c 7e 45 3e ea 6f 56 3e 6c 96 51 be
       -0.22767314 0.19286507 0.2094113 -0.20467538
0003c0 cd 6c 0c 3e 8a 90 86 be d1 ac 1d 3e bc 9b 12 3e
       0.13713379 -0.2628215 0.15397955 0.1431722
0003d0 b9 93 66 3e f5 d6 1e be f0 27 5d be 54 c8 3e 3e
       0.22517289 -0.15511687 -0.21597266 0.18631107
0003e0 24 00 e9 3d 35 fd 39 be 58 00 25 3e a2 9c 52 be
       0.1137698 -0.18162997 0.16113412 -0.20567563
0003f0 ff 78 70 be 15 aa 4c 3e c2 4d 0b be 0e 26 19 be
       -0.23483656 0.19986756 -0.13603881 -0.14955923

fc4.bias f4 [64]
000000 0d 7a e0 bd f4 5c 19 3e cf 31 59 be 36 46 25 be
       -0.10960779 0.14976865 -0.21210407 -0.16140065
000010 79 84 bf bd ab ab 80 3d 72 fe c2 3d 4a 40 37 3e
       -0.09351439 0.06282743 0.09521188 0.17895618
000020 88 3e 6b bd 88 f2 28 be 65 2d 54 be 9b d2 95 bc
       -0.05743268 -0.16498768 -0.20720442 -0.018288901
000030 f3 b0 09 3e 72 b8 e3 3d a9 f2 4d bd a3 b1 38 be
       0.13446407 0.111191645 -0.050280247 -0.18036513
000040 37 9d 3c 3e a8 98 ce bd 5c ed 2a bd 6d 57 57 3d
       0.18419348 -0.100877106 -0.04173027 0.05257361
000050 f9 17 31 be 45 fe 6e 3d a9 99 4b 3e f5 0d 42 be
       -0.17294301 0.05834796 0.19882835 -0.18950637
000060 56 05 45 3e 58 17 24 be da bc c7 3d 8b a6 49 be
       0.19240317 -0.1602453 0.097528175 -0.19692437
000070 36 e5 3a be 87 28 8f 3d 7e c2 37 3e ef 89 0c bd
       -0.182515 0.06990152 0.17945287 -0.03431123
000080 61 58 50 3e 26 a7 46 3d 08 d9 40 be 68 05 00 be
       0.20346214 0.04849925 -0.18832791 -0.12502062
000090 a4 f1 9f bd eb c9 7f bd 2e 38 9f 3d 02 a2 34 be
       -0.07809761 -0.062448423 0.07774387 -0.17639926
0000a0 7d 7e 86 bc 66 16 51 3e bd b5 9b 3d f9 2a 7c bd
       -0.016417736 0.204187 0.07603023 -0.06156442
0000b0 aa 04 31 3e 78 6a 2d 3e 6d 40 44 3e 26 b1 d3 bd
       0.17286935 0.16935146 0.19165201 -0.10336523
0000c0 23 3e 0c be 9e c6 41 3e b8 3b 22 bc c4 02 cb 3d
       -0.13695578 0.18923423 -0.009901933 0.09912637
0000d0 68 f7 54 be 65 77 60 be ba 9e 03 bd 70 9c 38 3e
       -0.20797503 -0.21920545 -0.032133795 0.18028426
0000e0 78 77 4b 3e 6d 1d 03 3e 2d b9 47 3e 9d 24 26 be
       0.19869792 0.12804194 0.19504233 -0.16224904
0000f0 25 c7 1f be 4b 1c 7a be a9 a6 ae 3d 2c b9 fb 3d
       -0.15603311 -0.24424855 0.08527882 0.12291178

output.weight f4 [1, 64]
000000 7e 5e 89 be d9 1c 95 3e 0c 6d 8e be b6 c1 97 be
       -0.26829904 0.29123572 -0.2781757 -0.29639977
000010 24 78 9e be b2 0a 85 3e 28 bf 64 3e 89 9d 7a 3e
       -0.30951035 0.25984722 0.22338545 0.24474157
000020 c6 5e 47 be 02 43 4c be 17 7d 9d be 8e 5d 99 be
       -0.19469747 -0.19947436 -0.30759498 -0.2995419
000030 ae c6 92 3e 3c 0f 51 3e 29 54 92 be 4b fb 59 be
       0.28667206 0.20415968 -0.28579834 -0.21287267
000040 a0 0c 9b 3e 5e 55 83 be ae e8 4e be 13 17 90 3e
       0.3028307 -0.25651067 -0.20205948 0.28142604
000050 fa de 4b be 03 6a 79 3e 4a 9c 97 3e 6e d2 99 be
       -0.19909278 0.24356847 0.29611427 -0.30043358
000060 f6 31 91 3e 4f 48 66 be 02 8f 95 3e 98 5b 65 be
       0.2835843 -0.22488521 0.2921067 -0.22398221
000070 cb fc 89 be ba 61 72 3e 3d 85 95 3e 1c b0 9c be
       -0.26950678 0.23670092 0.29203215 -0.3060311
000080 1a aa a2 3e 3f f0 8f 3e f4 18 83 be 3d 0c 73 be
       0.31770402 0.2811298 -0.25604975 -0.23735137
000090 06 a4 30 be 4d bd 9e be 16 e0 4b 3e f0 f4 92 be
       -0.1725007 -0.310038 0.19909701 -0.28702497
0000a0 29 ce 80 be ea e0 46 3e f6 bf 60 3e fc 74 80 be
       -0.25157288 0.19421735 0.21948227 -0.25089252
0000b0 a3 0d 31 3e 91 dd a4 3e 7f ea 54 3e 21 7d 95 be
       0.17290358 0.32200292 0.20792578 -0.29197028
0000c0 ac 23 93 be 55 a6 94 3e e0 97 90 be f9 e1 a1 3e
       -0.28738153 0.2903315 -0.2824087 0.31617716
0000d0 2c fe 84 be 6b 09 80 be 3c ef 4a be 0d d4 66 3e
       -0.25975168 -0.25007185 -0.19817823 0.22541828
0000e0 7e 55 82 3e 52 27 75 3e f9 96 a0 3e 6a 2d 8d be
       0.2545585 0.23940781 0.31365183 -0.2757371
0000f0 5a ba 84 be c9 e7 54 be aa 01 74 3e b8 4f 89 3e
       -0.25923425 -0.20791544 0.2382876 0.26818633
