result/vis/887/10000/Train_887_under_10000_128_128_64_0.0004_64_5_5.pth (torch, 174079 bytes, 9 tensors)

fc1.weight f4 [128, 9]
000000 b5 93 8e bd 31 94 fc bd 81 03 50 3e 79 cf 10 3f
       -0.06961767 -0.12332953 0.20313837 0.5656658
000010 e5 54 b1 be 14 a2 5b 3e f3 8b 90 bd 30 fc eb 3d
       -0.34635082 0.21448547 -0.07057943 0.1152271
000020 cb 88 91 3d 7a ae cc bd 20 54 42 3d b8 e8 f7 3c
       0.07106169 -0.09994216 0.04744351 0.030262336
000030 34 5f bb 3e 0b 18 ed bd 58 cb f5 39 ec 0a bc 3d
       0.36596072 -0.115768515 0.00046881544 0.09181771
000040 4d f6 d5 3d 46 66 0d be fc ee c7 3e 01 06 d0 3d
       0.10447369 -0.13808545 0.39049518 0.10157395
000050 0d be 98 bd 23 6f cf be 45 0f ec bc 89 d6 59 bd
       -0.07458124 -0.40514478 -0.028815875 -0.053183112
000060 fb 2a 78 be 3d f1 eb bb 14 78 d1 3e 19 6a 8a 3e
       -0.24235146 -0.0072003887 0.40911925 0.2703407
000070 65 60 cf be e3 1e 13 3e 6e ea 6a 3e 9b f0 be 3e
       -0.4050323 0.14367251 0.2294099 0.37292942
000080 fe cb 8f 3e 7f 74 22 be 21 37 6f be 8b f6 55 3c
       0.2808532 -0.15864752 -0.23360874 0.013059269
000090 d6 a3 b0 3e ae 5b 12 bc 8d 2d 00 3e dd fd c7 be
       0.34499997 -0.008932991 0.12517376 -0.3906087
0000a0 1c 9a a0 3e 2c 50 2b be 75 2a f9 3d 0a 7d 58 bd
       0.31367576 -0.16729802 0.12166301 -0.05285362
0000b0 be 97 4a bd 5b 9e 93 3d 82 7b 1c be 9c fc b4 3d
       -0.04946112 0.07207938 -0.1528149 0.08837244
0000c0 9f 27 95 3d 5a 80 9a bd ac 93 99 be 0b 93 73 bd
       0.07282948 -0.07544012 -0.29995477 -0.059466403
0000d0 52 5a 3c 3e 44 bc 79 be c7 fe d5 3e 52 de 8a 3e
       0.1839383 -0.24388224 0.41795942 0.27122742
0000e0 25 d7 4a bc da 4c cf be 88 5d 6c 3e be 84 93 3d
       -0.012380396 -0.4048832 0.23082554 0.07203053
0000f0 a2 04 9f be 60 2b 45 3e ce c4 c5 3e b9 fa cc 3e
       -0.31058222 0.19254827 0.38626713 0.40035036
000100 02 6d 5f be 4b e7 fe 3c ff 2a fd bd 57 02 ef 3d
       -0.21818927 0.031116148 -0.123617165 0.11670368
000110 68 eb 96 be dd 7e 19 bf 6f aa 62 3e 61 d1 39 3c
       -0.29476476 -0.59959203 0.22135328 0.011341424
000120 4a 08 b2 3c 78 6c cd 3b 96 3d bc 3d a6 d2 88 3e
       0.021732468 0.006269034 0.09191434 0.26723212
000130 12 7f 7a 3d 05 3c 18 3e 24 82 3f be ce c7 10 3e
       0.06115634 0.14866646 -0.18701988 0.1413872
000140 70 05 d8 be 2c 26 b4 be 39 2c 5f 3d 9c 4e 20 be
       -0.42191648 -0.35185373 0.054485533 -0.15654987
000150 8e c9 03 be dd 1b b1 be d5 f1 35 be b7 4d 2d be
       -0.12869856 -0.3459157 -0.17768033 -0.16924177
000160 21 df 39 be 83 04 e4 3e d2 3f 40 3e 6b e1 3a be
       -0.18151523 0.44534692 0.18774346 -0.18250053
000170 d6 33 37 3d 2e a4 f1 bd ce 99 53 be 16 82 ea bd
       0.04472717 -0.11798893 -0.2066414 -0.11450593
000180 de 48 bc 3c 4f 79 d5 3c 7d 6d cb 3c 93 8b 18 3b
       0.022983965 0.026058821 0.024832482 0.0023276552
000190 7b 8a 03 3f 72 f1 6f be db cc c6 3d a0 56 f2 3d
       0.5138318 -0.23431948 0.09707042 0.11832929
0001a0 a2 68 6d be 0d 21 82 be 30 60 a1 3e 1b 5e 03 3e
       -0.23184446 -0.2541584 0.31518698 0.12828867
0001b0 bf 59 ac 3e 5e 70 fc 3d e9 7a d7 3c ae 53 06 3e
       0.3366222 0.1232612 0.026303725 0.13117859
0001c0 c0 92 94 3e c0 03 59 be 59 19 62 3d 26 6c 8b 3e
       0.2901821 -0.21192837 0.055199955 0.27230948
0001d0 c5 2b d2 3e 41 ad b3 3e 5f 3b 0e be 29 73 46 be
       0.41049019 0.3509312 -0.13889836 -0.19379868
0001e0 a6 c9 c2 be 21 9b e2 3d 87 f0 9c 3e 08 31 82 be
       -0.3804447 0.11064745 0.30652258 -0.25428033
0001f0 8a 0a 46 3e 05 00 99 bc ee 81 21 be 10 18 38 3d
       0.19339958 -0.018676767 -0.1577222 0.044944823
000200 7c d7 9d 3d 05 91 12 3f b9 d6 8a bd 04 53 35 3e
       0.07707116 0.5725253 -0.06779236 0.17707449
000210 c8 77 0c 3f 23 06 c1 3e 87 70 d9 3e 71 ec b9 3d
       0.5487027 0.37699994 0.42468664 0.09078301
000220 5d 81 d7 3d 81 cc 4a 3e 6e 86 a2 be 98 90 b1 be
       0.10522721 0.19804575 -0.31743187 -0.3468063
000230 22 9b 55 be e4 09 4d be af a1 9b be 55 4b d0 bd
       -0.2085996 -0.20023304 -0.30396792 -0.101706184
000240 74 fa 80 3e c1 e2 be 3c bb 5a ba 3c f4 15 79 3e
       0.2519108 0.023301484 0.022748342 0.2432478
000250 c6 a8 94 3e 31 d9 97 3e 86 97 9b 3d 9e e9 e2 3e
       0.29035014 0.2965789 0.0759726 0.4431886
000260 90 ae 33 3e 00 8b 4c bd ec 1b b9 be b4 3a 39 be
       0.17547059 -0.04993725 -0.36154115 -0.180888
000270 e7 a5 d4 bc 32 18 11 be fb 0f 86 3e 58 1f 40 3c
       -0.025958015 -0.14169386 0.26184067 0.011726223
000280 40 b5 55 be 1d 01 eb ba fe 51 88 3e 17 cb 38 3e
       -0.20869923 -0.0017929409 0.26625055 0.18046223
000290 f6 a9 eb bd 91 ba 5a bd 13 c9 e1 bc 25 c6 a4 bc
       -0.11507027 -0.05340058 -0.0275617 -0.020114014
0002a0 21 b1 8f be cc 60 d0 bd 48 d4 1a 3e 12 c8 88 3e
       -0.28064826 -0.101747125 0.15120041 0.26715142
0002b0 f4 64 fe 3d bc 8c 1f bc 5a b9 97 3e 98 a7 ab 3e
       0.12421599 -0.0097381435 0.296336 0.335263
0002c0 1b dd 80 3e ca c0 b0 3d a3 72 33 be df 2f e8 3e
       0.2516869 0.086305216 -0.17524199 0.45349023
0002d0 97 25 62 be 96 b9 c1 bd 5e 4f 13 be ef 73 02 be
       -0.22084652 -0.09459226 -0.14385745 -0.12739538
0002e0 57 51 89 be f2 8c 73 3e 3f 31 da be 5f 74 b3 be
       -0.2681987 0.23784235 -0.42615697 -0.35049722
0002f0 b9 1e 54 be 8d 14 3b bd 43 08 ca 3d 97 e2 83 bd
       -0.20714845 -0.045673896 0.09864857 -0.06439703
000300 fe 59 a3 be 2e a4 af 3d 8e 41 60 3e e5 f4 86 be
       -0.31904596 0.08576237 0.21900007 -0.26358715
000310 16 30 33 3e 35 6a da 3e 15 a4 dd 3e 75 b6 2e be
       0.17498812 0.42659155 0.43289247 -0.1706179
000320 ce 05 61 3d ef 4e d6 be 42 65 a9 3e e6 85 1b bd
       0.054937176 -0.41857097 0.33085066 -0.037969492
000330 03 7d 09 3e c5 46 71 bc 75 7a 2f 3e f2 6c 45 3d
       0.13426594 -0.014726345 0.17136557 0.0481996
000340 f2 3f 1b 3e ef 17 f9 3d 52 b2 ec bd e0 ac df 3d
       0.15161112 0.12162768 -0.115574494 0.10921645
000350 6f 03 a1 be 70 1b 1b 3e 00 08 84 3e 17 84 cc 3e
       -0.31447932 0.15147185 0.25787354 0.39944527
000360 6a 04 9b 3e 07 1a 39 be b2 1f 1d be e6 85 b2 3d
       0.30276805 -0.18076335 -0.15344122 0.08716945
000370 11 51 85 be 83 df 8d 3e 1d 5a bb be ec 41 91 be
       -0.2603841 0.27709588 -0.36592188 -0.28370607
000380 4d 11 99 3e 71 60 3e be a3 fc 36 bc e5 b2 51 3e
       0.29896012 -0.18591477 -0.011168632 0.20478399
000390 de 38 e8 3d 24 b1 a7 3e 3c 29 9d bd 72 33 a3 be
       0.113389716 0.32752335 -0.076738805 -0.31875187
0003a0 cc 98 98 3e 8e 04 67 3d aa a7 85 bd ae ec 9b 3d
       0.29804075 0.056400828 -0.0652612 0.076135024
0003b0 3b bb 81 be 1b 91 9f 3d f3 fd 6f 3e 51 2a 75 be
       -0.25338158 0.077913485 0.23436718 -0.23941924
0003c0 96 c7 d2 be bf 35 15 bd 62 97 a6 3e f6 f1 63 bd
       -0.41167897 -0.03642821 0.3253737 -0.055650674
0003d0 74 67 6d be a6 89 62 3d be b8 10 be 3a 53 6f be
       -0.23183995 0.055307053 -0.14132974 -0.23371592
0003e0 d5 44 4a be f7 b5 b2 3e bc 46 ad 3e ec 76 79 be
       -0.1975282 0.34904453 0.3384303 -0.24361771
0003f0 c1 ed 0e 3e 70 83 27 3e 7c 7a 59 3d 0a 31 9d be
       0.13957883 0.16358733 0.053095326 -0.30701476

fc1.bias f4 [128]
000000 91 e5 cd be c7 cb b5 be 80 b5 72 3e 65 20 fe bc
       -0.40214208 -0.35507032 0.2370205 -0.031021306
000010 d0 2f f0 3e 51 f8 a2 be c3 51 cf 3c d6 a2 2c 3d
       0.46911478 -0.31830075 0.025307542 0.04214748
000020 1b 62 03 bf da 65 ae 3e c0 1f f9 3e 44 97 8d bc
       -0.5132157 0.34062082 0.48657036 -0.017284043
000030 f4 fd 91 3d a1 5f 0b 3f 4e 1f 41 bd 3c b5 06 be
       0.07128516 0.54442793 -0.047148995 -0.13155073
000040 04 de 82 bd 25 0e df be 55 c8 8f 3e f1 b7 8c 3c
       -0.06390002 -0.4356548 0.2808253 0.017177554
000050 6f 72 95 bc 3a f9 16 3e cc ab 79 3e 7d df bc bc
       -0.018243043 0.1474351 0.24381942 -0.023055786
000060 73 3c 9b 3e e4 f3 e8 3e 4f 54 0c 3e db ea b5 be
       0.30319557 0.45498574 0.13704036 -0.35530743
000070 0c 2a c7 bd af bc f6 3e 3f 5a 96 3e 85 41 98 3e
       -0.09724817 0.4819083 0.29365727 0.29737487
000080 21 bf b5 bd f1 e5 e1 3e d1 09 8f 3e ea 19 a1 3e
       -0.088743456 0.44120744 0.27937177 0.31465083
000090 69 ee ba 3e 73 99 ca bd b4 f2 0a 3f 1f 4d bc 3e
       0.36510018 -0.09892549 0.54276586 0.3677759
0000a0 fb 34 66 3e a2 07 db 3d d6 9d 69 3e 73 d1 d8 3e
       0.22481148 0.10694815 0.22814116 0.42347297
0000b0 54 b6 bb 3e 12 ca a5 be 14 f8 13 3e f5 47 53 bd
       0.36662543 -0.3238073 0.14450103 -0.051582295
0000c0 99 2e a7 3e 8a 1d 03 3f d1 1e a8 3e 0d 70 a0 3e
       0.3265274 0.5121695 0.3283601 0.31335488
0000d0 45 d5 61 3e 59 cf 99 be 7a 4c 8f 3d 1a 80 1a be
       0.22054012 -0.30041006 0.069970086 -0.1508793
0000e0 5d 59 c8 be f9 24 e2 be e2 3a e7 3e 1f 66 94 3e
       -0.3913068 -0.44168833 0.45162112 0.28984162
0000f0 d4 0c 9f be e6 bb 52 3e 8f b0 22 3d 6f cd c3 3e
       -0.31064475 0.2057949 0.03971916 0.3824267
000100 6c 53 ed 3e d6 bb 91 3d 84 fb ad 3e bc dc 54 be
       0.46352708 0.07115905 0.33980954 -0.20787328
000110 52 97 26 3e 5a ea c4 3b 57 9f 57 be 64 32 b6 3e
       0.16268662 0.006009382 -0.21056877 0.3558532
000120 46 0d 15 3d 73 a7 00 be ac 3a 21 3e da 96 8e 3d
       0.03638961 -0.12563877 0.15745038 0.069623664
000130 ef 1e 96 be 8d 55 b8 be fe 79 dc 3e 1d 2f 04 3f
       -0.29320475 -0.3600277 0.43061823 0.5163439
000140 d5 43 f3 3e 5d b0 89 3c 31 55 e4 3e 01 45 3a 3d
       0.4751269 0.01680773 0.44596246 0.045475964
000150 7e fe 66 be 4d b5 10 3e 6f a6 35 be c3 e6 8a be
       -0.22558019 0.14131661 -0.1773927 -0.27129182
000160 b8 53 46 3e ef a7 d8 be c0 98 98 3e 8b 8c ef be
       0.19367874 -0.42315623 0.2980404 -0.46786913
000170 77 9e 4e 3c 05 ff d0 be e1 03 53 3d d3 2e 0a 3f
       0.012611023 -0.40819564 0.05151737 0.539777
000180 bf 6b d8 be 32 fd a0 be c6 7f f0 3e d1 8a 8a 3e
       -0.42269704 -0.31443173 0.46972483 0.27059034
000190 0a 51 47 3d 54 77 49 bd d2 65 cc 3e 68 1d c0 3e
       0.04866127 -0.049186066 0.39921433 0.37522435
0001a0 e4 c6 ab 3d 7c c3 34 3e ac 57 bb 3e 58 a8 72 3e
       0.08387545 0.17652696 0.36590326 0.2369703
0001b0 1e d3 e1 bd 89 2c 1a be 7e 72 9e be ea 0b b8 be
       -0.110265955 -0.15056051 -0.30946726 -0.3594659
0001c0 d4 e7 f8 3e e8 38 64 be aa 98 02 3f bd a3 ef 3e
       0.4861437 -0.22287333 0.51014197 0.4680461
0001d0 61 52 0c bd 48 b7 49 3e 7e a6 6f be 73 01 61 be
       -0.03425825 0.19698822 -0.23403355 -0.21973209
0001e0 da 11 be 3e ae 26 eb 3e c2 a3 d1 be 8a fa 04 3c
       0.37122995 0.45927948 -0.4094525 0.008116374
0001f0 3f cb 42 bd 4f 18 e6 be 67 28 bd 3e f8 e0 b5 be
       -0.04755711 -0.4494042 0.36944887 -0.355232

fc2.weight f4 [128, 128]
000000 30 3a 02 3f ca d4 01 3e 9d 55 63 be f0 18 1b 3d
       0.5087004 0.12678829 -0.22200628 0.03786558
000010 0a f1 a5 bd 38 31 9c 3d bb 8d 75 bd ca e7 df bd
       -0.08102615 0.07626575 -0.059949618 -0.10932882
000020 72 58 6f 3e b7 4b b9 be 10 de 09 bd c5 1d bb 3d
       0.23373583 -0.36190578 -0.03365904 0.091365375
000030 8a b1 98 3d 75 b2 48 be 40 2b 2a 3e 24 92 57 3b
       0.07455738 -0.19599326 0.16618061 0.0032893503
000040 01 35 78 bb 19 5b 12 3d 1e 0b e0 ba e8 05 a4 bb
       -0.003787339 0.03573141 -0.0017093157 -0.005005587
000050 b3 a3 8c bd 30 bd 20 be 6a 9a 1d be da c5 4c 3c
       -0.06867161 -0.1569717 -0.15390936 0.012498343
000060 50 51 69 bc 58 f2 b8 3c 3c f5 8e bd 85 d6 80 3d
       -0.014240578 0.022576496 -0.069803685 0.06290916
000070 5a c9 e6 bd 83 37 3d 3c 25 84 91 bc ba c2 ee bd
       -0.112688735 0.01154888 -0.017763207 -0.11658235
000080 ee b6 f6 bd 24 81 1b be 6c 73 c0 bc 41 05 5a bc
       -0.1204661 -0.15185982 -0.023492537 -0.013306917
000090 2c 6d a9 bd 7b c9 6c 3d 6c a5 46 bf 78 a6 c7 bd
       -0.08272776 0.057809334 -0.77596164 -0.09748548
0000a0 89 ea 31 be 95 60 46 bd ff 63 59 be b2 94 be 3c
       -0.17374624 -0.04843195 -0.21229552 0.023264263
0000b0 12 72 51 bd d1 8f a7 3e 45 35 09 bd 02 00 7a bd
       -0.051134177 0.3272691 -0.033498067 -0.061035164
0000c0 6b f7 6d be 79 11 1d be 06 79 e8 bd 9a 92 c4 bd
       -0.23238914 -0.15338697 -0.113512084 -0.095982745
0000d0 e1 40 65 be ee 03 fa 3e f7 d3 a0 bd ef ce 2b 3d
       -0.2238803 0.48831123 -0.07852929 0.041945394
0000e0 b8 d5 5f 3d 0a 9c 64 3b 0f d2 ce be 31 bd c9 be
       0.054647177 0.0034883046 -0.40394637 -0.39402154
0000f0 f4 5b e6 3e 0e e4 e6 3d ac b7 a0 bd dc b7 83 bd
       0.4499203 0.11273967 -0.07847533 -0.06431553
000100 8c 4d 18 be 08 98 a8 bc 6f 55 2f be a6 42 35 bd
       -0.14873332 -0.020580307 -0.17122434 -0.044253014
000110 5f 9c 18 3d 50 5b 39 3d 76 06 b2 3d 91 d0 a2 bd
       0.037258502 0.045253098 0.086926386 -0.07949937
000120 48 56 54 3c d9 6a d2 be 85 5f 26 be 6b fa 7a be
       0.012960024 -0.41097143 -0.16247375 -0.2450959
000130 fb 22 1a bd d9 91 5b 3e 68 b3 15 be e8 42 43 be
       -0.037631016 0.21442355 -0.1461922 -0.19068491
000140 0f a2 37 be 30 30 5e bc 34 92 6a be 9d 79 64 3d
       -0.17932914 -0.0135612935 -0.22907335 0.055780042
000150 5b 4f f7 3d 86 60 81 be 04 d6 71 3d be 1f 46 3d
       0.12075683 -0.25268954 0.05904199 0.048370115
000160 55 d3 e8 3c d0 d3 6a 3d 45 92 f6 bd ed e3 da 3e
       0.028421083 0.057330906 -0.120396174 0.4275202
000170 bd 13 e2 3d b6 91 14 3e 8e ba 58 3f 4d 72 49 be
       0.11038921 0.1450871 0.8465966 -0.19672509
000180 c8 9c b5 3d 8d 64 c6 3c f3 cd ef bd 30 8a 8f be
       0.08867794 0.024217868 -0.117092036 -0.28035116
000190 aa ec 5f 3c 77 2e 59 3d 94 fc df be 14 1c af bd
       0.013667265 0.053022828 -0.4374739 -0.08550277
0001a0 1d 85 08 bc ee 57 39 be 1a 70 cd 3c dc 03 d5 3d
       -0.008332518 -0.18099949 0.025077868 0.10401127
0001b0 04 ff c2 3c 8e af d3 bc 6a 9d da 39 c2 1d 21 bb
       0.023803242 -0.025840547 0.00041697483 -0.0024584387
0001c0 d0 d0 4d bd ef 32 52 3d 99 53 8a be 3d ea 96 be
       -0.050247967 0.051318105 -0.27016905 -0.29475585
0001d0 19 0e 41 be 89 53 03 be db 13 4a bb d3 88 1b bd
       -0.18853034 -0.12824835 -0.0030834589 -0.037972283
0001e0 71 a4 27 bd 3e e5 17 bf 74 10 60 3f f5 06 f0 be
       -0.040928308 -0.5933417 0.87525105 -0.46880308
0001f0 1a a9 a9 3c dc 94 88 3e f6 3c 44 3d 84 5e fd bc
       0.020710517 0.2667607 0.0479097 -0.030928858
000200 64 73 17 bf 75 8e 81 bd ff a3 8d 3e 01 30 8b 3c
       -0.5916045 -0.06326 0.27664182 0.016990663
000210 2d 56 1e 3d 66 11 16 be 48 4d 82 3d 09 11 a5 3d
       0.038656402 -0.14655074 0.063623965 0.0805989
000220 32 7e 6b be 59 01 d3 3e 65 89 11 3e 68 ab 16 be
       -0.22997358 0.41211966 0.14212568 -0.14713824
000230 cb 01 c7 3c b8 75 07 3e 62 65 12 be 1d 94 d1 3d
       0.024292847 0.132285 -0.14296487 0.102333285
000240 71 02 84 bd 3c 7b 1a 3b 26 fb a0 3d e0 43 a0 3c
       -0.06445778 0.0023571989 0.07860403 0.019563615
000250 f3 50 79 3d 66 d6 6b 3e 37 50 4d 3e 2a 95 bb bc
       0.060868215 0.23031005 0.20050131 -0.022898275
000260 64 68 b2 3d e4 d3 90 3c 97 73 f4 3d 95 32 11 bd
       0.08711317 0.017679162 0.119361095 -0.03544863
000270 5c 02 39 3e c7 1c fb bb 51 3d 1d 3d 7f 3b cb bc
       0.18067306 -0.0076633426 0.038388554 -0.024808643
000280 70 02 3e 3e 6b 28 4e 3e 1a 30 94 3d 3c 86 79 bd
       0.18555617 0.20132606 0.07235737 -0.06091903
000290 10 60 f7 bb a1 44 fe 3c ab a9 40 3f 48 dd 56 3d
       -0.0075492933 0.031038584 0.7525889 0.052457124
0002a0 c5 69 66 3d ef 6b ba 3c c9 eb 52 3e 01 d4 e8 3d
       0.056253213 0.022756545 0.20597757 0.113685615
0002b0 e1 88 a5 3d 5b d6 89 be 22 1b 83 bd db 6b bc bc
       0.08082748 -0.26921353 -0.064016595 -0.023000648
0002c0 dc fd 8a 3e dd dd ad 3c 9c ea 7b 3d 21 a8 a3 3c
       0.27146804 0.021223957 0.061503038 0.019977631
0002d0 0d 0c 21 3e 68 b6 df be ca a0 ab 3d df 94 c6 3d
       0.15727253 -0.43693852 0.083802775 0.09696364
0002e0 c5 4c d0 bd 93 b8 72 bd c3 c9 9b 3e 45 be d0 3e
       -0.101708926 -0.059258055 0.3042737 0.40770164
0002f0 0e a3 05 bf 7a 46 ba bd 68 20 08 bd 3d 74 28 3d
       -0.52201927 -0.090954736 -0.03323403 0.04112648
000300 07 af 2e 3e eb 8f 6d bd cd 26 3c 3e 71 7a 22 bd
       0.17058955 -0.05799858 0.18374176 -0.03966755
000310 67 95 d8 bc 59 c5 c5 bd 85 db ff bd 3d 4d 50 3d
       -0.026438428 -0.09656782 -0.12493042 0.05085491
000320 2e 7a e1 bd d1 05 eb 3e 71 02 9d 3e 6e a2 09 3e
       -0.11009632 0.45902875 0.30665925 0.13440868
000330 a9 28 31 bd 04 2c 27 be cb 23 ee 3d da 68 19 3e
       -0.043251667 -0.16325384 0.11627921 0.14981404
000340 9e 77 20 3e 08 16 f6 3d 98 56 53 3e 76 52 7f 3d
       0.1567063 0.12015921 0.20638502 0.0623345
000350 16 63 26 bd 45 35 8c 3e 5f 30 62 3c 95 2d aa bc
       -0.04062184 0.2738439 0.013805478 -0.020773688
000360 f4 46 54 3d 02 30 1f be d4 92 84 3d c6 bc f7 be
       0.05182548 -0.15545657 0.06473318 -0.4838621
000370 7a e1 4c be cf a0 33 be 6b ff 48 bf b9 c8 54 3e
       -0.20007887 -0.17541812 -0.78514737 0.20779695
000380 64 7e 85 bc 1d 11 9a bc 69 d7 c4 3d 54 ff d8 3e
       -0.01629562 -0.018806988 0.09611399 0.423823
000390 be f6 c7 3d 52 ee 12 bd 97 9c c1 3e d3 f2 07 3e
       0.09763859 -0.03587181 0.3781478 0.13276224
0003a0 ce bd 67 bd 01 f7 35 3e 55 11 90 3c a4 21 31 bd
       -0.056577496 0.17770006 0.01758639 -0.043244973
0003b0 b7 83 ec 3d 4a 18 9b 3d dd 80 c0 bc db 5f 99 bd
       0.1154856 0.07572992 -0.023498947 -0.07488986
0003c0 e8 b1 d1 3c e3 18 30 3d d0 9f d4 3d 17 74 a7 3e
       0.025597528 0.042992484 0.10382044 0.32705757
0003d0 b6 6a a5 3d fc 66 19 3e 10 a4 9b bc 01 f5 cc 3d
       0.08076994 0.14980692 -0.01899913 0.10007668
0003e0 30 fd d8 3d 99 29 07 3f cf 12 63 bf cb fd d5 3e
       0.10595167 0.5279785 -0.88700575 0.4179519
0003f0 7c bf 01 be c2 f7 be be 6d 93 20 3d 9c 06 84 3c
       -0.12670702 -0.372984 0.039203096 0.016116433

fc2.bias f4 [128]
000000 ff ce 36 be 0e ba 5e 3e 13 9a ed 3d 50 e4 1f 3e
       -0.178524 0.21750662 0.11601653 0.15614438
000010 dd 2c 53 be f3 97 5a be 87 bd 58 be ce b2 a5 bd
       -0.20622583 -0.21347027 -0.21166049 -0.08090745
000020 b7 3c 58 3e 35 87 ad bd af 27 3d 3e 82 76 c5 bd
       0.21116911 -0.08473054 0.1847217 -0.09641744
000030 b0 5c 5e be b9 c3 5a be 5e f4 67 3e 1c 7d 8c bd
       -0.21715045 -0.21363725 0.22651812 -0.068598
000040 db a7 6c 3e 80 cc 26 be aa 89 57 3e 1c 08 2f 3e
       0.23110907 -0.16288948 0.21048608 0.17092937
000050 c1 9a 37 be 32 d2 47 3e f8 2d 5c be 2f cd 75 be
       -0.17930128 0.19513777 -0.2150191 -0.24004053
000060 30 1b 49 be a1 30 e0 3d 11 dd 31 3e f9 2b 27 be
       -0.19639277 0.10946775 0.17369486 -0.16325368
000070 52 c3 e9 3d c9 f1 32 3e fc 1b 45 3e 0d 0d 22 3e
       0.114142075 0.17475046 0.19248956 0.15825291
000080 d6 81 4b 3e fd 41 2d be c2 ed 20 3e 96 9e d0 3d
       0.19873747 -0.16919704 0.15715697 0.10186498
000090 b4 92 22 be 34 0a 6c 3e b2 8a db bd 87 e0 36 3e
       -0.15876275 0.23050767 -0.107198134 0.17859088
0000a0 a7 53 4d be 11 26 1e 3e 72 df 24 3e cf 06 72 be
       -0.20051442 0.15444209 0.16100863 -0.2363541
0000b0 6a 23 71 be 07 16 e3 3d a4 62 23 3e 01 f2 3d 3e
       -0.23548666 0.11088186 0.15955597 0.18549348
0000c0 8c 76 64 be b6 9f 36 be 93 dd f6 bd 4f 8b e9 3d
       -0.22310847 -0.17834362 -0.12053981 0.11403524
0000d0 1c 1c 01 be 6d 40 e4 bd b8 0b ef 3d 5f 51 6d 3e
       -0.12608379 -0.11145101 0.11672157 0.23175572
0000e0 7c e1 28 3e d8 26 1a be 22 17 1c 3e 42 1f 6b be
       0.16492265 -0.1505388 0.152432 -0.22961143
0000f0 2c 38 45 3e 95 18 54 be a8 b0 5a 3e d4 67 54 be
       0.19259709 -0.20712502 0.21356452 -0.20742732
000100 94 0e 0d 3e e5 46 57 be 5c d0 29 be b4 3c 1f 3e
       0.13775092 -0.21023138 -0.16583389 0.155505
000110 34 be 64 be 22 55 04 be 2d 74 29 be 8d 40 10 be
       -0.22338182 -0.129231 -0.16548224 -0.14087124
000120 e8 82 68 3e 2b cc 39 3e 36 4d 3f 3e fc ec 1b be
       0.22706187 0.1814429 0.18681797 -0.15227121
000130 2d a1 cd bd 29 8f e0 bd 69 0e ad 3d 40 7a da 3d
       -0.100405075 -0.10964806 0.08450014 0.106678486
000140 a2 67 5f be 75 b2 39 be ed a3 5a 3e f8 9b 51 be
       -0.21816877 -0.18134482 0.21351595 -0.20469654
000150 6f b3 be bd c2 91 c0 3d 87 7b 05 be 28 f0 62 3e
       -0.09311568 0.09402801 -0.13035403 0.22161925
000160 46 4a 11 3e 04 51 24 3e 8e b7 36 3e c0 c3 43 3e
       0.1418849 0.1604653 0.17843458 0.19117641
000170 97 d4 32 3e c7 d8 e9 3d f4 78 52 3e 83 7e f7 bd
       0.17463909 0.114183 0.20553952 -0.12084677
000180 60 3a 69 3e a6 25 35 3e 07 28 c4 3d 1f f6 0d 3e
       0.22776175 0.17690143 0.09577947 0.13863419
000190 1c 78 e2 bd 14 40 42 3e 89 d9 16 3e 78 81 3a 3e
       -0.11058065 0.18969756 0.1473142 0.18213451
0001a0 eb f2 2e be f4 03 ae bd ac fb e7 bd 60 a0 d7 3d
       -0.17084853 -0.08496848 -0.113272995 0.10528636
0001b0 f5 2c 3d 3e 62 4d 5b 3e f1 7d b2 3d 0c 8c 36 be
       0.18474181 0.21416238 0.08715428 -0.17826861
0001c0 ec 85 3a 3e 6c 5c c9 bd 9c a7 98 bd ac f3 2f 3e
       0.1821515 -0.09832081 -0.07453844 0.17182797
0001d0 4f b9 5c 3e 80 aa 27 be 42 ed 74 3e c0 8f 19 3e
       0.21555065 -0.16373634 0.23918632 0.14996243
0001e0 22 dc f5 bd 4e 39 3c 3e 29 69 6f be 8c 33 d3 3d
       -0.120048776 0.18381235 -0.23379959 0.10312566
0001f0 4a f3 29 be 5a 11 e1 bd 83 80 2d 3e c3 74 36 3e
       -0.16596714 -0.10989638 0.16943555 0.17817979

fc3.weight f4 [128, 128]
000000 43 20 84 3e 17 de 28 be 06 d7 5d be 2f 5e 24 be
       0.25805864 -0.1649097 -0.21664056 -0.16051553
000010 37 dc 28 3e a1 66 29 3e 78 03 f1 3d b2 88 73 3e
       0.16490255 0.16543056 0.1176824 0.23782614
000020 c9 b0 0f be 24 75 4f 3e 3d 95 9a be bd df 49 3e
       -0.14032282 0.2025953 -0.30191985 0.19714256
000030 6a 3f 12 3e f5 7e 09 3e 53 98 61 be f8 7f 73 3e
       0.14282003 0.13427337 -0.22030763 0.23779285
000040 c9 bb 11 be c8 8d e2 3d 01 61 83 be c7 c1 87 be
       -0.1423179 0.11062199 -0.25659946 -0.26515028
000050 da 36 75 3e cb 91 55 be 65 3c 4a 3e 88 8a 43 3e
       0.23946705 -0.20856397 0.19749601 0.19095814
000060 80 29 49 3e a0 8b 8b be c4 42 4a be fb b5 6d 3e
       0.19644737 -0.27254963 -0.19752032 0.23213951
000070 23 09 40 be 76 c8 32 be 38 9c 37 be 93 06 8a be
       -0.18753485 -0.17459282 -0.17930686 -0.2695814
000080 96 aa f7 bd aa f7 8d 3e 43 0d 09 be ad d3 3d be
       -0.120930836 0.27728015 -0.13383965 -0.18537779
000090 94 ac 84 3e 9d a3 55 be 0b 7d 57 3e cb 12 13 be
       0.25912917 -0.20863195 0.21043794 -0.14362638
0000a0 fc 0e 0d 3e a6 7f 82 be 4c ec 50 be de a9 7e 3e
       0.13775247 -0.25488013 -0.2040264 0.24869487
0000b0 09 62 8c 3e dc 8f 63 be 9c f3 7c be 18 f4 90 be
       0.27418545 -0.22222847 -0.24702305 -0.2831123
0000c0 9f 12 8e 3e ab b4 52 3e 87 60 18 3e e5 8e 84 be
       0.27748582 0.20576732 0.14880572 -0.2589027
0000d0 12 0d 32 3e 2a 0b 88 3e c1 76 0b be 62 4c 8c be
       0.17387798 0.26571018 -0.1361952 -0.27402025
0000e0 14 b6 31 be b6 c6 3d 3e ff bf eb bd 6b 97 19 3e
       -0.17354614 0.18532833 -0.1151123 0.14999168
0000f0 37 ab 5e be 2c 5b 65 3e f3 fb 76 be 11 76 0b 3e
       -0.21745001 0.2239806 -0.24119548 0.13619258
000100 38 44 4d be 02 83 8e 3e 57 97 01 3e d3 32 3f be
       -0.20045555 0.27834326 0.12655388 -0.18671732
000110 51 ff 8e 3e ee e4 8a 3e 28 4c 4d 3e a4 de 43 3e
       0.27929166 0.27127784 0.20048583 0.191279
000120 e6 13 85 be 47 1f c5 bd a2 19 4e be 83 3a 4c 3e
       -0.25991744 -0.09625106 -0.20126966 0.19944195
000130 be 8d 55 3e 7a 90 44 3e 5c 7c 54 be da 82 37 be
       0.20854852 0.19195738 -0.20750564 -0.1792101
000140 a1 d7 86 3e c7 51 85 3e e6 3a 9a be be c1 33 3e
       0.26336387 0.26038954 -0.3012306 0.17554376
000150 62 ed 3e 3e ad aa 31 be ed 68 13 3e 95 a5 55 be
       0.18645242 -0.17350264 0.14395495 -0.20863946
000160 9b 81 6c be 0f 79 84 be 6f 7d 4e be b5 66 14 be
       -0.23096316 -0.2587361 -0.20165037 -0.14492305
000170 0e b5 48 be 9e a1 6b be 9a fb 4a be 46 fa 13 3e
       -0.19600317 -0.23010871 -0.19822541 0.1445094
000180 ff 41 09 be 98 7e 2c be 3b 62 87 be b3 ee 94 be
       -0.13404082 -0.16845167 -0.2644213 -0.29088363
000190 aa bd 1d 3e c7 ba 74 be da 8c 48 be b7 96 79 be
       0.15404382 -0.23899375 -0.1958498 -0.243739
0001a0 b8 6e d0 3d 2e dc 18 3e c2 59 0d 3e 55 4a 7d be
       0.10177368 0.14927742 0.13803771 -0.24735387
0001b0 98 00 10 be 04 8d 66 be ff f4 95 be aa f1 0c 3e
       -0.14062726 -0.2251473 -0.2928848 0.13764063
0001c0 17 89 e6 bd 31 1f 53 3e 18 93 18 3e 65 c3 48 be
       -0.112566166 0.20617367 0.14899862 -0.19605787
0001d0 62 07 33 be b9 83 85 3e be 80 58 be 9b 2b 60 be
       -0.17483285 0.2607706 -0.21142861 -0.21891634
0001e0 e3 74 2c 3e 6c 92 90 be c3 88 7d 3e bc 27 50 be
       0.16841464 -0.2823671 0.24759202 -0.20327657
0001f0 29 7f 52 3e 00 4c 52 3e b0 07 51 be 93 24 e0 bd
       0.2055632 0.20536804 -0.20413089 -0.10944476
000200 cd a4 3f be 51 87 83 3e 04 1f 51 3e c0 53 7b 3e
       -0.1871521 0.25689176 0.20421988 0.24543667
000210 82 26 71 be 41 ed 09 be 42 40 80 be 4a be 3a be
       -0.23549846 -0.13469411 -0.25049025 -0.18236652
000220 ab da 83 3e 1b d8 6d be 46 27 35 3e da f0 29 be
       0.25752768 -0.23226969 0.17690763 -0.16595784
000230 82 60 58 be de 16 5c be 62 0f 56 3e 36 7e 2c be
       -0.21130565 -0.21493098 0.20904306 -0.1684502
000240 97 30 81 3e b2 d0 68 be 9e 12 4f 3e 14 e4 9c 3e
       0.25232384 -0.22735861 0.20221946 0.3064276
000250 cc 7e 04 be 70 51 1e 3e ac aa 8a be e2 84 39 be
       -0.12938994 0.15460753 -0.27083337 -0.18117097
000260 bf b3 69 be c0 c3 2b 3e dd 3e 5b 3e 89 c5 83 be
       -0.22822474 0.16773891 0.21410699 -0.25736645
000270 fc 8a 12 3e fe 75 3a 3e 0f cd 6a 3e e1 bd 10 3e
       0.14310831 0.18209073 0.22929786 0.14134933
000280 f8 a0 94 3e a4 51 25 be 9c f5 78 3e 86 ce 28 3e
       0.2902906 -0.16144425 0.24312443 0.16485032
000290 5f 17 3a be b6 8a ef 3d fa c6 2a be 2a 94 7f 3e
       -0.18172978 0.11696379 -0.16677466 0.24958864
0002a0 1d f6 0a be d5 65 76 3e 53 f6 8d 3e fe 44 93 be
       -0.13570447 0.24062283 0.27726993 -0.28763574
0002b0 e1 83 79 be 91 f4 57 3e 3d ab 6c 3e 5c 1c 90 3e
       -0.24366714 0.21089388 0.23112197 0.28146636
0002c0 ea 61 93 be b6 79 89 be 38 b6 25 be f4 d1 79 3e
       -0.2878564 -0.2685067 -0.16182792 0.24396497
0002d0 02 37 41 be 06 eb 1a be 70 65 89 3e 2a 50 8d 3e
       -0.1886864 -0.15128717 0.26835203 0.27600223
0002e0 5b e2 6b 3e 4b 00 93 be 1b 9b 36 3e 59 3d 7b be
       0.23035567 -0.2871116 0.17832606 -0.24535121
0002f0 c3 26 22 3e f5 df 00 be 8f ce 6b 3e e9 29 7e be
       0.15835099 -0.12585433 0.23028015 -0.24820675
000300 bb 7a 7f 3e 49 cf 5d be f9 f1 84 be 22 10 78 3e
       0.24949162 -0.21661104 -0.2596586 0.24224904
000310 6a 58 88 be 8e 40 79 be 83 71 72 be 9e 90 86 be
       -0.26629955 -0.24341032 -0.23676114 -0.2628221
000320 25 b1 2e 3e 2d 3f 77 3e c0 18 3c 3e 62 38 f1 bd
       0.17059763 0.24145193 0.18368816 -0.11778332
000330 a4 1d 3f be 92 81 7a be 20 39 4d 3e c8 a1 4d 3e
       -0.18663651 -0.2446349 0.20041323 0.20081246
000340 00 14 33 be 32 d8 0d be cc 15 6b 3e 4b e4 96 be
       -0.17488098 -0.13852003 0.22957534 -0.2947105
000350 fa 31 39 be 5a 19 71 3e 75 8b 8e be a1 fc 09 3e
       -0.18085471 0.23544827 -0.27840772 0.13475277
000360 f6 a3 5e 3e 73 76 da 3d 8b 5b 0e 3e f5 67 8d 3e
       0.21742234 0.10667124 0.13902108 0.27618375
000370 a2 79 56 3e 7a d0 42 3e 0d 59 75 3e 02 7a 1e be
       0.20944837 0.1902484 0.23959751 -0.1547623
000380 59 03 52 3e 53 5b 65 3e 9a 49 88 3e dc b9 91 3e
       0.2050909 0.22398119 0.26618654 0.28462112
000390 2c 93 82 be 6b 5c 2b 3e 1f f4 8d 3e 1f 89 84 3e
       -0.25502908 0.16734473 0.27725312 0.25885865
0003a0 52 97 41 be ac 89 2c be a0 30 ff bd e4 18 1c 3e
       -0.1890538 -0.16849393 -0.12460446 0.1524387
0003b0 ab e1 58 3e f2 b1 6a 3e d5 5b 56 3e f3 18 72 be
       0.21179835 0.22919443 0.20933469 -0.2364233
0003c0 9e 4b 43 3e 85 b6 94 be 2e 08 85 be ed 30 13 3e
       0.19071814 -0.290455 -0.25982803 0.14374132
0003d0 78 b3 36 3e 78 6f 82 be 2d 70 5c 3e 53 e3 eb 3d
       0.178419 -0.2547567 0.21527167 0.11517968
0003e0 51 12 64 be 45 33 14 3e c9 f9 43 be 82 66 3f 3e
       -0.22272612 0.14472683 -0.19138254 0.18691447
0003f0 16 a8 50 be b5 e4 6d be 07 18 0f 3e 95 20 82 3e
       -0.2037662 -0.23231776 0.1397401 0.25415483

fc3.bias f4 [128]
000000 32 66 47 be 5a 48 65 3e fb 31 46 3e 9c a1 42 3e
       -0.19472578 0.22390881 0.19355004 0.19006962
000010 d4 cf 0c 3e 2c 95 53 3d 24 57 6e 3d 0f 45 59 be
       0.13751155 0.051655933 0.058188573 -0.2121775
000020 b3 2e 12 3e 26 a2 31 3e 7c 26 3a be 78 2b 08 be
       0.14275627 0.17347011 -0.18178743 -0.13297832
000030 17 ea b2 3d dc 51 f2 bd f8 ce f2 3d 18 1b a8 3d
       0.08736055 -0.1183202 0.118558824 0.08208293
000040 ce 40 b0 bd 48 8c 11 3e 28 a6 df bd e7 77 c9 bd
       -0.086061105 0.1421367 -0.10920364 -0.09837323
000050 39 55 d4 bd 5d 4e c5 3d b5 ab ea 3d ae d4 97 3d
       -0.103678174 0.09634087 0.11458532 0.07413612
000060 1f 61 16 3e b7 48 f2 bd bd cb 3e 3e ab 50 30 be
       0.14685486 -0.118302755 0.18632407 -0.17218272
000070 46 ec 29 3e e5 98 78 bd 2d ad 99 3d d7 83 89 bd
       0.16594037 -0.060692687 0.07503734 -0.067145996
000080 58 30 0a be ad bf ce 3d 0a fd 1f be ed b5 c8 3d
       -0.13495004 0.10095153 -0.1562387 0.098003246
000090 c9 be be 3d c3 e8 4e 3e e2 66 3c be 92 48 24 3e
       0.09313733 0.20205979 -0.18398622 0.16043308
0000a0 d8 ed c1 3d 02 a8 c5 bd 88 1a 81 3d b5 f1 4d 3d
       0.09469193 -0.096511856 0.063038886 0.050279338
0000b0 5d 69 56 3e ea e1 c7 3d d0 bb d7 bd 3e de 3a 3e
       0.2093863 0.097598866 -0.10533869 0.18248841
0000c0 1d 54 d6 bd ba b8 15 3e 65 ff e7 bd 61 a4 17 3e
       -0.10465262 0.14621249 -0.113280095 0.148088
0000d0 ff e8 50 3d fe 5f 5b 3d bc 81 2f 3e 03 9f 32 3e
       0.051003452 0.053558342 0.17139333 0.1744347
0000e0 40 32 24 be 7a 15 32 be e0 75 fd bc eb ff 1b be
       -0.16034794 -0.17391005 -0.030939996 -0.15234344
0000f0 27 6c 31 be ac ff ef 3d 9e ad 35 be 6c 5a 05 3e
       -0.17326413 0.117186874 -0.17742011 0.13022774
000100 9e 5e 56 be d9 b6 a0 3d 22 7f 05 be 51 fd f9 bd
       -0.20934531 0.078473754 -0.13036779 -0.122065194
000110 18 e1 1f 3e a7 17 4f 3e ca 20 97 3d 33 fb cd bd
       0.1561321 0.20223866 0.07379301 -0.10057678
000120 34 3c 3b be b8 46 06 be 02 e5 f8 bd 17 58 56 be
       -0.18284684 -0.13112915 -0.12153055 -0.20932041
000130 9d 33 24 3e 52 30 24 be fa 98 52 3d ce 0c e5 bd
       0.16035314 -0.16034058 0.05141542 -0.11184083
000140 29 c3 cd bd 5b 7a 0b 3e 3d d5 ea 3d 2d 8b 3d 3e
       -0.100469895 0.13620894 0.11466453 0.18510123
000150 4f cc 30 3e 00 f0 6f 3d 72 ca 46 3e e8 1a 45 be
       0.17265438 0.05857849 0.19413164 -0.19248545
000160 9b e7 51 3e 31 5a 5f be de ec 37 3e 2f b8 31 3e
       0.20498507 -0.21811749 0.17961451 0.17355417
000170 51 c4 46 be 39 05 17 3e ff 4d 3d 3e c3 67 27 be
       -0.19410826 0.14748086 0.18486784 -0.16348176
000180 8f fa 50 3e 8c 2d a9 bd 45 91 00 3e 73 77 37 3e
       0.2040808 -0.082606405 0.12555416 0.1791666
000190 f0 2b 1f 3e e2 87 57 3e 93 1d f6 bd 22 87 4e be
       0.15544105 0.21047929 -0.120173596 -0.20168737
0001a0 4b ab 54 3d df 90 de bd bb 7a 29 3e 3d d2 51 be
       0.05192117 -0.10867476 0.16550724 -0.20490356
0001b0 6c 43 02 be bd 14 a3 bd 44 a5 e9 3d 9f 73 b2 3d
       -0.12721032 -0.0796294 0.11408475 0.08713459
0001c0 bd 75 1d 3e 5b 6d dd bd 7f 5f 40 3e 73 34 3c be
       0.15376945 -0.108118735 0.18786429 -0.18379383
0001d0 74 2e 08 be 20 20 6d 3d 1d aa 18 be ac 50 17 3e
       -0.1329897 0.057891965 -0.14908643 0.14776868
0001e0 43 fb 0c be eb a6 ae bd d0 4d 8c bd 86 81 61 be
       -0.13767724 -0.08527931 -0.06850779 -0.22022066
0001f0 47 a0 69 3d 01 84 5a be 1c e3 8c 3d 0c fa e7 bd
       0.057037618 -0.21339418 0.06879255 -0.113269895

fc4.weight f4 [64, 128]
000000 a0 bf 79 be c2 33 32 3e 83 90 3e 3e 87 96 13 3e
       -0.24389505 0.17402557 0.18609814 0.1441289
000010 7b f2 8f 3e 72 0a 84 3e 32 11 4f 3e c6 9a 3d be
       0.28114685 0.2578922 0.20221403 -0.18516073
000020 b7 c0 82 3e 64 23 90 3e 43 df 5b be 77 94 84 be
       0.25537655 0.28152 -0.21471886 -0.2589452
000030 e6 d2 87 3e 4d 16 81 be da d2 84 3e f3 f0 0e 3e
       0.2652809 -0.25212327 0.25942117 0.13959102
000040 8d 1a 6b be 65 b1 4e 3e 05 1b 6a be f6 c6 26 be
       -0.22959347 0.20184858 -0.2286187 -0.16286835
000050 83 c4 3c be 8b 70 58 3e 69 88 82 3e 97 d8 7c 3e
       -0.18434338 0.21136682 0.25494698 0.24691997
000060 8c f4 08 3e aa 48 76 be 1f eb 5c 3e ac 12 64 be
       0.13374537 -0.24051157 0.21574067 -0.22272748
000070 07 cd 90 3e bd 67 fa bd c1 92 4b 3e 15 51 8a be
       0.28281423 -0.12226818 0.19880201 -0.27014986
000080 68 50 92 be 8a b9 ea 3d 06 25 8c be b9 05 88 3e
       -0.2857697 0.1146117 -0.27371997 0.26566866
000090 61 ae 24 3e 11 4a 14 3e 70 87 03 be 6c b2 fd 3d
       0.16082145 0.14481379 -0.12844634 0.12387547
0000a0 36 01 8a 3e 15 e9 5f be ba e8 3e 3e 22 e6 78 3e
       0.2695405 -0.21866257 0.18643466 0.24306539
0000b0 cf 1d 80 3e f0 5a 2b 3e 15 06 ef bd a1 21 62 3e
       0.25022742 0.16733909 -0.11671082 0.22083141
0000c0 ef f6 10 be 79 c4 81 3e e0 0f 80 be 4e 53 4f 3e
       -0.14156698 0.2534521 -0.25012112 0.20246622
0000d0 b8 70 f0 3d 44 7f 08 3e 1d a7 6c 3e 3a 02 41 3e
       0.117402494 0.13329798 0.23110624 0.18848506
0000e0 36 59 89 be bf 63 46 be a1 9e 64 be bd d1 89 be
       -0.26825875 -0.19373988 -0.22326137 -0.2691783
0000f0 75 57 38 be a3 f6 42 3e 8a 19 38 be 77 16 31 3e
       -0.18002112 0.19039397 -0.17978492 0.17293726
000100 44 49 5b be 55 e0 72 3e 4e 40 82 be ea 7a 4d be
       -0.21414667 0.23718388 -0.25439686 -0.20066419
000110 f0 b6 93 3e 62 89 6a 3e 3a 3b 68 3e 42 d3 92 be
       0.28850508 0.2290397 0.22678843 -0.28676802
000120 a5 a3 22 be d0 fe 8e be 4e 89 08 be 85 31 2f be
       -0.15882738 -0.27928782 -0.13333628 -0.17108734
000130 31 12 13 3e 7d 54 4c be 7a 72 8c 3e 82 52 84 be
       0.14362408 -0.19954105 0.2743109 -0.25844198
000140 29 c9 46 be a5 07 8f 3e ad 56 4a 3e 6d 76 85 3e
       -0.19412674 0.2793552 0.19759627 0.26066914
000150 97 e9 85 3e 75 67 3c 3e e4 37 8f 3e f5 3f 61 be
       0.26154777 0.1839884 0.2797233 -0.21997054
000160 4f ab 94 3e 8d ec 58 be 73 4c 76 3e 86 ba ff 3d
       0.29036948 -0.21183987 0.240526 0.124867484
000170 a3 0a 3a be 60 b4 5d 3e 73 e3 01 3e 10 c8 71 be
       -0.1816812 0.21650839 0.12684421 -0.23611474
000180 94 be 86 3e 7a eb 87 be 3e 76 5e 3e ac fe 5b 3e
       0.26317275 -0.26546842 0.21724793 0.21483868
000190 07 34 4d 3e 2a 3b 3e 3e ae 6b 35 be df 0a 57 be
       0.20039378 0.18577257 -0.17716858 -0.2100024
0001a0 a4 df f1 3d be 5c 51 be 77 53 80 3e a4 80 94 be
       0.11810234 -0.20445535 0.2506368 -0.29004395
0001b0 35 3d 83 be e7 b8 84 be c1 04 19 3e 0f 3d 3a 3e
       -0.25632635 -0.2592232 0.1494322 0.18187355
0001c0 a4 f9 8d 3e ca df 24 be 92 1a 6b 3e 56 80 29 be
       0.27729523 -0.16100994 0.22959355 -0.16552863
0001d0 2a de 93 be 44 ac f6 3d 7b c1 f9 bd 3d 67 89 3e
       -0.28880435 0.12044576 -0.121951066 0.26836577
0001e0 b4 75 13 be 94 4e 8e be c1 3f 88 be d7 ed 00 be
       -0.14400369 -0.27794325 -0.2661114 -0.12590729
0001f0 05 7d 17 3e c9 d5 56 be e6 7e 71 3e 76 09 f1 bd
       0.14793785 -0.2097999 0.23583564 -0.11769383
000200 5f 73 60 be f2 4a 10 3e 23 61 11 3e 1a 24 2a 3e
       -0.2191901 0.1409109 0.14197211 0.16615334
000210 fd 44 55 3e f6 da 56 3e f8 e4 1b 3e 91 12 6d be
       0.20827098 0.20981964 0.15224063 -0.23151614
000220 ef fa 51 3e c5 69 4c 3e 1e 59 ef bd e9 a3 8d be
       0.2050588 0.19962223 -0.1168692 -0.27664116
000230 58 0a 8f 3e 15 6c 2b be 8b b3 75 3e 8d cb 00 3e
       0.2793758 -0.16740449 0.23994271 0.12577648
000240 28 cf 6e be f6 06 e1 3d 9d e0 58 be fb b4 30 be
       -0.23321211 0.10987656 -0.21179433 -0.17256539
000250 33 d1 89 be 1b c9 8b 3e 7d 29 8c 3e 70 7a 09 3e
       -0.2691742 0.2730187 0.27375403 0.13425612
000260 16 b5 47 3e d0 27 0f be aa ea 8f 3e 65 ed 7c be
       0.19502673 -0.13980031 0.28108722 -0.24699934
000270 92 c8 51 3e 70 39 02 be f4 b7 3b 3e 22 fc 38 be
       0.20486668 -0.12717223 0.18331891 -0.18064931
000280 da a2 57 be b3 22 ca 3d 91 d3 28 be 55 1f 27 3e
       -0.21058217 0.098698996 -0.16486956 0.16320546
000290 c8 d9 54 3e e7 40 74 3e 10 4b ff bd cc f9 11 3e
       0.20786202 0.23852883 -0.12465489 0.14255446
0002a0 58 8a 32 3e 2c e3 93 be d6 49 7f 3e e2 73 06 3e
       0.17435586 -0.28884256 0.2493051 0.13130143
0002b0 a0 89 68 3e 66 30 27 3e c8 ca 50 be 02 c7 4d 3e
       0.2270875 0.16327056 -0.20389855 0.20095447
0002c0 83 8e 55 be bf 86 42 3e 30 91 5e be bc 0b 46 3e
       -0.20855145 0.18996714 -0.21735072 0.19340414
0002d0 90 c0 86 3e be 01 8c 3e 20 9d 60 3e 5c ac 4c 3e
       0.2631879 0.2734508 0.21934938 0.19987625
0002e0 bf ed f1 bd 27 a8 06 be 64 a0 51 be 77 2c 14 be
       -0.118129246 -0.13150083 -0.2047134 -0.14470087
0002f0 75 db fb bd 75 3b 5c 3e 7f 9b 36 be 4b cb 09 3e
       -0.122977175 0.21507056 -0.17832755 0.13456456
000300 e4 81 77 be 54 1b 85 3e 04 bf 30 be e5 8e 1c be
       -0.24170643 0.25997412 -0.17260367 -0.15288885
000310 fd 3c 8b 3e 4a d1 0c 3e ba 54 6a 3e a1 41 3d be
       0.27194968 0.13751712 0.22883883 -0.18482067
000320 96 8c 86 be 2d fe 5c be b3 0f 47 be 08 ca 23 be
       -0.26279134 -0.21581335 -0.19439583 -0.15995038
000330 c7 7a 1b 3e 40 5f 45 be c0 82 44 3e ec 4a 1c be
       0.15183555 -0.19274616 0.19190502 -0.15262955
000340 b7 39 91 be 9a e0 86 3e 94 9c 75 3e 08 93 93 3e
       -0.28364345 0.26343232 0.23985511 0.28823113
000350 4d 79 74 3e 2e 5a 76 3e cc c7 0c 3e 73 c4 81 be
       0.23874398 0.24057838 0.13748091 -0.2534519
000360 3d b8 04 3e d2 f1 52 be 77 97 57 3e 84 9f 28 3e
       0.12960906 -0.2060006 0.21053873 0.164671
000370 9b 97 0b be 9d 20 34 3e bc 3a 2d 3e 57 41 8c be
       -0.13632052 0.17590566 0.16916937 -0.273936
000380 65 53 4e 3e 85 65 6d be 20 f9 5e 3e 64 b3 3a 3e
       0.20149 -0.23183258 0.21774721 0.18232495
000390 cd b6 89 3e 2e a1 05 3e 8e 4f 17 be 21 c2 7e be
       0.26897278 0.13049766 -0.14776441 -0.24878742
0003a0 9d 29 7f 3e 4d 06 06 be 9d dd 65 3e 7a c8 34 be
       0.24918218 -0.13088341 0.2244782 -0.176546
0003b0 53 4c 01 be 59 e1 09 be 9e d3 3f 3e 3e 77 6f 3e
       -0.12626772 -0.1346487 0.1873307 0.23385331
0003c0 f9 2a 72 3e d6 1c 55 be 6d 78 36 3e c2 01 1b be
       0.23649205 -0.20811781 0.17819376 -0.1513739
0003d0 98 d5 52 be 7b c0 83 3e 29 27 37 be 60 fe 5c 3e
       -0.20589292 0.25732788 -0.17886032 0.21581411
0003e0 61 f7 39 be f6 26 69 be 68 9b 3d be ca ee f5 bd
       -0.18160774 -0.22768769 -0.18516314 -0.12008436
0003f0 b5 99 88 3e 65 17 11 be 08 40 77 3e ed 95 65 be
       0.2667977 -0.1416908 0.2414552 -0.22420473

fc4.bias f4 [64]
000000 47 6e d2 3d c8 d8 c2 3c ed 2e de bc 0c f9 45 3e
       0.1027494 0.02378501 -0.027121985 0.19333285
000010 16 00 4b be 97 69 96 3d cf 7d be bc 48 d0 94 bd
       -0.19824252 0.073443584 -0.02325335 -0.07266289
000020 09 c8 c0 bd 1f 9b 30 be 6e 54 1a 3e 46 e6 20 be
       -0.09413154 -0.17246674 0.1507127 -0.15712842
000030 72 86 2c 3e a3 ea b4 3c 25 db 7a bd 48 63 24 be
       0.16848162 0.02208454 -0.06124415 -0.16053498
000040 e8 3c f9 3d 28 59 0c 3e c9 4f e3 3c c7 4c 04 3e
       0.1216982 0.13705885 0.027748005 0.12919913
000050 fb 62 8e 3c 9e cd 37 be d5 8c 57 bd 16 5a 25 be
       0.017381182 -0.1794953 -0.052624542 -0.16147646
000060 24 be c8 3d 68 0c a5 3c 9f 98 f7 bd e4 e3 b6 3d
       0.098018914 0.020147517 -0.12089657 0.089301854
000070 8c f2 a4 bd ec 92 2b 3e ea d2 d7 bc bd 52 7a bd
       -0.08054075 0.16755265 -0.026345689 -0.06111406
000080 04 2b fc bc d3 02 06 3d e8 b9 7c 3d 25 6a 3b 3e
       -0.03078223 0.032717537 0.06170073 0.1830221
000090 4f bf 56 3d 17 cd 19 3e 85 38 d3 bd f4 35 a8 3d
       0.05242854 0.15019642 -0.103135146 0.08213416
0000a0 f7 86 03 bd c2 d8 32 3c 85 c2 a8 3d a3 ed 3b be
       -0.032111134 0.010915937 0.08240227 -0.1835237
0000b0 7d 4c 28 3e d6 f5 17 3e 63 08 ca bc 98 6e 71 3d
       0.16435428 0.14839873 -0.024662202 0.05894336
0000c0 95 e3 d0 3b 18 53 9c 3c f8 90 90 bd 5e dd c3 3d
       0.006374786 0.019082591 -0.070589006 0.09563707
0000d0 9d b5 44 3e 0b 57 54 ba 06 7c 9c bb 19 e0 44 3d
       0.19209905 -0.00081001286 -0.004775527 0.04806528
0000e0 de 4c fa bd 5b 43 12 3e 7d 3d 47 3d e5 e8 0b 3a
       -0.122216925 0.14283507 0.048642624 0.0005337133
0000f0 0d 08 c3 3c 8e 5a a9 bd 58 fc 3d be f6 74 22 be
       0.02380755 -0.08269225 -0.18553293 -0.1586493

output.weight f4 [1, 64]
000000 a5 4e 93 3e 1c cf 82 3e 6e 5a 9f be 54 1a 5d 3e
       0.2877094 0.25548637 -0.3112368 0.21592075
000010 be 2b 59 be e2 9a 7b 3e 46 7f 98 be ed 60 98 be
       -0.21208093 0.24570802 -0.29784602 -0.29761449
000020 d5 3a 71 be 24 0b 8f be 35 e4 9b 3e 40 41 84 be
       -0.23557599 -0.27938187 0.30447546 -0.25831032
000030 57 66 85 3e 79 f1 84 3e 31 23 4c be 83 2a 73 be
       0.26054642 0.2596548 -0.199353 -0.23746686
000040 8c 69 97 3e a8 fb 84 3e c9 ff 95 3e e5 c8 62 3e
       0.29572713 0.25973248 0.2929671 0.22146948
000050 d8 23 91 3e 6b ed 60 be 7b f5 81 be 0b ed 6d be
       0.2834766 -0.21965568 -0.253826 -0.23234956
000060 1d 63 9c 3e 7e 27 a1 be 66 4a 89 be 25 44 8b 3e
       0.30544367 -0.31475443 -0.26814574 0.27200428
000070 38 92 85 be c5 61 8c 3e b7 9e 67 be ee b9 83 be
       -0.2608812 0.27418342 -0.22619139 -0.2572779
000080 d2 19 a8 be 2d 23 84 3e 3e 05 82 3e 77 f8 76 3e
       -0.328322 0.25808087 0.25394624 0.2411822
000090 f9 4b 82 3e 9f 64 8e 3e 3e 6b a8 be fb 62 81 3e
       0.25448588 0.27811143 -0.3289432 0.2527083
0000a0 f3 6f 7b be 4a d2 97 be 76 48 89 3e f1 95 64 be
       -0.24554424 -0.29652625 0.26813096 -0.22322823
0000b0 cf af a3 3e 86 5a 61 3e 84 85 9f be 5e e1 4c 3e
       0.3197007 0.22007188 -0.31156552 0.20007846
0000c0 fd 67 9b 3e 01 19 7f be ad a9 a7 be 8f 01 85 3e
       0.30352774 -0.24911882 -0.3274664 0.25977752
0000d0 3b 08 5d 3e b7 af 98 be 8f 70 6f be 63 38 9c 3e
       0.21585171 -0.2982156 -0.23382781 0.3051177
0000e0 fc e0 90 be 65 a7 53 3e f2 dc 9e 3e 18 62 8c 3e
       -0.2829665 0.20669325 0.31027943 0.2741859
0000f0 b8 95 8b be 67 c6 a1 be 4d 7f 70 be 3a 61 67 be
       -0.27262664 -0.3159668 -0.23486061 -0.22595683
