result/vis/887/10000/Train_887_under_10000_128_128_32_0.0004_64_5_5.pth (torch, 157439 bytes, 9 tensors)

fc1.weight f4 [128, 9]
-0.18509993 -0.15530114 0.31246743 0.63776606 -0.38949397 0.19447246 -0.12092768 0.04993248
0.11076543 -0.28011218 -0.0065679154 0.06569396 0.66159457 -0.10525507 -0.0304094 0.07179042
-0.00041371828 0.016144063 0.42116913 0.12825257 -0.076401286 -0.44292945 -0.02789886 -0.055217527
-0.26290828 -0.017769855 0.42875507 0.33091387 -0.33671963 0.10311548 0.20436378 0.40016735
0.29364043 -0.10902414 -0.1921888 0.07207858 0.3772892 0.008754136 0.1357383 -0.42419463
0.31691182 -0.15955655 0.099057876 -0.060010724 -0.024272384 0.04613102 -0.17004272 0.08754069
0.11353096 -0.07220409 -0.30417225 -0.031422272 0.1976216 -0.2670166 0.45069855 0.30254638
-0.0020357156 -0.44275907 0.23265502 0.08316642 -0.3278393 0.18561757 0.4025137 0.412566
-0.21213578 0.0055572838 -0.18157755 0.09889311 -0.31533733 -0.64909595 0.19793421 0.046218894
0.3283885 0.15676558 -0.039374035 0.5122157 0.3394703 0.3201753 0.094782956 0.3915523
-0.015683 -0.32947522 0.047049936 -0.16051123 -0.14263035 -0.33979052 -0.18465047 -0.12407956
-0.21969724 0.44739288 0.20746002 -0.17378166 0.050582316 -0.16855174 -0.21716376 -0.12111213
-0.016273996 0.0059427824 0.041093703 0.0212575 0.49630666 -0.2505441 0.035784174 0.11294605
-0.24874727 -0.24319312 0.33302608 0.16472484 0.32399073 0.11395692 0.01751903 0.043896474
0.2687695 -0.23626347 0.0002816062 0.23717335 0.40191436 0.34512997 -0.14758314 -0.18331854
-0.4251386 0.0827603 0.30939195 -0.32246876 0.15333919 0.037269097 -0.13918684 0.048245896
0.053103868 0.5660668 -0.05764094 0.1772342 0.5797778 0.3906091 0.48734766 0.0775139
0.1047735 0.212445 -0.27302942 -0.34071052 -0.2044822 -0.19812533 -0.308996 -0.14499013
0.26913258 0.02549192 0.0019229038 0.25262472 0.30602437 0.30381674 0.1097075 0.463074
0.2278571 -0.08505258 -0.35426557 -0.17595169 0.021823667 -0.14222793 0.25308084 0.021526309
-0.19485652 -0.018290607 0.24180208 0.46103117 -0.3640948 0.40713382 0.050024923 0.02709953
0.029116897 0.07306465 -0.26655683 0.28885058 0.12767486 -0.012450087 0.2561982 0.3391288
0.25816524 0.08542729 -0.1616192 0.49346668 -0.22651647 -0.08321424 -0.15058103 -0.022189042
-0.23857966 0.26166275 -0.38249058 -0.340672 -0.22746176 -0.018633505 0.12794112 -0.062365726
-0.35716075 0.08404683 0.2227159 -0.28442898 0.1623956 0.4491662 0.455519 -0.1630223
0.064622045 -0.4642723 0.32289985 -0.04897352 0.10167256 -0.02883377 0.18445626 0.071579516
0.14977369 0.13959259 -0.17077477 0.1018933 -0.32074153 0.09269896 0.24755263 0.41472727
0.32896295 -0.17624682 -0.15219517 0.047894575 -0.26131836 0.28039122 -0.39490172 -0.29536033
0.32139432 -0.16103381 -0.00921346 0.21111618 0.07462097 0.32528076 -0.075956166 -0.3521467
0.2865086 0.0770512 -0.034820598 0.12392321 -0.24568845 0.03677973 0.23480898 -0.23361206
-0.41570404 -0.050511155 0.3496189 -0.09366559 -0.24276124 0.039116524 -0.11288622 -0.2453997
-0.2062962 0.37622836 0.3394238 -0.27933618 0.1650187 0.19172026 0.07890154 -0.36527503
00000000: d68a 3dbe 4307 1fbe bbfb 9f3e a344 233f
00000010: c16b c7be ca23 473e eea8 f7bd 0086 4c3d
00000020: fcd8 e23d dd6a 8fbe ab37 d7bb 8e8a 863d
00000030: 435e 293f f88f d7bd 221d f9bc db06 933d
00000040: 54e8 d8b9 8e40 843c 7ba3 d73e a454 033e
00000050: 4778 9cbd a6c7 e2be 268c e4bc c62b 62bd
00000060: ea9b 86be 1692 91bc c985 db3e 8b6d a93e
00000070: 8466 acbe 352e d33d bd44 513e bce2 cc3e
00000080: 0a58 963e 0c48 dfbd 24cd 44be ef9d 933d
00000090: 0d2c c13e 826d 0f3c fbfe 0a3e 0a30 d9be
000000a0: 4442 a23e cb62 23be dbde ca3d cecd 75bd
000000b0: e1d6 c6bc e1f3 3c3d ae1f 2ebe 8948 b33d
000000c0: ec82 e83d bddf 93bd 77bc 9bbe a4b4 00bd
000000d0: 515d 4a3e 66b6 88be f6c1 e63e 5ce7 9a3e
000000e0: a469 05bb 51b1 e2be 1e3d 6e3e 2853 aa3d
000000f0: 8dda a7be 8812 3e3e 4716 ce3e da3b d33e
00000100: 1f3a 59be e019 b63b 77ef 39be 7988 ca3d
00000110: e573 a1be 272b 26bf 44af 4a3e 0650 3d3d
00000120: 8a22 a83e 2887 203e ab46 21bd 9120 033f
00000130: 0dcf ad3e 04ee a33e 911d c23d 8b79 c83e
00000140: a379 80bc fab0 a8be 6fb7 403d 0e5d 24be
00000150: b10d 12be 06f9 adbe 0315 3dbe 6d1d febd
00000160: 50f8 60be ae10 e53e 6670 543e d2f3 31be
00000170: 672f 4f3d d498 2cbe 2d60 5ebe a309 f8bd
00000180: 0b51 85bc acbb c23b df51 283d 3524 ae3c
00000190: e81b fe3e 5147 80be 6d92 123d 4250 e73d
000001a0: 9bb7 7ebe 9e07 79be 6582 aa3e a1ad 283e
000001b0: 1de2 a53e 3f62 e93d 1284 8f3c cacc 333d
000001c0: 289c 893e 0def 71be 8ba4 9339 92dd 723e
000001d0: b8c7 cd3e e0b4 b03e 0920 17be dbb7 3bbe
000001e0: c4ab d9be 3b7e a93d 9f68 9e3e a01a a5be
000001f0: f304 1d3e 7ba7 183d ff86 0ebe 7d9d 453d
00000200: 7183 593d c1e9 103f e818 6cbd e27c 353e
00000210: 516c 143f eafd c73e a285 f93e 9cbf 9e3d
00000220: 7d93 d63d 2f8b 593e 83ca 8bbe 9c71 aebe
00000230: c863 51be 5ee1 4abe b934 9ebe 4b78 14be
00000240: bfcb 893e 6ed4 d03c f209 fc3a 0758 813e
00000250: 3aaf 9c3e de8d 9b3e 53ae e03d 0918 ed3e
00000260: 5f53 693e 0c30 aebd 4c62 b5be ae2c 34be
00000270: 8cc7 b23c 33a4 11be d093 813e f157 b03c
00000280: 7888 47be 2fd6 95bc f79a 773e 470c ec3e
00000290: a26a babe d873 d03e efe6 4c3d d5ff dd3c
000002a0: 8f86 ee3c eba2 953d 237a 88be 39e4 933e
000002b0: 33bd 023e 73fb 4bbc 692c 833e 4aa2 ad3e
000002c0: 3c2e 843e 81f4 ae3d 817f 25be aaa7 fc3e
000002d0: eff3 67be 3a6c aabd ea31 1abe cbc5 b5bc
000002e0: 3a4e 74be a9f8 853e ced5 c3be 8f6c aebe
000002f0: bceb 68be 4ba5 98bc ff02 033e 3473 7fbd
00000300: c6dd b6be bf20 ac3d a30f 643e ada0 91be
00000310: 084b 263e 1df9 e53e c939 e93e 51ef 26be
00000320: 9058 843d 19b5 edbe 2153 a53e 7598 48bd
00000330: b439 d03d cc34 ecbc 1ae2 3c3e 4898 923d
00000340: 465e 193e 5cf1 0e3e 95df 2ebe 6fad d03d
00000350: 3c38 a4be f4d8 bd3d 707e 7d3e 2257 d43e
00000360: d56d a83e 0c7a 34be 0dd9 1bbe 1a2d 443d
00000370: 85cb 85be 708f 8f3e 8f30 cabe 7839 97be
00000380: cc8d a43e 0ce6 24be 0df4 16bc d72e 583e
00000390: e1d2 983d 338b a63e e88e 9bbd 924c b4be
000003a0: 41b1 923e 05cd 9d3d 0ba0 0ebd 74cb fd3d
000003b0: c195 7bbe 58a6 163d c471 703e 0038 6fbe
000003c0: 29d7 d4be c9e4 4ebd 4001 b33e bfd3 bfbd
000003d0: 6796 78be a638 203d e430 e7bd 0f4a 7bbe
000003e0: 503f 53be 01a1 c03e f5c8 ad3e 2705 8fbe
000003f0: a9fa 283e 5152 443e 2197 a13d 5405 bbbe

fc1.bias f4 [128]
-0.44507483 -0.35850295 0.2851764 0.038952004 0.5201588 -0.36605138 0.07111685 0.09028801
-0.10864991 0.37691575 0.5275875 0.010330577 0.07305754 0.59704274 0.00019534185 -0.16688217
-0.027764164 -0.48853788 -0.09302135 0.05392604 -0.042082924 0.19513133 0.28192952 0.015199032
0.34915683 0.49868426 0.18992738 -0.41513318 -0.060725197 0.52383935 0.34744984 0.34367767
-0.15645362 0.47678453 0.3208225 0.35737 0.43393865 -0.15666404 0.5852542 0.41325626
0.2663915 0.14392295 0.2717655 0.47101203 0.41551292 -0.3678429 0.16195555 -0.09938413
0.35676596 0.5498285 0.37461352 0.3564743 0.2666167 -0.45222667 0.11647295 -0.16988392
-0.4370297 -0.47953764 0.49268806 0.33045626 -0.37190446 0.24871466 0.049917094 0.42515302
0.5158556 0.098843314 0.38544613 -0.14771307 0.18734625 0.0321465 -0.2724372 0.39946964
-0.028599264 -0.059721086 0.20767161 0.122891024 -0.34317356 -0.40829408 0.48082235 0.56453377
0.52137876 -0.42691496 0.48906383 0.101252355 -0.24128799 0.17766562 -0.21427272 -0.32938516
0.27823564 -0.46790737 0.33918795 -0.49627614 0.0670734 -0.45994446 0.017481096 0.5811943
-0.47514617 -0.37820414 0.51645947 0.31386426 0.019737415 -0.016825557 0.4337948 0.41974404
0.12636973 0.21780346 0.46886796 0.30872333 -0.1369774 -0.2136605 -0.35436624 -0.40990517
0.5292268 -0.24523863 0.5546768 0.50660604 -0.0024640455 0.24187422 -0.28021583 -0.25303292
0.41743124 0.47649464 -0.43222108 0.03564779 -0.12659085 -0.47220233 0.4164977 -0.4040159
00000000: d9e0 e3be b38d b7be a402 923e 238c 1f3d
00000010: 2129 053f 166b bbbe b6a5 913d ece8 b83d
00000020: d883 debd 1afb c03e f90f 073f 9541 293c
00000030: 319f 953d cbd7 183f aed4 4c39 29e3 2abe
00000040: ac71 e3bc a321 fabe fa81 bebd 8de1 5c3d
00000050: 255f 2cbd 82d0 473e 1159 903e 5c05 793c
00000060: afc4 b23e 8b53 ff3e 537c 423e 568c d4be
00000070: fcba 78bd 561a 063f f2e4 b13e 85f6 af3e
00000080: 6135 20be 1a1d f43e d942 a43e 33f9 b63e
00000090: 352d de3e 8a6c 20be 38d3 153f 5396 d33e
000000a0: 7764 883e 8a60 133e d924 8b3e 7d28 f13e
000000b0: 1cbe d43e e855 bcbe add7 253e e889 cbbd
000000c0: 07aa b63e 90c1 0c3f 58cd bf3e cd83 b63e
000000d0: fc81 883e 418a e7be 5f89 ee3d 0df6 2dbe
000000e0: 5bc2 dfbe f585 f5be 9c41 fc3e 9031 a93e
000000f0: 436a bebe 0eaf 7e3e de75 4c3d a8ad d93e
00000100: 1d0f 043f 5d6e ca3d 3259 c53e 1842 17be
00000110: b2d7 3f3e 0cac 033d e47c 8bbe 4987 cc3e
00000120: 0149 eabc 199e 74bd dea7 543e 4aae fb3d
00000130: 72b4 afbe ec0b d1be 592e f63e 4985 103f
00000140: 1479 053f 9994 dabe 9366 fa3e 655d cf3d
00000150: 3314 77be faed 353e 4f6a 5bbe 2ca5 a8be
00000160: e774 8e3e 8e91 efbe 0baa ad3e e817 febe
00000170: c75d 893d d77d ebbe 8434 8f3c 26c9 143f
00000180: 5c46 f3be f9a3 c1be b036 043f d1b2 a03e
00000190: 5cb0 a13c c0d5 89bc 5a1a de3e b1e8 d63e
000001a0: 1167 013e df07 5f3e 760f f03e fc10 9e3e
000001b0: ce43 0cbe d1c9 5abe 7e6f b5be 17df d1be
000001c0: 687b 073f d61f 7bbe 4cff 0d3f efb0 013f
000001d0: d37b 21bb e0ad 773e 7378 8fbe 888d 81be
000001e0: 8cb9 d53e 1bf7 f33e 154c ddbe 6b03 123d
000001f0: 08a1 01be 81c4 f1be 303f d53e 2cdb cebe

fc2.weight f4 [128, 128]
-0.7280666 -0.87773794 0.30957255 -0.027335182 0.2149102 -0.08305312 0.21717028 0.1910772
-0.21962497 0.36655894 0.20412089 -0.04470548 0.06307855 0.21729453 -0.1504425 0.13782373
-0.15501964 -0.045589864 -0.3937069 -0.07192543 0.0018137706 0.18148279 0.25239235 0.08325186
0.087268606 0.06744661 0.010447054 -0.012340622 0.09661617 0.13649797 0.0033455095 -0.00535299
-0.000896038 0.27457178 0.04136881 0.049016327 0.12276312 0.016257694 0.7717131 -0.038958434
0.09440334 0.09675573 0.24306074 0.1737177 0.04853361 -0.22223209 -0.08966555 -0.106760904
0.2744377 0.09525398 0.09785991 0.14525779 0.09042902 -0.2930621 0.1786331 0.08048666
-0.026105007 -0.055632908 0.3342784 0.38949102 -0.506753 0.074262984 -0.10507842 0.0644208
0.08257177 -0.07846287 0.109914675 0.05374366 -0.011926259 -0.002176468 -0.014652781 0.031430457
-0.13807681 0.37161183 0.37492344 0.30974627 -0.13383569 -0.103408106 0.21909457 0.28830618
0.27572715 -0.4799681 0.18691926 0.09307259 0.020181907 0.23014769 0.030967847 0.0325032
0.16153316 -0.12392067 0.050331965 -0.47071967 -0.09875271 -0.17923097 -0.65380645 0.42806137
0.01506426 -0.028487058 0.1566332 0.360915 0.0677188 -0.062953606 0.44476843 0.2048986
0.025578063 0.08732636 -0.002003966 0.08072987 0.09634116 -0.05867588 -0.059366588 -0.11288296
0.013349789 0.091966085 0.1688732 0.4173625 0.065308034 0.09222567 -0.06840542 0.034331657
0.042827442 0.5101651 -0.9625811 0.4602794 -0.14645822 -0.34343523 0.14698848 -0.0743529
-0.7883996 -0.808761 0.3161189 0.034637205 0.07313483 -0.16932483 0.08261079 0.120077565
-0.21781148 0.38357455 0.18901533 -0.14117719 0.029401919 0.16518556 -0.13532437 0.0950671
-0.06269552 -0.016037006 -0.48352805 0.024175158 0.03336095 0.25436392 0.23489232 -0.0031777113
0.115727425 0.030628622 0.124915734 -0.05171761 0.20517975 0.022487922 0.0666244 -0.0034486488
0.058376327 0.24644978 0.08719622 -0.03452237 0.025356734 0.018876817 0.7172082 0.06743915
0.105547145 0.06311388 0.24110934 0.13455874 0.11220672 -0.2896938 -0.04862256 -0.030188695
0.32037675 0.068866685 0.089266 0.040379312 0.17195712 -0.35778558 0.27304104 0.089111716
-0.122964434 -0.07131753 0.38515037 0.36515248 -0.46996674 -0.06612991 -0.05836922 0.0769911
0.19456841 -0.049691286 0.2056831 -0.016364146 -0.020745158 -0.09298851 -0.13500372 0.068309486
-0.117197014 0.4556309 0.367083 0.23503575 -0.05775572 -0.18082343 0.13786198 0.1975821
0.21361367 -0.5009793 0.23833351 0.07441685 -0.06323694 0.31245366 0.0003885219 -0.028825229
0.06697263 -0.1752098 0.09318538 -0.4586753 -0.07456995 -0.20834725 -0.7540798 0.27104953
-0.039268985 -0.03350806 0.12352361 0.37008637 0.08130003 -0.035126265 0.42592034 0.1730609
-0.039852146 0.20303121 0.11643232 -0.010894954 0.09756252 0.06666469 -0.03811587 -0.0948578
0.03970226 0.032334536 0.15498948 0.3601836 0.10529083 0.18479465 -0.04779359 0.09298731
0.12893002 0.5125588 -0.9083586 0.49657223 -0.116354436 -0.33026585 0.05729791 0.0013044042
00000000: 9362 3abf 6fb3 60bf 4b80 9e3e 08ee dfbc
00000010: 6b11 5c3e c117 aabd e361 5e3e bea9 433e
00000020: 5ee5 60be 9dad bb3e 1105 513e 181d 37bd
00000030: 542f 813d 7582 5e3e 990d 1abe aa21 0d3e
00000040: 78bd 1ebe 70bc 3abd f393 c9be a44d 93bd
00000050: 0bbc ed3a a0d6 393e 9239 813e f47f aa3d
00000060: e2b9 b23d 7321 8a3d 1f2a 2b3c 5230 4abc
00000070: b3de c53d 20c6 0b3e 5640 5b3b 2268 afbb
00000080: 18e4 6aba ac94 8c3e 5772 293d 58c5 483d
00000090: 3b6b fb3d db2e 853c fd8e 453f e192 1fbd
000000a0: 8a56 c13d de27 c63d eae4 783e 0ee3 313e
000000b0: 2ecb 463d cf90 63be 92a2 b7bd 76a5 dabd
000000c0: 1983 8c3e 8514 c33d c76a c83d 75be 143e
000000d0: da32 b93d 3c0c 96be 98eb 363e 31d6 a43d
000000e0: 2bda d5bc 55df 63bd 8a26 ab3e 5e6b c73e
000000f0: 91ba 01bf 3117 983d 5b33 d7bd 0def 833d
00000100: 631b a93d 24b1 a0bd f21a e13d 5022 5c3d
00000110: 5b66 43bc 13a3 0ebb 3812 70bc 39bd 003d
00000120: 0264 0dbe e843 be3e f7f5 bf3e 1097 9e3e
00000130: 390c 09be a1c7 d3bd 545a 603e de9c 933e
00000140: 1c2c 8d3e 61be f5be c367 3f3e d89c be3d
00000150: 8754 a53c d6ab 6b3e 48b0 fd3c 1322 053d
00000160: f368 253e 1fca fdbd e428 4e3d 2b02 f1be
00000170: dc3e cabd 5388 37be dc5f 27bf dc2a db3e
00000180: 16d0 763c b15d e9bc 7464 203e dac9 b83e
00000190: 27b0 8a3d d2ed 80bd b0b8 e33e f0d0 513e
000001a0: 1689 d13c 2ad8 b23d f854 03bb b455 a53d
000001b0: 844e c53d 1f56 70bd 612a 73bd 2e2f e7bd
000001c0: 13b9 5a3c b758 bc3d 19ed 2c3e 8ab0 d53e
000001d0: 38c0 853d d0e0 bc3d 2418 8cbd 5a9f 0c3d
000001e0: d46b 2f3d 2e9a 023f b76b 76bf bea9 eb3e
000001f0: 25f9 15be bed6 afbe 2684 163e 5546 98bd
00000200: 8ed4 49bf f60a 4fbf 56da a13e bedf 0d3d
00000210: b7c7 953d 7d63 2dbe d92f a93d 3aeb f53d
00000220: f909 5fbe e263 c43e 3c8d 413e c190 10be
00000230: 4bdc f03c 6726 293e 7992 0abe 8ab2 c23d
00000240: 8266 80bd 0a60 83bc fd90 f7be fb0a c63c
00000250: 7ea5 083d fd3b 823e 9d87 703e 2641 50bb
00000260: 8002 ed3d e0e8 fa3c d2d3 ff3d d8d5 53bd
00000270: a41a 523e 9738 b83c 6072 883d ba02 62bb
00000280: 041c 6f3d 555d 7c3e ef93 b23d 5467 0dbd
00000290: edb8 cf3c 8ea3 9a3c f59a 373f 891d 8a3d
000002a0: 1a29 d83d da41 813d 5ee5 763e c4c9 093e
000002b0: a3cc e53d bf52 94be 7328 47bd 484e f7bc
000002c0: 6c08 a43e fa09 8d3d 18d1 b63d c764 253d
000002d0: 8715 303e ac2f b7be 09cc 8b3e 3480 b63d
000002e0: c7d4 fbbd ed0e 92bd 6e32 c53e 44f5 ba3e
000002f0: 7b9f f0be 1e6f 87bd 9014 6fbd 83ad 9d3d
00000300: f13c 473e 1789 4bbd 979e 523e 1a0e 86bc
00000310: c0f1 a9bc c370 bebd 6a3e 0abe d8e5 8b3d
00000320: fd04 f0bd 7448 e93e 4ef2 bb3e 36ad 703e
00000330: 4391 6cbd c729 39be b12b 0d3e f652 4a3e
00000340: 8bbd 5a3e 2e40 00bf b30d 743e dd67 983d
00000350: 5e82 81bd edf9 9f3e 87b2 cb39 e322 ecbc
00000360: f228 893d 336a 33be fad7 be3d 7dd7 eabe
00000370: 21b8 98bd fb58 55be 600b 41bf 01c7 8a3e
00000380: 84d8 20bd bf3f 09bd f2f9 fc3d f67b bd3e
00000390: a180 a63d 8fe0 0fbd 3b12 da3e e036 313e
000003a0: 013c 23bd 6ae7 4f3e 1174 ee3d c080 32bc
000003b0: dcce c73d 7f87 883d 631f 1cbd ce44 c2bd
000003c0: d69e 223d 3871 043d 90b5 1e3e fc69 b83e
000003d0: b8a2 d73d cf3a 3d3e 36c3 43bd 2170 be3d
000003e0: 3b06 043e 0e37 033f 308a 68bf b73e fe3e
000003f0: 3c4b eebd 9b18 a9be 37b1 6a3d 8bf8 aa3a

fc2.bias f4 [128]
0.1685683 0.25676063 0.1525497 0.19519539 0.14098507 -0.2525424 -0.25328222 -0.12120385
0.25116816 0.24672595 0.23473985 -0.13698894 -0.25532007 -0.24877495 0.26755777 0.28086317
0.2714298 -0.18849578 0.251258 -0.16498643 -0.21698286 0.23747784 -0.25138867 -0.28368035
-0.23729207 0.15276721 0.20448682 -0.19876175 0.15756956 0.22182362 0.23135339 0.18405575
0.23343967 0.1551374 0.20140478 0.14285968 0.18842639 0.27128023 -0.14813554 0.21684793
-0.23718171 0.18886389 0.20176199 0.10632168 -0.27405488 0.15364349 0.1998785 0.229505
-0.26495004 -0.22085762 -0.14885142 -0.23065892 0.22227345 -0.15445293 0.15334341 0.2737364
0.21164471 -0.18982057 0.19591007 -0.2706562 0.23179267 -0.24263173 0.26497868 0.14084007
0.17782398 -0.25169224 -0.2192295 0.20383318 -0.26676953 -0.16953929 -0.20641695 0.20076516
0.26839948 0.22455806 -0.16247582 -0.19743785 -0.14327422 0.22694755 0.124965 -0.23545043
0.1307953 0.1638163 0.2577726 -0.23873791 -0.12530714 0.13147637 -0.1717606 0.25074872
0.18303925 0.20030138 0.21220793 -0.15542063 0.21509826 0.15454803 0.24646306 0.21209748
0.27113625 0.21750599 0.13983431 0.18083811 0.21358956 0.23129983 0.188382 0.22194846
-0.21639287 -0.11800813 -0.15465158 -0.23287791 0.21256387 -0.13180308 0.13692744 -0.2142213
0.21789089 0.24880686 0.2706826 0.21339071 0.24147771 0.18032993 0.28005043 0.18906957
-0.16345192 -0.16200937 -0.27714992 -0.22127944 -0.20335247 0.23439069 -0.17086475 0.21811205
00000000: 2b9d 2c3e 2176 833e fd35 1c3e 4de1 473e
00000010: 645e 103e 3d4d 81be 35ae 81be b939 f8bd
00000020: 1d99 803e baa5 7c3e a55f 703e d446 0cbe
00000030: 50b9 82be dcbe 7ebe 55fd 883e 4ccd 8f3e
00000040: d9f8 8a3e 0a05 41be e3a4 803e 34f2 28be
00000050: c130 5ebe 642d 733e 04b6 80be 8d3e 91be
00000060: b1fc 72be 026f 1c3e fe64 513e 3388 4bbe
00000070: ea59 213e bb25 633e e7e7 6c3e 1c79 3c3e
00000080: cf0a 6f3e 57dc 1e3e 0e3d 4e3e cf49 123e
00000090: d9f2 403e 3ee5 8a3e d8b0 17be 620d 5e3e
000000a0: c3df 72be 8965 413e b29a 4e3e 2ebf d93d
000000b0: ec50 8cbe b854 1d3e f3ac 4c3e 5c03 6b3e
000000c0: 88a7 87be 8028 62be 826c 18be da31 6cbe
000000d0: a79b 633e e928 1ebe 0e06 1d3e 2d27 8c3e
000000e0: 64b9 583e 5360 42be a69c 483e 7393 8abe
000000f0: 0f5b 6d3e 7474 78be 49ab 873e 6138 103e
00000100: 7d17 363e cedd 80be b37d 60be a5b9 503e
00000110: 0496 88be b59b 2dbe f75e 53be 6295 4d3e
00000120: a86b 893e 8cf2 653e 1060 26be 262d 4abe
00000130: 7ab6 12be f064 683e a6ed ff3d eb19 71be
00000140: 34ef 053e 76bf 273e c5fa 833e b677 74be
00000150: 8450 00be bea1 063e 03e2 2fbe 2362 803e
00000160: a46e 3b3e ce1b 4d3e 094d 593e 9626 1fbe
00000170: b842 5c3e d741 1e3e d060 7c3e 1530 593e
00000180: 5fd2 8a3e e4b9 5e3e ba30 0f3e a02d 393e
00000190: 39b7 5a3e ddd9 6c3e 36e7 403e 7546 633e
000001a0: 1896 5dbe 3fae f1bd fc5c 1ebe 8c77 6ebe
000001b0: 58aa 593e 63f7 06be b536 0c3e d45c 5bbe
000001c0: ca1e 5f3e 3ac7 7e3e e996 8a3e 1883 5a3e
000001d0: ef45 773e 69a8 383e c562 8f3e 749b 413e
000001e0: f15f 27be c9e5 25be 98e6 8dbe 1497 62be
000001f0: a13b 50be 1d04 703e 2bf7 2ebe c458 5f3e

fc3.weight f4 [128, 128]
-0.1736365 -0.18806404 -0.2538337 -0.18749474 -0.26054728 0.19081338 0.14456971 0.26477712
-0.17170618 -0.24922216 -0.31174782 0.22566494 0.1695277 0.17136037 -0.24822459 -0.19315875
-0.17353347 0.1495764 -0.28431442 0.19278352 0.26420778 -0.23396197 0.22717108 0.2237327
0.22280343 -0.29435727 -0.23035301 0.25835672 -0.21661122 -0.19155386 -0.20894541 -0.31059426
-0.15427236 -0.17904013 -0.15936935 -0.21580578 -0.17463405 -0.23584652 0.23760542 -0.17393932
0.17354569 -0.29034606 -0.22525583 -0.17990191 0.29914895 -0.24269208 -0.2654608 -0.3010157
0.30443975 0.22393794 0.19527836 0.17731799 -0.25994757 0.285404 -0.16766798 -0.30237985
-0.19595794 0.20538656 -0.1395835 0.17474277 -0.24488828 0.25325727 -0.25063255 -0.29825783
-0.22788605 0.30457732 0.1346664 -0.19387572 0.3017758 0.30071804 0.22562411 -0.2465044
-0.28214678 -0.1250015 0.22833422 0.21634777 0.2337751 -0.25421634 -0.23244831 0.2586207
-0.17029993 -0.17258333 -0.3238688 0.20692843 0.22574425 -0.20539065 0.16350484 -0.25565764
-0.262063 -0.28560337 -0.23633844 0.28672427 -0.22071469 -0.26153296 -0.22312927 -0.29869542
-0.15162572 -0.19480036 -0.28435236 -0.31328577 -0.3007043 -0.26742285 -0.22100702 -0.27216062
0.12470223 0.17836699 0.16534503 0.19814724 -0.17943634 0.19965062 -0.30577266 0.16529553
-0.14733116 -0.2365292 -0.29210588 -0.22552277 -0.22747254 -0.17631271 -0.24043597 -0.24601229
0.1843427 0.15387458 0.26944104 0.24661289 0.23540182 -0.21776319 0.23069702 -0.14319392
0.23393585 0.26840484 0.22777365 0.25313333 0.18124682 -0.14540772 -0.2660418 -0.19873224
0.27815658 0.22063488 0.17149225 -0.17921576 -0.22946581 -0.23936988 0.22535045 0.25449392
0.26742998 -0.26102492 0.21934405 -0.14505278 -0.13614194 0.16464528 -0.28875422 -0.20090716
-0.24114577 0.17213656 0.23739563 -0.2744175 0.15943816 0.18533172 0.24491426 0.18074133
0.31435272 0.3159642 0.25785226 0.17957042 0.24301645 0.13048224 -0.18195605 0.26551545
-0.15899642 0.26401874 0.28316817 0.13124399 -0.2544993 0.21643642 0.23357761 0.2823438
-0.30142677 -0.2833764 -0.19864304 -0.19037357 0.2343551 -0.1574598 0.28612155 0.2909489
0.23795915 -0.29278696 0.18979245 -0.25603363 0.17031732 -0.14452614 0.22507828 0.17193802
0.26222903 -0.22875626 -0.25447926 0.23858637 -0.27410024 -0.25765312 -0.24327834 0.16748369
0.17864436 0.25690868 -0.23415744 -0.12426589 -0.19751239 0.20006518 0.2282998 -0.23398556
0.24623396 0.29075494 0.23939258 -0.3230063 -0.20880859 0.25295806 -0.27674016 0.17202471
0.2327166 0.118853524 0.16842732 -0.1495299 0.22368778 0.20711598 0.25166458 0.28708625
0.21045512 0.23495501 0.27483335 0.2967509 0.2066639 0.18198174 0.28453785 0.27185693
-0.19875635 -0.19083552 -0.14304149 -0.30685025 0.24425738 -0.1905765 0.2073492 -0.2631786
0.21221574 0.138781 0.17824048 0.15913385 0.22374949 0.17284106 0.23037268 0.13065426
-0.22469325 -0.28206155 -0.19813277 -0.26746392 -0.22151642 0.19156535 -0.29114008 0.2742203
00000000: c4cd 31be dc93 40be 7ef6 81be 9ffe 3fbe
00000010: 7466 85be 9564 433e 150a 143e de90 873e
00000020: bfd3 2fbe 1834 7fbe 699d 9fbe b614 673e
00000030: ab98 2d3e 1879 2f3e 962e 7ebe 68cb 45be
00000040: c2b2 31be 8e2a 193e a991 91be 0b69 453e
00000050: 3e46 873e ba93 6fbe 899f 683e 2f1a 653e
00000060: 9526 643e ffb5 96be a9e1 6bbe 5547 843e
00000070: 55cf 5dbe b226 44be c9f5 55be 3606 9fbe
00000080: 93f9 1dbe 4c56 37be b831 23be 31fc 5cbe
00000090: 45d3 32be c081 71be d64e 733e 261d 32be
000000a0: f6b5 313e 3da8 94be 77a9 66be 3538 38be
000000b0: 0d2a 993e 4684 78be 7aea 87be bb1e 9abe
000000c0: 87df 9b3e fd4f 653e 0df7 473e d992 353e
000000d0: d917 85be 7920 923e 28b1 2bbe 88d1 9abe
000000e0: 33a9 48be db50 523e faee 0ebe c5ef 323e
000000f0: fec3 7abe f0aa 813e e952 80be 40b5 98be
00000100: f65a 69be 8ff1 9b3e fde5 093e 5b87 46be
00000110: 5c82 9a3e b7f7 993e 020a 673e a66b 7cbe
00000120: 8b75 90be 6500 00be 72d0 693e 458a 5d3e
00000130: bd62 6f3e a528 82be ee06 6ebe ef69 843e
00000140: 1b63 2ebe afb9 30be 22d2 a5be 0ce5 533e
00000150: 8029 673e ed51 52be d06d 273e 8fe5 82be
00000160: 1f2d 86be 9b3a 92be b402 72be 86cd 923e
00000170: 0803 62be a6e7 85be 007c 64be 9bee 98be
00000180: c643 1bbe bf79 47be a296 91be fe66 a0be
00000190: eaf5 99be a6eb 88be aa4f 62be a358 8bbe
000001a0: e263 ff3d d6a5 363e 3550 293e 1ce7 4a3e
000001b0: 29be 37be 3671 4c3e 3c8e 9cbe 3b43 293e
000001c0: fbdd 16be b634 72be e78e 95be 71ef 66be
000001d0: 90ee 68be 528b 34be d934 76be a5ea 7bbe
000001e0: 55c4 3c3e 4c91 1d3e 2df4 893e 1788 7c3e
000001f0: 2d0d 713e 50fd 5ebe d73b 6c3e 6da1 12be
00000200: e18c 6f3e 5c6c 893e 7f3d 693e b19a 813e
00000210: c498 393e c3e5 14be a136 88be 7780 4bbe
00000220: 8a6a 8e3e 1cee 613e aa9b 2f3e 5684 37be
00000230: 16f9 6abe 611d 75be 45c2 663e 074d 823e
00000240: 95ec 883e 0fa5 85be ba9b 603e b788 14be
00000250: cb68 0bbe c698 283e 98d7 93be 9bba 4dbe
00000260: ebee 76be 9144 303e d717 733e 7380 8cbe
00000270: c243 233e 99c7 3d3e ceca 7a3e 4114 393e
00000280: d7f2 a03e 0fc6 a13e 3605 843e 4fe1 373e
00000290: 4ed9 783e 239d 053e b052 3abe a4f1 873e
000002a0: f5cf 22be 772d 873e 6bfb 903e d364 063e
000002b0: bb4d 82be 82a1 5d3e f82e 6f3e 5e8f 903e
000002c0: 9c54 9abe b616 91be 1569 4bbe 4af1 42be
000002d0: c9fa 6f3e 243d 21be 867e 923e 41f7 943e
000002e0: 90ab 733e 2ce8 95be f458 423e d716 83be
000002f0: aa67 2e3e a9fe 13be ec7a 663e 8510 303e
00000300: e242 863e 153f 6abe 1b4b 82be fc4f 743e
00000310: de56 8cbe 1ceb 83be f51d 79be d880 2b3e
00000320: 8cee 363e 8989 833e f8c6 6fbe 1d7f febd
00000330: b040 4abe e3dd 4c3e 6cc7 693e e999 6fbe
00000340: c124 7c3e d5dd 943e 5423 753e 1561 a5be
00000350: ebd1 55be b883 813e e3b0 8dbe 3f27 303e
00000360: 434d 6e3e 7a69 f33d 3678 2c3e 5e1e 19be
00000370: 690e 653e 3616 543e 2eda 803e f8fc 923e
00000380: 8c81 573e 0c98 703e f5b6 8c3e bcef 973e
00000390: b49f 533e 6c59 3a3e f2ae 913e d530 8b3e
000003a0: c986 4bbe 636a 43be 7879 12be 7a1b 9dbe
000003b0: 9b1e 7a3e 7c26 43be 5953 543e 58bf 86be
000003c0: 154f 593e 9b1c 0e3e ac84 363e fcf3 223e
000003d0: 961e 653e 3ffd 303e d1e6 6b3e 3bca 053e
000003e0: fd15 66be 5f6a 90be 51e3 4abe 08f1 88be
000003f0: 33d5 62be b529 443e 5010 95be 9a66 8c3e

fc3.bias f4 [128]
-0.22150515 0.2457349 0.22455887 0.21546413 0.17521381 -0.23761284 0.08243423 0.06832829
0.17348278 -0.12119985 -0.21056047 -0.16098778 0.12750375 -0.14425497 0.15226127 0.105717994
-0.118858874 0.17371307 0.1692679 -0.13145024 -0.12915738 0.12971891 -0.18533678 0.10285171
-0.13507715 0.16763988 -0.09604713 0.118591905 0.19705851 -0.08651456 0.10787737 -0.103597
-0.16527392 -0.20219205 -0.18996592 0.12789115 0.12214413 -0.04621929 0.09906389 -0.11901804
0.124737315 0.18250188 0.08861805 -0.23923951 0.2461554 0.1281169 0.17481913 -0.087304235
-0.13465548 -0.15385483 0.18694225 -0.15122427 0.08301517 0.07862838 0.20434843 0.19732067
-0.18755683 -0.19985142 -0.05546722 -0.18331315 -0.20531549 0.14415884 0.114083834 0.15977305
0.0866234 0.111192845 -0.1602063 0.17318508 -0.12232198 0.23392297 -0.2111625 -0.12770492
-0.21173966 -0.1645814 0.16417843 -0.23497444 0.1839896 -0.19762996 -0.23153234 -0.1465053
-0.13131157 0.16495934 -0.1738414 -0.09824915 -0.1191012 -0.22530788 0.23305616 -0.23604077
0.23897529 -0.24057934 0.21380816 -0.116228305 -0.2303853 0.18255655 -0.10842508 0.13056043
-0.06635846 -0.11329236 0.15487793 0.20142101 0.18748797 0.25618124 0.15371792 -0.23319127
0.09768089 -0.1366766 -0.0879903 0.09157967 -0.1526924 0.19639274 0.14515972 0.12699541
0.19216065 0.18208368 0.2227777 0.09302241 -0.1547015 0.09128844 0.14306514 0.17020556
-0.17469989 -0.12378824 -0.10791997 0.07681232 -0.1989489 -0.24758577 0.09676636 0.17969885
00000000: 3fd2 62be eea1 7b3e c3f2 653e a1a2 5c3e
00000010: 406b 333e c850 73be 47d3 a83d b4ef 8b3d
00000020: 78a5 313e a137 f8bd 2a9d 57be fbd9 24be
00000030: 5890 023e 93b7 13be 61ea 1b3e ad82 d83d
00000040: 486c f3bd d7e1 313e 9054 2d3e e49a 06be
00000050: d541 04be 09d5 043e edc8 3dbe eba3 d23d
00000060: aa51 0abe caa9 2b3e 5cb4 c4bd 50e0 f23d
00000070: b5c9 493e 8c2e b1bd d0ee dc3d aa2a d4bd
00000080: 913d 29be 6f0b 4fbe 6d86 42be e6f5 023e
00000090: b426 fa3d 7050 3dbd 02e2 ca3d bbbf f3bd
000000a0: 4776 ff3d c6e1 3a3e 617d b53d 34fb 74be
000000b0: 2910 7c3e 1431 033e c903 333e 90cc b2bd
000000c0: 20e3 09be 1f8c 1dbe ca6d 3f3e 89da 1abe
000000d0: dc03 aa3d eb07 a13d b740 513e 6e0e 4a3e
000000e0: e60e 40be daa5 4cbe 9831 63bd 71b6 3bbe
000000f0: 393e 52be 609e 133e c9a4 e93d 8c9b 233e
00000100: 9c67 b13d 13b9 e33d 1f0d 24be 6e57 313e
00000110: f283 fabd 8189 6f3e fb3a 58be 14c5 02be
00000120: 48d2 58be 0788 28be 641e 283e 249d 70be
00000130: c567 3c3e 825f 4abe d016 6dbe 7c05 16be
00000140: 8a76 06be 1aeb 283e 7b03 32be da36 c9bd
00000150: 54eb f3bd 1cb7 66be 46a6 6e3e acb4 71be
00000160: f0b5 743e 6e5a 76be 87f0 5a3e 1b09 eebd
00000170: 20ea 6bbe 1bf0 3a3e f80d debd a2b1 053e
00000180: f2e6 87bd d305 e8bd 5298 1e3e 4f41 4e3e
00000190: d9fc 3f3e 302a 833e 3b68 1d3e b1c9 6ebe
000001a0: eb0c c83d f3f4 0bbe 4234 b4bd 1f8e bb3d
000001b0: 665b 1cbe 2e1b 493e c0a4 143e 160b 023e
000001c0: c3c5 443e 2574 3a3e d61f 643e 8982 be3d
000001d0: 126a 1ebe 6ff5 ba3d ab7f 123e 5e4a 2e3e
000001e0: 87e4 32be b084 fdbd 2505 ddbd c74f 9d3d
000001f0: 43b9 4bbe 2087 7dbe 712d c63d fa02 383e

fc4.weight f4 [32, 128]
-0.27726698 0.20955575 0.22144301 0.17690739 0.31238577 -0.17996144 0.23346445 0.24932155
0.28992987 -0.14805765 -0.24803963 -0.29158702 0.29963133 -0.28587058 0.2934995 0.1722666
-0.2621007 0.24336539 0.17717865 -0.19417885 -0.21758741 0.2548651 -0.1771025 0.2826386
-0.29838687 0.1939128 -0.21932597 0.20756872 0.31634697 -0.155833 0.2308385 -0.30360484
-0.32042372 -0.28973287 -0.30815625 0.2978989 0.19557488 -0.27001244 0.3097081 -0.30343398
0.30236882 0.21695383 0.22367682 -0.18691643 0.2861769 0.19979733 0.3143732 -0.19492944
-0.17341892 -0.17081483 0.17882898 -0.23075302 0.1502921 0.16782859 0.26443857 0.22194204
-0.30066544 -0.22748871 -0.25919053 -0.30491993 -0.21249408 0.2221432 0.25406262 0.20643573
0.20582627 0.27050477 -0.2879035 0.23304962 -0.13003416 0.26302868 -0.21345794 -0.31939307
-0.19225092 -0.3126257 0.30535102 -0.20513396 0.17544012 -0.2307745 -0.1477595 -0.29320914
-0.22698592 0.31542408 -0.24143368 -0.18171911 -0.1756273 -0.24949417 0.30278224 -0.25248066
0.32272992 -0.24477406 0.27076083 -0.31219772 -0.21365733 0.24911322 -0.30801588 0.19689046
-0.16685024 -0.29832295 0.25024202 0.24998781 0.23489471 0.22128195 0.25317052 -0.24787933
0.15407716 -0.24273118 -0.17597897 0.13642693 -0.29058862 0.16213194 0.16992 0.21108937
0.3091649 0.27990746 0.26099482 0.26665467 -0.324876 0.15311936 0.3167419 0.30059895
-0.17800303 -0.31167918 -0.29946527 0.30547225 -0.27652898 -0.24352771 0.27302584 0.32391706
0.21909927 -0.29209566 -0.2855526 -0.27402148 -0.23262632 0.24149302 -0.28412884 -0.24788526
-0.22579397 0.20853508 0.3153532 0.15954524 -0.15692425 0.26909152 -0.1952512 -0.31233236
0.20271266 -0.31873208 -0.27172932 0.25256863 0.12770605 -0.14229462 0.30678418 -0.2895629
0.20661388 -0.17527293 0.30521291 -0.2826104 -0.2308682 0.3072732 -0.25414982 0.25399414
0.21698868 0.15668769 0.25506797 -0.26113006 -0.22868282 0.22724634 -0.14931425 0.15953211
-0.26302755 -0.30983314 -0.1850815 0.15986048 -0.20272213 -0.2735849 -0.23819248 0.19239631
0.23212412 0.22930047 -0.23240976 0.225876 -0.17332327 -0.15528984 -0.21966618 -0.23556668
0.3171292 0.30731776 0.1769038 0.29062092 0.3137221 -0.22320762 -0.1959468 -0.29795235
-0.24629323 -0.177978 0.26324406 -0.17247184 0.2735614 -0.30010378 0.25604743 0.25186262
0.17484784 0.21930562 -0.22045387 0.2729846 -0.28071624 0.24459465 0.2243355 0.26550102
0.15437981 -0.16859822 0.25485712 0.3136469 0.26202133 0.2557462 -0.2781552 0.18378517
-0.30823416 0.22679442 -0.2187224 0.1932592 0.29935157 -0.26284614 0.18072344 -0.29603595
0.20477688 0.17588049 -0.21872893 -0.24393328 -0.16942911 -0.30312502 -0.1821657 0.16889188
-0.18213998 0.2763775 0.2288281 -0.18771486 0.303363 -0.17597897 -0.22351561 -0.18669413
-0.20094837 -0.23386145 -0.25942147 -0.17812222 0.2194291 -0.18147287 -0.20973064 -0.22186755
0.25174066 0.21031792 0.25029203 -0.13444953 0.26663834 0.2941887 -0.19619484 -0.25362155
00000000: f0f5 8dbe c895 563e f5c1 623e 3627 353e
00000010: 07f1 9f3e d047 38be 4e11 6f3e 264e 7f3e
00000020: b071 943e 6d9c 17be 1afe 7dbe e54a 95be
00000030: 4769 993e a15d 92be 9145 963e a866 303e
00000040: 1032 86be c734 793e 526e 353e d2d6 46be
00000050: 3ccf 5ebe ae7d 823e 5c5a 35be 02b6 903e
00000060: 2ac6 98be 1491 463e fd96 60be e58c 543e
00000070: 3bf8 a13e b092 1fbe ee60 6c3e 1872 9bbe
00000080: 940e a4be de57 94be a8c6 9dbe 3486 983e
00000090: c844 483e 123f 8abe 0f92 9e3e b35b 9bbe
000000a0: 16d0 9a3e 2529 5e3e 890b 653e 0567 3fbe
000000b0: c785 923e ac97 4c3e 86f5 a03e 959b 47be
000000c0: bb94 31be 15ea 2ebe f21e 373e 854a 6cbe
000000d0: 2ce6 193e 42db 2b3e 7e64 873e c644 633e
000000e0: d2f0 99be cdf2 68be 9fb4 84be 771e 9cbe
000000f0: 0c98 59be 8279 633e 7f14 823e e363 533e
00000100: 1fc4 523e 9a7f 8a3e 1668 93be 8fa4 6e3e
00000110: ad27 05be b2ab 863e b894 5abe 7d87 a3be
00000120: 6ddd 44be 7a10 a0be f856 9c3e a30e 52be
00000130: 93a6 333e 2750 6cbe 444e 17be 821f 96be
00000140: ff6e 68be 447f a13e 643a 77be 9314 3abe
00000150: a5d7 33be 667b 7fbe 4606 9b3e 2545 81be
00000160: db3c a53e 0da6 7abe 2aa1 8a3e 61d8 9fbe
00000170: fdc8 5abe 8917 7f3e 42b4 9dbe a79d 493e
00000180: cada 2abe c9bd 98be b91f 803e cefc 7f3e
00000190: 3d88 703e bc97 623e 919f 813e 14d4 7dbe
000001a0: 67c6 1d3e 868e 78be d533 34be 80b3 0b3e
000001b0: 08c8 94be ea05 263e 82ff 2d3e d027 583e
000001c0: dd4a 9e3e 0850 8f3e 1da1 853e f686 883e
000001d0: 2656 a6be 52cb 1c3e ff2b a23e 1be8 993e
000001e0: 6d46 36be 6a94 9fbe 8353 99be dc66 9c3e
000001f0: 3595 8dbe 545f 79be 0bca 8b3e 75d8 a53e
00000200: 8f5b 603e 908d 95be f333 92be 8b4c 8cbe
00000210: 9835 6ebe f249 773e 5679 91be a2d5 7dbe
00000220: 8936 67be 388a 553e fa75 a13e d45f 233e
00000230: c0b0 20be 5dc6 893e eeef 47be 07ea 9fbe
00000240: e893 4f3e da30 a3be 1b20 8bbe ad50 813e
00000250: 60c5 023e aeb5 11be d112 9d3e 9741 94be
00000260: 9792 533e bf7a 33be de44 9c3e 4fb2 90be
00000270: b768 6cbe ea52 9d3e ed1f 82be 850b 823e
00000280: 4832 5e3e bd72 203e 4598 823e d7b2 85be
00000290: d42b 6abe 44b3 683e d6e5 18be 635c 233e
000002a0: 8cab 86be 73a2 9ebe 0186 3dbe 77b2 233e
000002b0: 6496 4fbe 5213 8cbe bbe8 73be 8a03 453e
000002c0: f2b1 6d3e becd 6a3e d3fc 6dbe 0a4c 673e
000002d0: a87b 31be 4d04 1fbe 2cf0 60be 6438 71be
000002e0: c25e a23e c158 9d3e 4526 353e 44cc 943e
000002f0: 2fa0 a03e 8a90 64be 47a6 48be 368d 98be
00000300: 4b34 7cbe dd3f 36be edc7 863e 759c 30be
00000310: 3d10 8c3e 34a7 99be a618 833e 23f4 803e
00000320: 500b 333e a791 603e a9be 61be a3c4 8b3e
00000330: 0aba 8fbe 0577 7a3e 35b8 653e c0ef 873e
00000340: be15 1e3e 03a5 2cbe a27c 823e 5496 a03e
00000350: a927 863e 2af1 823e 5c6a 8ebe 2e32 3c3e
00000360: ded0 9dbe cc3c 683e c4f8 5fbe bde5 453e
00000370: 9c44 993e c593 86be 910f 393e 0692 97be
00000380: 08b1 513e 041a 343e 7afa 5fbe a5c9 79be
00000390: d37e 2dbe 3433 9bbe a589 3abe fef1 2c3e
000003a0: e782 3abe 5a81 8d3e ea51 6a3e 5338 40be
000003b0: 6552 9b3e d533 34be 47e1 64be bf2c 3fbe
000003c0: 69c5 4dbe 6079 6fbe e4d2 84be ac65 36be
000003d0: 06b2 603e 06d4 39be a1c3 56be 3f31 63be
000003e0: 27e4 803e 955d 573e 4726 803e 23ad 09be
000003f0: d284 883e e79f 963e 4de7 48be afda 81be

fc4.bias f4 [32]
0.124839395 -0.0029533382 -0.10696236 0.1383441 0.12223355 -0.09546495 -0.18153447 -0.030819947
0.11319428 -0.18797423 -0.009195762 0.15173562 -0.08687063 -0.09565496 0.19261216 -0.1459806
0.17694296 -0.071270846 -0.12325139 -0.081052005 -0.058310132 -0.16671799 0.096383214 -0.065720946
0.12864716 0.20119502 -0.095079206 0.14201665 -0.051903643 0.051555607 0.007568428 -0.19879453
00000000: ccab ff3d cb8c 41bb 150f dbbd 13aa 0d3e
00000010: 9555 fa3d 2183 c3bd 2ce4 39be 1d7a fcbc
00000020: 67d2 e73d 517c 40be d2a9 16bc 9560 1b3e
00000030: 3be9 b1bd bfe6 c3bd 1f3c 453e f07b 15be
00000040: 8930 353e 73f6 91bd 3a6b fcbd 98fe a5bd
00000050: 9bd6 6ebd 1fb8 2abe 9064 c53d b498 86bd
00000060: 15bc 033e 1106 4e3e e3b8 c2bd d06c 113e
00000070: ea98 54bd f92b 533d 9300 f83b cb90 4bbe

output.weight f4 [1, 32]
0.31883132 -0.39305133 -0.3107364 0.24033237 0.256489 -0.25475493 -0.32725722 -0.3572678
0.2597136 -0.35217524 -0.28464437 0.26638263 -0.38727114 -0.34902674 0.31977636 -0.40910327
0.24300677 -0.41034472 -0.3162636 -0.31012648 -0.3283598 -0.3989316 0.36360344 -0.33096772
0.40534538 0.26116392 -0.25612068 0.39652455 -0.23174864 0.39222887 -0.33953035 -0.29393503
00000000: dc3d a33e 063e c9be d718 9fbe b019 763e
00000010: 8752 833e 3d6f 82be 428e a7be ceeb b6be
00000020: 2ef9 843e 5050 b4be e8bc 91be 4e63 883e
00000030: 6748 c6be a2b3 b2be bab9 a33e fc75 d1be
00000040: c4d6 783e b418 d2be 4ded a1be e6c8 9ebe
00000050: c71e a8be c340 ccbe 3b2a ba3e 9a74 a9be
00000060: 6e89 cf3e 47b7 853e 4022 83be 4405 cb3e
00000070: 844f 6dbe 39d2 c83e ecd6 adbe a77e 96be
